cnn-100equalsplit.pt (torch, 124683 bytes, 50 tensors)

conv1.weight f4 [8, 1, 5, 5]
000000 6c 82 ce bd f2 ec b4 bc 97 00 a3 bd 3f d6 03 3e
       -0.1008347 -0.02208564 -0.07959097 0.12874697
000010 11 0f 96 3c d3 4a b1 bd 64 b4 c4 3d 7c ce a3 3e
       0.018317731 -0.0865685 0.09604719 0.31993473
000020 31 ea eb 3d 0f b5 87 be 30 58 7e 3d d8 51 0e 3e
       0.11519278 -0.26505324 0.06209582 0.13898408
000030 70 27 e2 3d 52 f3 b5 3e e5 42 dc 3e e5 9d 31 3e
       0.11042678 0.355372 0.43019786 0.17345388
000040 00 0e 66 be 10 48 2f 3e 1b c3 85 be 62 8e 02 3f
       -0.22466278 0.17117333 -0.26125416 0.5099851
000050 15 ef 69 be 84 73 e2 be 19 6c 92 be 53 35 23 bf
       -0.22845109 -0.44228756 -0.28598097 -0.6375324
000060 37 c0 d0 be 9d d8 72 3d 5c 5f 29 3e 93 8e 2b be
       -0.40771648 0.05928861 0.16540283 -0.16753606
000070 64 9e 6e 3d fe 25 3c bd 1c 1b ac 3e 70 29 05 3f
       0.05825652 -0.04593467 0.33614433 0.52016354
000080 3d 9b aa bc 3f aa 97 be 8f 81 09 be c8 01 de 3e
       -0.020825977 -0.29622075 -0.13428329 0.43360734
000090 f6 33 ed 3e 0d f6 f6 bc 12 f7 a7 be b7 40 f3 bd
       0.46328706 -0.030146623 -0.32805687 -0.11877578
0000a0 ca ae 4f 3e 0b 5b c1 be 18 b2 75 bd 8d df 24 3e
       0.2028152 -0.37764773 -0.059984297 0.16100903
0000b0 b5 76 17 bf 02 de 25 3e 74 60 e8 3d 62 a5 f9 bd
       -0.5916551 0.1619797 0.11346522 -0.121897474
0000c0 88 38 95 be ea a3 44 3e 58 f0 51 3e dd dd 15 bd
       -0.29144692 0.19203153 0.2050184 -0.03658854
0000d0 59 7f e4 be f2 5c 9e bc 28 d1 55 3d df e7 65 be
       -0.4462841 -0.01933143 0.05220142 -0.22451733
0000e0 b6 b1 f0 3e 7d f9 5a be 2f d0 fe be 73 87 9d 3e
       0.47010583 -0.21384235 -0.49768206 0.30767402
0000f0 03 97 e7 3d 7d 0e d2 bd e9 e7 fe 3e e4 28 b8 bd
       0.113081 -0.1025667 0.49786308 -0.08992174
000100 46 0e 05 3e 53 80 32 be e6 2e 9c be 04 ed 07 bf
       0.12993726 -0.17431764 -0.3050453 -0.5309603
000110 2d f7 5b 3e b7 b2 ae 3e a2 ea 9c bd f2 0f a9 3d
       0.21481009 0.34120724 -0.0766194 0.082549945
000120 23 2f 46 be 07 51 81 be a4 02 af 3e 07 72 58 be
       -0.19353919 -0.2525713 0.34181702 -0.21137248
000130 d1 08 65 bd a4 9e 38 be d6 d4 55 bc d1 a6 99 be
       -0.05591661 -0.18029267 -0.013051232 -0.30010083
000140 f2 33 24 3e 90 1d 8e be cd b9 40 3d 94 23 04 be
       0.1603544 -0.2775693 0.047052193 -0.12904197
000150 77 a0 e2 3c df 5b bc be 84 8a e2 be 5b 4d c7 bd
       0.027664406 -0.36788842 -0.44246304 -0.09731551
000160 32 c4 6c be fd a0 4b 3e 4f e2 9a bd 14 cb 7c bd
       -0.23121718 0.19885631 -0.07562696 -0.061717108
000170 40 06 18 3e 5b 33 99 3d c1 eb ea be 50 77 dc 3e
       0.14846134 0.074804984 -0.4588299 0.43059778
000180 2f 89 d7 3e 3a 28 cc bd b2 ac 11 be 43 89 c3 3e
       0.4209685 -0.0996861 -0.14226034 0.3819066
000190 8a 57 92 3e 19 40 16 be 56 2c b1 3d d6 48 36 3d
       0.28582412 -0.14672889 0.086510345 0.044503056
0001a0 fa c8 0b bf 52 20 c4 bd 7d 66 0d be 12 e7 97 3e
       -0.5460354 -0.09576477 -0.13808627 0.2966848
0001b0 85 05 20 3e 71 d0 26 3f 15 4f 0c be 98 3e ba 3d
       0.15627106 0.65161806 -0.13702042 0.0909397
0001c0 23 64 6d be a7 6a 2f be e3 76 c7 be 37 38 4a be
       -0.2318273 -0.17130528 -0.3895789 -0.19748007
0001d0 8a 19 1e 3f 0d f0 09 3f e2 17 23 be 5a 6c 81 bc
       0.6175772 0.53881913 -0.1592708 -0.015798736
0001e0 bb 09 27 3f ad ae 14 3e 85 8d d3 3e da ed f5 3e
       0.6524922 0.14519759 0.41318908 0.4803303
0001f0 45 18 8d 3d 1e 39 fb bd f5 f3 cb bd a7 ec 1b bf
       0.06889395 -0.122667536 -0.099586405 -0.6090798
000200 fd 96 da be d3 35 92 3e be a4 a6 bd 88 9a 4a 3e
       -0.4269332 0.2855669 -0.08136891 0.19785511
000210 67 5d 9d 3d f9 ed a5 be 6b de 4e bc f2 d8 62 3e
       0.07683831 -0.3240812 -0.012626271 0.2215307
000220 2b e7 52 3e e8 65 5a 3e fe 59 ea 3c 0e 91 d1 be
       0.20595996 0.21327937 0.028607365 -0.4093098
000230 df 11 ea 3c 2e bf 9c bd 9a 50 1e 3d 0a 16 57 be
       0.028572975 -0.07653652 0.038651086 -0.21004501
000240 23 82 5a 3f d8 bd 16 be 21 f7 43 be 54 43 ea bc
       0.8535482 -0.14720857 -0.19137241 -0.028596558
000250 54 cb c1 be c7 c6 13 bd bb 96 02 bf 96 5c 31 bf
       -0.3785044 -0.03607824 -0.51011246 -0.692819
000260 f0 4b 60 3e c7 f3 56 be 82 f4 07 be 87 9e 9b 3d
       0.21903968 -0.20991431 -0.13276866 0.07598596
000270 5f 73 4e be 86 cc e0 bd ec 41 d6 3c 32 55 63 be
       -0.20161198 -0.1097651 0.02615448 -0.22200468
000280 56 ff bd bb a0 47 d5 3e 39 7f 03 3f b3 11 11 3f
       -0.0057982607 0.41656208 0.51366 0.5666763
000290 4d d5 85 3f 8b 92 18 be 46 04 8b bc e2 c5 fb 3d
       1.0455719 -0.14899652 -0.016969811 0.122936025
0002a0 a3 be d6 3e 3d 47 26 3e 6a d0 47 bd e6 4e 13 3d
       0.4194232 0.16238113 -0.048782744 0.035963915
0002b0 02 8a a5 bd e4 8b 1d 3e ed 83 95 be 5b 0b 0a 3f
       -0.080829635 0.15385395 -0.29202214 0.5392358
0002c0 a8 db 1a bd 48 78 07 3e 0a a7 ff be 6a ba a4 3e
       -0.037807137 0.13229477 -0.49932128 0.32173473
0002d0 ba 9d 60 3d b6 b6 09 bf d7 c1 e7 3d e7 02 27 3e
       0.05483792 -0.5379442 0.11316269 0.16309701
0002e0 6e a3 8a 3e 75 e4 d9 3d 32 a7 ac be 12 02 77 be
       0.27077812 0.10639278 -0.3372131 -0.24121884
0002f0 29 47 a3 3e 37 88 33 3c af f1 2b 3e f5 d2 8b 3e
       0.31890228 0.010957769 0.16791414 0.27309385
000300 48 b9 3a be 5c 95 a7 be 01 69 6d be 64 52 1a be
       -0.18234742 -0.3273114 -0.23184587 -0.15070492
000310 79 e7 03 bf e0 64 ca be a0 dd a4 be 30 90 39 bf
       -0.51525074 -0.39530087 -0.32200336 -0.7248564

conv1.bias f4 [8]
000000 ee 8a b1 3d d6 90 52 3d db 9a ce 3c b2 1e 8f 3d
       0.08669077 0.051407658 0.025220325 0.069882765
000010 ca e0 0b 3d f6 bf e7 3c 9f c5 66 3c 24 c3 27 be
       0.034149922 0.028289776 0.0140852025 -0.16383034

bn1.weight f4 [8]
000000 dd 28 58 3f 0d 8e 9a 3f 06 22 63 3f 83 59 73 3f
       0.8443735 1.20746 0.8872379 0.9505846
000010 73 de 79 3f 0c 30 65 3f 1a 6e 97 3f f5 6f 6d 3f
       0.97605056 0.8952644 1.1830475 0.9274896

bn1.bias f4 [8]
000000 0c f5 63 bd 64 b4 31 be 8b 76 b3 3d 87 b6 79 bd
       -0.055653617 -0.1735397 0.08762845 -0.060965087
000010 06 43 77 3c d7 77 3a bd f8 5b e6 bd 3c 3b 83 be
       0.015091663 -0.045524444 -0.112480104 -0.2563113

bn1.running_mean f4 [8]
000000 72 46 a9 3e 6c 09 7a 3e 4f 9e 53 3e bd 72 0a 3f
       0.33061558 0.24417657 0.20665859 0.54081327
000010 28 1c 6a 3f cb 60 c6 3e 80 b3 0a 3f 2f 50 43 3f
       0.91449213 0.38745722 0.54180145 0.76294225

bn1.running_var f4 [8]
000000 db 59 63 3e d1 3f 17 3e 3c 44 ba 3d 09 0d 21 3f
       0.22202246 0.14770438 0.09095046 0.62910515
000010 59 e3 ce 3f bb 5a 9d 3e a5 0a 4a 3f d3 3f 9e 3f
       1.6163131 0.30733284 0.7892249 1.2363228

conv2.weight f4 [16, 8, 3, 3]
000000 72 71 63 be 60 75 bf bd e6 b3 88 3d dd 89 5f be
       -0.22211245 -0.093485594 0.06674938 -0.21829934
000010 65 95 69 be 95 03 71 bd fb 33 72 3e 8c e3 6a 3e
       -0.22810896 -0.058841307 0.23652641 0.22938365
000020 da 9c 5a be 76 cb 84 bd b9 94 08 bd 4a 4f 3c be
       -0.21348897 -0.064841196 -0.033344958 -0.18389621
000030 a0 ab 7a 3e 67 02 40 3e 7e 4f 43 3e 24 c2 e6 3d
       0.24479532 0.18750916 0.19073293 0.11267498
000040 7c ec 6d 3e 9f d6 11 3e 3a dd 98 bd cd 03 79 be
       0.23234743 0.14242028 -0.074640706 -0.24317856
000050 d0 a1 6b 3e f4 a0 61 bc 79 4e 5e be 0c e5 a0 3d
       0.23010945 -0.013771284 -0.21709622 0.07856187
000060 54 02 4b bd 7e 09 3e 3e 2c 33 cf bc 29 68 e6 bc
       -0.049562767 0.18558308 -0.025292955 -0.02812584
000070 97 a0 58 be 36 7b 8f be 7c e4 c7 bd 04 05 4c be
       -0.2115501 -0.2802369 -0.09760377 -0.19923788
000080 08 b1 22 be e7 5a 9c 3e b7 d8 36 be 43 0a b5 3c
       -0.15887845 0.30538103 -0.17856108 0.02209962
000090 7e 08 23 bc 54 51 8a 3e 76 0a 7f 3e b9 0f b6 bd
       -0.009950755 0.27015173 0.24906334 -0.088897176
0000a0 3a dc 42 3e b7 0e d3 3c 70 d1 d9 3e db 20 bf 3e
       0.19029322 0.025763853 0.425426 0.37329754
0000b0 59 7d 62 3e 9c 8e 4d 3e 3a 34 ca bd d0 32 fb bd
       0.22118129 0.20073932 -0.09873243 -0.12265551
0000c0 03 86 72 3a 35 d2 10 3e 4c 7b b9 3d 8f 1b 06 3e
       0.00092515367 0.14142688 0.0905672 0.1309645
0000d0 d2 1e c3 3d aa 29 37 3e 71 96 b3 be 90 56 73 be
       0.09527363 0.17886987 -0.35075715 -0.2376349
0000e0 53 36 3b bc 33 3a ee be b5 d7 ae be b0 f0 03 be
       -0.011426526 -0.46528777 -0.34148946 -0.12884784
0000f0 c3 ba 9f 3e d1 15 cd 3e 22 6e e7 bd c5 c6 5b be
       0.31197175 0.40055707 -0.11300303 -0.21462543
000100 49 38 5e bd 19 ea 96 bd da f3 a1 bd f9 b9 9f 3e
       -0.054252896 -0.07368869 -0.07907839 0.31196573
000110 20 d4 14 3e 35 2f eb 3d 78 c5 59 be f4 7c 87 3d
       0.14534044 0.114836134 -0.21266735 0.0661563
000120 5d 2b ce 3e 19 3a ac 3d 9e d9 02 bd d2 24 47 be
       0.4026746 0.08409519 -0.031945817 -0.1944764
000130 39 00 06 bd cf 2c fc bd b7 ec e7 bd e7 c2 f4 bc
       -0.032715056 -0.12313234 -0.11324447 -0.029878093
000140 99 5e be 3d 0c db 97 3e 2c d6 65 3e 7c d3 e7 3d
       0.09295387 0.29659307 0.22444981 0.11319634
000150 49 9a 82 3d ce 83 1e 3e de 7b 94 3d 67 35 f6 bd
       0.06377084 0.15479967 0.07250188 -0.120219044
000160 5c 2f 76 bd 1d 47 3c 3e cb 95 92 3e 2f e8 f0 bd
       -0.06010376 0.18386503 0.28629908 -0.117630355
000170 35 ea a8 3e bb 1a 44 3d 5c f2 bc bd e9 35 0f 3e
       0.32991186 0.047877055 -0.09225914 0.13985409
000180 d8 fb 69 3e 1c 52 bd 3d 0c a8 07 be 5b f6 0c 3d
       0.22849977 0.09244177 -0.13247699 0.03441463
000190 e4 e2 24 bd 8b ec 6f 3e a7 03 f7 3c b8 5b 88 3d
       -0.040255442 0.23430078 0.030153109 0.06658119
0001a0 db bd 71 3e b2 6a ac bd 7e 77 0f 3a c7 b3 34 bc
       0.2360758 -0.08418788 0.0005472823 -0.01102919
0001b0 04 f0 16 3d d0 63 d6 3e 42 be cf 3e 48 ac 0f be
       0.03684999 0.41873026 0.40574843 -0.14030564
0001c0 c1 22 f6 3d 6d 99 5e bc 9e 0e c2 be 3b c7 91 3d
       0.120183475 -0.013586384 -0.37901777 0.07118078
0001d0 3e 40 3b bd 43 0c 86 be 4b 0c 80 be d4 f5 0e 3d
       -0.045715563 -0.2618123 -0.2500938 0.03490241
0001e0 52 f9 8a 3e 9b 48 66 3e 8e 5b 2e 3d b4 c8 9c 3d
       0.2714334 0.22488634 0.042567782 0.076554686
0001f0 b2 c4 77 bd 52 67 62 be a7 84 66 3e 98 80 80 3e
       -0.060490318 -0.22109726 0.2251154 0.2509811
000200 bc cf 5c 3e a3 e9 d2 3c 57 f9 a3 be 01 6f 84 3e
       0.2156362 0.025746172 -0.3202617 0.2586594
000210 40 6c 9d be b2 bd 21 be b0 03 b7 bd f9 f4 1b 3e
       -0.3074665 -0.1579502 -0.0893625 0.15230168
000220 0a d0 5b be d9 b2 fb bc e6 f0 dd 3c ad c1 14 bd
       -0.2146608 -0.03072493 0.027092408 -0.036317516
000230 1c 36 3e 3b d2 e4 bd be c9 7d 9f bd 0a 0d 2a 3e
       0.002902395 -0.3708864 -0.077876635 0.16606537
000240 e4 39 25 3e 38 96 e8 3d c8 91 2b bd 77 d0 c6 bd
       0.16135365 0.11356777 -0.041887075 -0.0970773
000250 92 a3 c7 bd 6b 7d c1 3c d7 8b 01 bf e3 21 c5 be
       -0.097479954 0.023619374 -0.50604004 -0.38502416
000260 3e 1e e5 be 9e 6c 2d be 89 22 38 be 8d 77 ad 3c
       -0.44749635 -0.16935965 -0.17981924 0.02117517
000270 ff 59 83 bd 74 20 9f 3d 7b ba 0d 3e 59 d3 40 be
       -0.0641365 0.07769862 0.13840668 -0.18830623
000280 4e d9 9d be 2f c4 49 be b7 28 80 bd 9e 33 ab 3d
       -0.30829853 -0.19703744 -0.06257766 0.083594546
000290 39 1b ac 3e ee 4a ef bd 05 69 89 bd 7d 36 72 3d
       0.3361452 -0.116842136 -0.06709484 0.059133995
0002a0 e4 eb 83 be 0c 44 98 be c9 98 73 be 83 d7 f7 bd
       -0.25765908 -0.29739416 -0.23788752 -0.121016525
0002b0 9e 89 e4 3d 0a f0 bf 3e 73 02 47 3e b4 98 af bd
       0.11159061 0.37487823 0.19434528 -0.08574048
0002c0 c1 8a 30 3d f0 52 ec bd c9 16 6b 3e 09 51 38 3c
       0.043101076 -0.115392566 0.2295791 0.011249789
0002d0 c8 59 5e bd a5 39 ab bb 9c 80 f3 bd d5 3e bf bd
       -0.05428484 -0.0052253776 -0.11889765 -0.09338156
0002e0 2e c8 cb bd 95 bd 8f 3c f8 f4 0b 3e 53 bb 25 3e
       -0.099502906 0.017546454 0.13667667 0.1618474
0002f0 fa 27 f3 3c 2b af ef bc fa ec 75 3c 8c 64 2b bc
       0.029682148 -0.029258331 0.015010113 -0.010460984
000300 fe 62 bd 3d 37 fb 60 3e cb 31 3a 3e 7f e4 8f be
       0.09247397 0.21970831 0.18183057 -0.28104016
000310 4d 8c c2 bd c1 ce 2c be 97 42 4e bd 1d 38 0e 3e
       -0.094994165 -0.16875745 -0.050356474 0.13888593
000320 1f b1 c8 3d 1b e0 49 3e 44 42 4a be 3f 68 b3 3d
       0.09799408 0.19714396 -0.19751841 0.08760118
000330 fa 8c 65 3e 37 73 b3 bc fb f2 f2 bc d8 5a 90 3e
       0.2241706 -0.021905525 -0.029656878 0.28194308
000340 56 bc e8 3d a4 ae c5 3d f4 c1 39 be bd 1b 97 3d
       0.11364047 0.09652451 -0.18140393 0.073783375
000350 3d 90 3f be 6c 85 1c bd ee e1 55 be 14 c1 36 bf
       -0.18707366 -0.03821318 -0.20886967 -0.71388364
000360 21 90 9b 3d 98 2f e7 bb 00 e6 40 be c9 22 5f 3e
       0.0759585 -0.007055234 -0.18837738 0.21790613
000370 a1 58 85 bd 2a 27 74 3c 9e df eb 3d 9a f0 95 bc
       -0.06511045 0.014901916 0.11517261 -0.018303204
000380 c2 d2 96 3b 36 86 31 be 1d b7 56 be d6 10 46 be
       0.004602761 -0.17336354 -0.2096829 -0.1934236
000390 ce 7a 04 3e 79 ab 92 3e 27 82 27 3e 33 e8 c7 3d
       0.12937471 0.28646448 0.16358243 0.09761085
0003a0 dd 8b cd 3d 7e 83 72 3d 28 4a a7 3d ce 68 2e be
       0.100364424 0.059207432 0.08168441 -0.17032167
0003b0 aa 98 09 3d 9a 8b 2a 3c ff 3f df bd c2 a8 4d be
       0.033592857 0.01040926 -0.10900878 -0.20083907
0003c0 03 34 14 be 14 7c 40 bc ec 06 0c 3e 23 f6 bc 3d
       -0.14472966 -0.0117483325 0.13674515 0.09226634
0003d0 0a 0e b9 3d 1e 11 a0 be ce c3 95 be 3b b4 69 be
       0.09035881 -0.3126306 -0.2925095 -0.22822659
0003e0 86 1c 09 3e ff fe da 3e f9 79 26 3d ed 78 a8 bd
       0.13389787 0.42772672 0.040643666 -0.0822619
0003f0 4d 47 3e 3e c3 6d 39 3e 88 d1 2e be 75 ed bb bd
       0.18581887 0.18108277 -0.17072117 -0.09176151

conv2.bias f4 [16]
000000 1b 67 a6 bd 7a c5 8d be 7d 49 48 3e a1 6f 21 be
       -0.081251346 -0.27689725 0.19559284 -0.1576524
000010 35 49 77 bd d6 66 ae be 41 d8 26 bd fa e4 7d be
       -0.06037255 -0.34062833 -0.04073358 -0.24794379
000020 46 91 ea 3d 7f 23 08 be 0e fd f1 bc 3c e5 f4 bd
       0.1145349 -0.1329479 -0.029539611 -0.119577855
000030 2d de 83 3d c2 13 94 3d 25 57 04 bd 5a 0e 20 3e
       0.06438861 0.07230331 -0.03230967 0.15630475

bn2.weight f4 [16]
000000 92 b9 69 3f a7 84 85 3f ac 40 5d 3f 52 8a 95 3f
       0.9129878 1.0431107 0.86426806 1.1682837
000010 c8 8f 70 3f a9 12 8d 3f 7e f4 85 3f 82 da 8f 3f
       0.9396939 1.102132 1.0465238 1.1238558
000020 e2 29 74 3f 7c 6d 8c 3f 61 07 6e 3f db c8 4b 3f
       0.9537641 1.0970912 0.9298001 0.79603356
000030 48 2e 68 3f 03 02 78 3f 9b 97 70 3f a7 50 56 3f
       0.9069562 0.9687807 0.9398133 0.83716816

bn2.bias f4 [16]
000000 e2 98 c6 bd 1f 23 3a be 94 7a a0 3d 55 bf 87 bc
       -0.09697129 -0.1817746 0.0783588 -0.016570726
000010 a5 c9 30 3c 39 4a 60 3d c4 bb a3 bb 48 fa 91 bd
       0.010790263 0.054758284 -0.0049967486 -0.071278155
000020 42 21 d0 bd 17 3e 00 be 23 57 51 3c 8f 60 12 3e
       -0.101625934 -0.12523685 0.012777123 0.14294647
000030 64 c3 75 3d a8 b7 59 be 77 2d 17 be 3e 8e 15 bf
       0.060000792 -0.21261466 -0.14763437 -0.5842017

bn2.running_mean f4 [16]
000000 2d 2e 39 3f de 7d c9 3e cf 00 87 3f bd 3a c7 3e
       0.72336084 0.39353842 1.0547122 0.38912
000010 9c 9e 34 3f 78 1e 82 3e 64 16 82 3f 57 b6 89 3e
       0.7055452 0.2541387 1.0163083 0.26896927
000020 6a a5 59 3f 0e 82 07 3f ed 82 f9 3e 41 ec 42 3f
       0.85018027 0.5293282 0.487327 0.76141745
000030 2c 49 6b 3f f3 a0 2a 3f 6f ec 22 3f 5b 8a 97 3f
       0.91908526 0.6665184 0.6364202 1.1839098

bn2.running_var f4 [16]
000000 bf 25 b9 3f 1c bd 3d 3f c2 e1 9a 3f 66 64 58 3f
       1.4464644 0.74116683 1.2100146 0.84528196
000010 38 20 c1 3f 41 fc c5 3e c4 60 b0 3f 6d 1e f2 3e
       1.5087957 0.38669017 1.377953 0.47288838
000020 18 90 78 3f dc 44 88 3f 42 2c d1 3e 41 ee 0e 40
       0.9709487 1.0646014 0.4085408 2.2332919
000030 cd 6a 4c 3f a8 72 40 3f d4 f5 c1 3f fa d9 c0 3f
       0.79850465 0.7517495 1.5153146 1.5066521

conv3.weight f4 [32, 16, 3, 3]
000000 7f 8f 2a 3e 79 fa 80 3d 59 c7 b2 3c 39 8f 91 bd
       0.16656302 0.06297774 0.021823572 -0.07107396
000010 ea b3 02 bd 12 ff d3 bc 1c 6d 5d bc 3a 67 cd 3d
       -0.03190986 -0.025878463 -0.013514783 0.100294545
000020 18 bf 98 3d 9a 51 89 3d 1d 8b 22 3e 77 91 cc bd
       0.07458323 0.067050174 0.1587338 -0.09988683
000030 3f bf a3 be c4 6b 8a be 8e e5 8b be 4e 20 23 bc
       -0.31981847 -0.27035344 -0.27323574 -0.0099564325
000040 56 c5 d6 3d 21 7c a2 3d d4 e5 bd 3b d6 cb 81 be
       0.104868576 0.07933832 0.00579522 -0.25350827
000050 2c 31 d0 bd 4b ae cd 3d 02 88 28 bd 8d ec cb 3d
       -0.10165629 0.10043009 -0.041145332 0.09957228
000060 ef b3 56 bd 28 a6 22 3e 40 4e 0e 3c b0 98 40 be
       -0.05241769 0.15883696 0.008685648 -0.18808246
000070 aa ea 32 be 4a 7f 82 be 93 5d 4c bd 50 0b 0d be
       -0.1747233 -0.2548774 -0.049893927 -0.13773847
000080 3e 6f 25 bd 3c 25 52 3e 7c f1 fb 3d 67 0f 55 3d
       -0.040389292 0.20522016 0.12301919 0.052016642
000090 6f 85 11 3e 14 8d 23 bb b7 6b f4 bc e9 2e 9c be
       0.14211057 -0.0024955915 -0.029836519 -0.3050454
0000a0 24 82 a6 3d 77 f7 99 3c 73 7a fe 3d 3f 2a ec 3b
       0.08130291 0.018794758 0.12425699 0.0072071846
0000b0 81 6a 1f 3e b1 27 cf bd 63 8f 41 bb 07 1f e6 bd
       0.15567972 -0.101149924 -0.0029534928 -0.11236387
0000c0 b8 68 5b be bf 06 1f be 6c 80 2b 3d 8b c4 49 3d
       -0.21426666 -0.15529917 0.04187052 0.049259704
0000d0 16 47 04 bd eb ac 5c bb 31 22 e8 3c 5e 1c 3b be
       -0.032294355 -0.0033672403 0.028336616 -0.1827254
0000e0 f3 f1 a2 3b 6f 0c 8c be d8 1b 18 be 01 1f 9f bd
       0.0049726903 -0.27353236 -0.14854372 -0.077695854
0000f0 18 35 07 3d cc 77 41 3e b8 a0 64 bd e6 29 1e be
       0.03300962 0.18893355 -0.055817336 -0.1544567
000100 a4 58 c7 bd 37 93 cb bd 11 e4 20 3d 2c 33 31 3c
       -0.09733704 -0.099401884 0.03928 0.010815423
000110 40 20 90 3d fb a0 87 3e 3a 37 56 3e 6d f5 49 3e
       0.07037401 0.26490006 0.20919505 0.19722529
000120 4b 08 1f 3d 6b c4 06 3d 5e e1 49 3d ee 25 f3 3d
       0.03882627 0.032902163 0.049287193 0.11872469
000130 9c 3f 2b 3e 20 3b fa 3d 9a a8 9b bd 84 42 8b bb
       0.16723484 0.122183084 -0.076005176 -0.0042498726
000140 a5 74 17 3e 95 f6 ca be cf d2 76 be 72 eb 4d be
       0.1479059 -0.39641252 -0.24103855 -0.20109347
000150 76 c4 5a 3d ed 99 4d 3e ad 68 79 3d bd de 95 bb
       0.053410016 0.2007825 0.060890842 -0.0045736716
000160 2c dd 6e be 7d 62 21 3a 1e 1a 95 be d2 25 8a be
       -0.23326558 0.00061563385 -0.29121488 -0.2698198
000170 8c dd 3c be 36 ac ba 3c 3e bf 14 be e0 4d a2 bd
       -0.18443888 0.022787195 -0.14526078 -0.0792501
000180 74 38 95 3e 6b ed ea 3d 5d 5c 7d 3e 0e e1 7f be
       0.29144633 0.11471065 0.24742265 -0.24988195
000190 ee ff 31 be cf 8b ac bd 2a ba b3 bd 1c c8 65 be
       -0.17382786 -0.08425104 -0.08775742 -0.22439617
0001a0 08 bb 1b 3d b1 4f 56 bc 9a 3a b3 bd c9 aa 35 3d
       0.038020164 -0.013080523 -0.08751412 0.044352327
0001b0 7e d0 e0 3d 11 47 e4 bd db 09 42 be 71 84 90 bc
       0.10977267 -0.11146367 -0.18949072 -0.017641278
0001c0 8b 0e 98 3d ee 53 18 3d 47 a5 56 3d 63 49 42 3e
       0.07424649 0.037189417 0.052403715 0.18973307
0001d0 48 a4 e4 3d 46 4e 6d bd 9b 55 8a 3e 13 65 88 3e
       0.11164147 -0.057935975 0.27018437 0.26639614
0001e0 01 88 19 3e ee 12 08 be bd a4 87 bd a4 b0 b9 3e
       0.14993288 -0.13288471 -0.06623218 0.3626758
0001f0 37 25 35 3e 43 61 c9 3d 11 db 90 bd fd bc 1b 3c
       0.17689978 0.09833004 -0.070730336 0.009505508
000200 08 cf 87 3d e2 12 c5 bb 45 61 3c 3e f2 66 47 be
       0.06631285 -0.006014214 0.1839648 -0.19472864
000210 44 ed 11 3e 41 4e ee 3d 99 06 04 3e 37 6b 94 bd
       0.14250666 0.116360195 0.12893142 -0.07247012
000220 02 27 a8 3e c0 6c a4 3d 26 7f c5 3d f3 25 ca 3c
       0.3284226 0.08028555 0.09643392 0.024676299
000230 48 54 3a be 3f fc 7e 3d 52 8c 94 bd ce 0d 82 be
       -0.18196213 0.06225228 -0.072533265 -0.25401157
000240 cf 9a ac be 7f ac 38 be d8 50 65 bd 00 57 87 bd
       -0.3371186 -0.18034552 -0.0559853 -0.06608391
000250 f4 31 2f be 54 9d c8 3d 6a 2b 8e bd 24 a9 25 bc
       -0.171089 0.09795633 -0.06941874 -0.010111127
000260 ec cf ac 3d 55 0f 83 bc 40 89 8a 3d 62 a6 ec 3d
       0.084380955 -0.015998522 0.067644596 0.115551725
000270 02 6a 78 bc 11 bb e1 bd a9 74 ab bd 38 02 84 3d
       -0.015161993 -0.11022008 -0.083718605 0.06445736
000280 3e 8e ae 3c 51 d7 ec 3b 11 75 69 3d 29 68 04 3e
       0.02130806 0.007227816 0.05699641 0.12930359
000290 90 bb 73 3d 7c d3 85 bc f9 ac c5 bc 04 46 0f 3d
       0.059505045 -0.016336195 -0.024130331 0.03497888
0002a0 e3 f6 bd 3c 82 d9 de bd 5a b0 55 3d 70 97 13 3d
       0.023189014 -0.1088133 0.052170135 0.036033094
0002b0 e9 f3 85 bd c5 cd 7a bd 36 ad 6e 3d b9 87 e7 3d
       -0.06540663 -0.061231393 0.058270656 0.11305184
0002c0 6b 45 fa bb b7 f5 41 3e f3 c9 3a 3d d4 f2 6c bd
       -0.00763767 0.18941389 0.04560275 -0.057848766
0002d0 77 be 19 be 78 e1 73 be 82 0b 50 be b6 af 96 3d
       -0.15014063 -0.23816478 -0.2031689 0.07357733
0002e0 3a 53 71 bc db 57 9e 3d 13 7e 61 bd 13 dd a1 bb
       -0.014729315 0.07731601 -0.055051874 -0.004939684
0002f0 71 05 0c 3e a9 04 fc be 60 46 ca be 34 a1 c7 be
       0.1367395 -0.49222305 -0.39506817 -0.38990176
000300 66 8e 53 be 71 9d c1 be c0 08 bd be 6a 6d 22 be
       -0.2065979 -0.3781543 -0.36920738 -0.1586205
000310 1e 69 9c be fa da 85 be b1 80 75 3e df b6 5a 3e
       -0.30548948 -0.26143628 0.23974873 0.21358822
000320 70 ca e8 3d d2 74 05 3e 6b 48 2d 3e 03 f9 8c 3d
       0.11366737 0.13032845 0.16922157 0.06883433
000330 d7 cf 6c 3c 11 6a f8 3d 3e 45 30 3e 69 76 f6 3c
       0.01445385 0.121296056 0.17213914 0.03008576
000340 26 dc a6 bd ea 92 90 be 2d f7 09 3d 39 25 7e bd
       -0.08147459 -0.28237087 0.03368299 -0.062047217
000350 44 15 dc bd 89 83 b4 bd 94 a7 9b be cc 7b 6f be
       -0.107462436 -0.08814151 -0.3040129 -0.23387069
000360 01 fa aa 3c 28 5a 34 bc 84 de b0 bd 5a b8 a3 3d
       0.020871164 -0.011007823 -0.086361915 0.07994147
000370 88 a5 63 3e 21 61 31 3e 26 05 c8 3d 89 1a 0d 3e
       0.22231114 0.17322208 0.09766607 0.13779654
000380 a7 9b 24 bc 37 87 d7 3d ea ff 3b 3d 6d 82 9a 3d
       -0.010046876 0.10523837 0.045898356 0.07544408
000390 ef 42 78 3c ff b8 66 3d dd 06 bc 3d 6b 69 11 3e
       0.015152677 0.05632877 0.091809966 0.1420037
0003a0 38 1f ce bd 88 00 27 be 80 39 ee 3d dc c9 66 3e
       -0.10064548 -0.16308796 0.11632061 0.2253794
0003b0 f0 da 40 3d 11 09 e6 3d 77 95 f0 3d 8d a4 b7 ba
       0.047083795 0.11232198 0.11747258 -0.0014010832
0003c0 bb e3 65 3c 3a a8 1b bd f8 d4 c1 bd bd e9 20 3e
       0.014031346 -0.03800223 -0.09464449 0.15714164
0003d0 43 3a 9f bd 68 8a e7 bd ed 97 85 bd 2b f3 9c 3e
       -0.077747844 -0.11305696 -0.06523118 0.30654272
0003e0 c6 33 82 3e 49 bd 9b bc d7 61 d3 bd 4a a0 75 3e
       0.25430125 -0.019011157 -0.10321396 0.23986927
0003f0 fb 09 62 bd f1 f4 7e bd 54 16 ef bd fe 73 a5 bc
       -0.0551853 -0.062245313 -0.116741806 -0.020196911

conv3.bias f4 [32]
000000 7d fc f7 bd 4a 00 31 be e0 c5 33 be 9a c5 1e bf
       -0.12108705 -0.17285267 -0.17555952 -0.62020266
000010 a6 ac ad be 52 ba f9 bd 81 99 fd bc 82 74 14 be
       -0.33920783 -0.12193741 -0.030956985 -0.14497569
000020 4f 77 88 be 6d e4 46 be 43 c4 43 be 6b 05 40 be
       -0.26653525 -0.19423075 -0.19117837 -0.18752067
000030 df 5d 3e be af bc ca bd 6d 99 cb bd 14 09 14 be
       -0.18590496 -0.0989927 -0.09941373 -0.14456588
000040 2b de de bd c7 0b 93 bc 2b 8b 20 be 75 1c 1f be
       -0.10882219 -0.017949952 -0.15678088 -0.15538199
000050 09 b9 3d be f5 63 9f be cc a4 7a bd e8 af 02 bc
       -0.18527617 -0.3113095 -0.06119232 -0.00797651
000060 6d 42 97 be 40 55 74 be 37 70 ce be 32 50 df be
       -0.29542866 -0.23860645 -0.40319988 -0.43615872
000070 55 a8 2b be d2 c8 9d be ca 39 61 be 30 ad 8f be
       -0.16763432 -0.30817276 -0.21994701 -0.2806182

bn3.weight f4 [32]
000000 79 7c 6a 3f 90 c0 86 3f 52 30 6f 3f 17 d1 89 3f
       0.9159618 1.0527515 0.93433106 1.0766934
000010 5f 58 87 3f 0f ed 54 3f 8c ba 7f 3f 41 39 7f 3f
       1.0573844 0.8317422 0.9989402 0.9969674
000020 97 27 89 3f 3f 5e 8a 3f 0e 51 80 3f bb 96 7e 3f
       1.0715207 1.0810012 1.0024736 0.99448746
000030 8e 38 6b 3f 93 6b 80 3f 78 e7 77 3f 19 93 70 3f
       0.9188317 1.0032829 0.9683757 0.93974453
000040 39 fb 80 3f d3 58 7a 3f 5a 90 53 3f 04 5d 71 3f
       1.0076667 0.97791785 0.8264214 0.94282556
000050 27 aa 4b 3f a0 fc 83 3f 38 8c 8a 3f 5f 29 59 3f
       0.79556507 1.031147 1.0824041 0.8482875
000060 23 1a 97 3f dd 23 8f 3f 51 1b 83 3f 0c 05 84 3f
       1.1804851 1.118282 1.0242711 1.031404
000070 54 ea 78 3f 12 79 4a 3f fa ae 99 3f 2e 09 84 3f
       0.97232556 0.7909099 1.2006524 1.0315301

bn3.bias f4 [32]
000000 7a ea 4d 3e 3b 38 42 3e ac de 60 bc 42 1e 80 3e
       0.20108977 0.18966763 -0.013724964 0.25023085
000010 24 c3 e4 3d 17 07 90 3d 16 df 25 3e 29 d6 20 bd
       0.111700326 0.07032602 0.16198382 -0.03926674
000020 f4 ed 9a 3e b5 c8 7e bd 02 4b eb 3d 8c 5f 82 be
       0.3025967 -0.062203128 0.11488916 -0.2546352
000030 06 d9 42 3d 55 a8 60 bd 7e 35 0a be 8f d9 7a 3d
       0.04757025 -0.054848034 -0.13496968 0.061242636
000040 aa 50 e3 3d 0b c1 4a 3e 2d 43 0b 3e 48 2f d8 bd
       0.1109937 0.19800203 0.13599844 -0.10555893
000050 27 61 1c 3f 9b 22 1c 3e e7 ba 22 bd f5 0c 83 3e
       0.6108574 0.15247576 -0.039729025 0.25595823
000060 1b ff 30 3e 9e 6f e3 3c e6 d4 3b be b0 17 30 3e
       0.17284815 0.027763184 -0.18342933 0.17196536
000070 be 34 ca 3e 28 b6 23 be 7e 4a 11 3d 53 09 76 3c
       0.39493364 -0.15987456 0.035471432 0.0150168715

bn3.running_mean f4 [32]
000000 a6 1a 1a 3f 08 91 3b 3f ec aa e2 3e a3 18 7e 3e
       0.6019691 0.73268175 0.44271028 0.24814086
000010 e3 0d 88 3f 4b 57 8b 3f f4 c4 76 3f f8 10 d2 3e
       1.0629238 1.0886015 0.96394277 0.4102857
000020 6e bc 1a 3f f4 33 cc 3e 1d b1 f4 3e a9 ac 84 3f
       0.6044377 0.39883387 0.47791377 1.0365192
000030 3a a4 24 3f cd 32 89 3f f6 19 26 3f 47 e7 d9 3e
       0.6431309 1.0718628 0.64883363 0.42559263
000040 88 68 1a 3f 5c 46 91 3f ef d5 06 3f 84 23 d7 3e
       0.6031575 1.1349597 0.52670187 0.42019284
000050 da ed 87 3f f4 df 2f 3f d0 c1 11 3f af ff e2 3e
       1.0619462 0.687011 0.5693636 0.44335696
000060 64 ec 40 3f 6b c9 af 3e e4 0c 4d 3f a6 e9 e8 3e
       0.75360703 0.34333357 0.80097795 0.4549076
000070 36 61 29 3f fc a4 08 3f 9c 11 10 3f 03 4a 42 3f
       0.6616396 0.53376746 0.5627687 0.7589418

bn3.running_var f4 [32]
000000 e9 3b 7c 3f 5d 07 89 3f ab 41 5a 3f 13 c2 47 3f
       0.98528916 1.0705372 0.8525645 0.7803051
000010 49 c1 ee 3f 30 f5 fb 3f 12 55 a8 3f 5b cc 28 3f
       1.8652736 1.96842 1.3150961 0.6593682
000020 c8 4f de 3f b5 ab 6b 3f 55 f3 bc 3f ff 44 9b 3f
       1.7368097 0.9205888 1.4761759 1.2130431
000030 59 61 a9 3f 77 90 0f 40 c9 dd 69 3f 83 24 86 3f
       1.3232833 2.2431924 0.9135404 1.0479892
000040 06 21 4b 3f 03 f1 ab 3f 10 5e 2c 3f 7d ca 80 3f
       0.79347265 1.3432926 0.6733103 1.0061795
000050 50 70 fe 3f f2 95 a9 3f 5c 7e ad 3f ec fe 7c 3f
       1.9878025 1.3248885 1.3554187 0.9882648
000060 74 8d 2b 40 ee ad 34 3f dd 0c 8f 3f 58 48 cf 3f
       2.6805086 0.70577896 1.11758 1.6193953
000070 fd 63 f6 3f 9d 44 8d 3f 1d 77 a1 3f 7e c7 87 3f
       1.9249264 1.1036564 1.2614475 1.0607755

conv4.weight f4 [64, 32, 3, 3]
000000 7b fb d6 bc a9 bb 4a bd c0 5a 36 bd 96 59 0b be
       -0.026242962 -0.049495373 -0.04452014 -0.13608393
000010 33 2b 21 bd d2 d7 6f bd 08 0e 94 3d 7a dc 33 3e
       -0.03934784 -0.05855543 0.07229239 0.17564574
000020 c1 24 c4 3d 20 06 5e 3d 09 28 87 3e 70 79 0d 3e
       0.09577323 0.05420506 0.26397732 0.13815856
000030 9b f2 5a bd b5 f2 fa bc 9f 94 2f be 09 d7 0b bc
       -0.053454023 -0.03063331 -0.17146538 -0.008535155
000040 22 05 6e bd 6e 0c 75 bd 7d 63 04 be d8 89 47 bd
       -0.058110364 -0.059826307 -0.12928577 -0.048715442
000050 76 56 e0 bd c9 67 a7 3d 9f 5f a3 3a 99 b1 84 3d
       -0.10953991 0.08174092 0.001246441 0.064791866
000060 85 f6 c5 bc eb a9 65 bd 5a 43 68 3d 57 3c 76 be
       -0.024165401 -0.05607025 0.056704856 -0.24046455
000070 d1 c2 a2 be 59 94 ab be 68 f1 a1 bd 12 ce 00 be
       -0.31789258 -0.33511618 -0.07907373 -0.1257861
000080 e6 cc c5 bd fd 68 e9 3b a9 55 18 bc e6 a1 58 bd
       -0.09658222 0.0071231113 -0.009297767 -0.052888773
000090 06 a5 a1 3c e7 70 ad 39 16 74 bd bd 56 2e 19 bd
       0.01973201 0.0003308125 -0.09250657 -0.037397705
0000a0 9e de 98 bd 87 da f6 bc b3 7a bf 3d 27 a8 86 bb
       -0.07464336 -0.030133499 0.09349575 -0.004109401
0000b0 5f 3f cd bd 7b e2 22 3e 40 5d 6d 3d 87 cb 01 3e
       -0.10021853 0.15906708 0.05795026 0.12675296
0000c0 75 de 46 3e 4e 95 f7 3d 72 6e 13 3e 85 a6 ba 3c
       0.19420798 0.120890245 0.143976 0.02278448
0000d0 a0 aa 21 bd f3 67 71 3c 20 fd ca bd 59 5b 81 bd
       -0.03946936 0.014734256 -0.09911561 -0.06316251
0000e0 9f 1a ed bd 7c 87 c4 3d 71 2c 1d 3d b4 19 99 bc
       -0.11577343 0.09596154 0.03837246 -0.018689014
0000f0 a5 43 2a 3e 42 c0 71 3d d3 14 1b 3c ea 83 14 be
       0.16627367 0.059021242 0.009465414 -0.14503446
000100 cf 5c 24 be 60 e0 16 be 90 c9 74 bd ee f2 3d bd
       -0.16051029 -0.1473403 -0.059762537 -0.046374254
000110 ad f0 a3 3c b4 13 34 3d b2 ec 45 bc 22 a4 59 bd
       0.020012224 0.043964103 -0.012080358 -0.053135045
000120 f8 e3 c6 bd b5 8c 74 bd 37 bc 1f be 2d 49 06 3e
       -0.0971145 -0.0597045 -0.15599142 0.13113852
000130 de 62 15 3e ed c5 0c 3e 85 3b 94 3d d7 05 9b bd
       0.14588496 0.13747378 0.07237915 -0.07569473
000140 0c 4b 8e 3d ab d8 e5 3d 59 5a 8c bd 13 d2 03 bd
       0.06947908 0.11222967 -0.0685317 -0.032182764
000150 ab ca f3 bd 0b dc 0b 3e 1f 0b cc bd 42 1d 89 bd
       -0.1190389 0.13658158 -0.09963059 -0.066950336
000160 e0 88 13 be e2 ff 3b bd 16 87 0e 3e 00 09 f7 3d
       -0.14407682 -0.045898326 0.13918719 0.120622635
000170 1d 47 0c 3e 97 d1 26 3d 47 59 0c be 44 1e b8 bd
       0.13699003 0.040727224 -0.13705932 -0.08990148
000180 ce 9a 23 3d 7e 1d 43 3d 6a 3b cb 3c 6e e1 c6 bc
       0.039942555 0.047635548 0.024808604 -0.024277415
000190 78 5e 24 bd 78 4d 2b bc a9 a9 b9 bd de 6e 4e be
       -0.040129155 -0.010455482 -0.09065563 -0.2015948
0001a0 2a aa b1 bd 47 48 3d be 6e ca 5b be bf 66 b5 bd
       -0.08675034 -0.18484603 -0.2146394 -0.08857488
0001b0 a1 1f 05 bd 89 9d 5e ba 92 c6 9c ba af ce 09 be
       -0.032500867 -0.00084921025 -0.0011961034 -0.1345775
0001c0 36 e5 4c bd 11 ef 99 bd e5 cf 1c be 40 c0 2c bd
       -0.05002328 -0.075163014 -0.1531368 -0.04217553
0001d0 9f b6 b4 bd 69 f4 44 bd 42 82 b1 bd 04 43 52 be
       -0.08823895 -0.04808465 -0.08667423 -0.20533377
0001e0 f7 e7 88 bd b0 9b db bc e5 be 4e bd b0 04 17 be
       -0.06684869 -0.026807636 -0.05047502 -0.14747882
0001f0 c5 e5 11 be bb f0 08 be 33 1a 77 3c a1 b3 35 3e
       -0.14247806 -0.13373081 0.01508193 0.17744304
000200 9e ba 2e 3e 38 49 bc bd 66 14 b7 bc 07 90 8c bd
       0.17063376 -0.09193653 -0.022348594 -0.068634085
000210 99 e0 6f bd c9 04 11 be af d7 99 bd f3 d5 01 3d
       -0.058563802 -0.14161982 -0.075118415 0.03169818
000220 4c aa 29 3d 0d 9e 81 3d ff 4b a1 3c 95 69 30 3d
       0.041422173 0.06328974 0.019689558 0.04306944
000230 76 f4 e2 3c be f3 3b 3d 2a 94 33 3d 18 90 c0 3c
       0.027704459 0.045886748 0.043842472 0.02350621
000240 f2 92 8b 3d 0c c0 6e bd dc c5 82 3d 47 0a 0e be
       0.06815137 -0.05828862 0.06385395 -0.13871108
000250 eb 13 d8 bc 14 90 97 bc 8a 29 c6 3d 7e 00 82 3d
       -0.026376685 -0.018501319 0.09675892 0.0634775
000260 8f 08 3e 3d c1 67 9f be 4e 2c 70 be f0 45 84 be
       0.04639488 -0.31133845 -0.23454401 -0.25834608
000270 bc ff 83 bc 4e 91 86 bd 94 71 a4 3a d8 7a 1f 3e
       -0.016113155 -0.065706834 0.0012546056 0.15574205
000280 46 6e 6e 3d d7 68 e5 3d 02 87 27 bb c5 d4 40 3d
       0.058210634 0.11201637 -0.0025562649 0.047077913
000290 59 c8 76 bc a5 f6 2b be 98 67 ff bd e7 70 4a be
       -0.015062415 -0.16793306 -0.12470931 -0.19769631
0002a0 70 83 af 3d 41 3e ca bc 53 a2 29 bd 43 a8 ed 3c
       0.085699916 -0.024687888 -0.04141457 0.029010898
0002b0 4b b5 48 3e 25 e1 91 3d 75 b9 b0 3c c6 6a 5b bc
       0.19600408 0.07123021 0.021572808 -0.013392156
0002c0 55 ee 17 bd c1 f1 29 be cb 0c 15 be ed 9d 14 be
       -0.037092526 -0.16596128 -0.14555661 -0.14513369
0002d0 d0 bf 0d 3e eb 71 8c 3d 2c d8 d5 3d bc c1 32 be
       0.13842702 0.06857666 0.10441622 -0.17456716
0002e0 55 b6 04 be 71 b4 d9 3d 75 d7 07 3c fd c4 83 bd
       -0.12960179 0.106301196 0.008291115 -0.06434057
0002f0 ab 93 8e bd 46 92 8f 3d b2 36 55 bd a0 3b 11 3d
       -0.06961759 0.07010321 -0.052054115 0.035457253
000300 79 bf bb 3c b3 24 1b 3e 95 c6 6b bc 74 e5 80 be
       0.02291845 0.15150718 -0.014390607 -0.2517506
000310 61 94 8c bd 2a 7e 95 bd a1 b7 11 bd f9 ae 15 be
       -0.068642385 -0.072994545 -0.035575513 -0.14617528
000320 8e 2c f1 bd ba 98 85 bd 9e dd 18 bd 07 0b b8 bd
       -0.11776076 -0.06523271 -0.037320726 -0.08986478
000330 44 27 d4 3d 41 83 80 3e 48 fc 43 3e 5f c2 6e 3d
       0.10359052 0.2510014 0.19139206 0.058290835
000340 23 be 6a 3d 74 9a dc 3d ba 9f 8a bd 18 7b 35 bb
       0.057310235 0.10771647 -0.06768747 -0.0027691778
000350 d0 67 c8 3d e4 f6 6f be da 01 ec 3d 16 06 b6 bd
       0.09785426 -0.23434025 0.11523791 -0.088878796
000360 c9 f3 a9 bc b9 14 ed 3b 39 7e ac 3c c0 49 6f bc
       -0.020746129 0.0072351363 0.021056281 -0.014604986
000370 0d 8e d0 3c fa 6f 4e bc 55 63 33 bb 2c 93 b1 3c
       0.02545836 -0.0125999395 -0.002737244 0.021676622
000380 cc 7e 4b 3d c5 be 54 bd f8 46 2e bd 3b f7 19 bd
       0.04968147 -0.051939745 -0.04254815 -0.037589293
000390 4c c4 3c 3d 3f 73 27 3d 5c e8 f0 3c a6 dd 93 bd
       0.04608564 0.04088139 0.029407673 -0.072200105
0003a0 bc 5a 36 bd 44 66 ac bc d1 93 8e 3d c4 12 e4 3c
       -0.044520125 -0.021044858 0.069617875 0.02784098
0003b0 c4 63 51 bd b8 1e 9a bd 15 a1 3e be fe 03 d9 bd
       -0.051120535 -0.075253904 -0.18616135 -0.105964646
0003c0 db a0 9d 3d 2a 13 86 3b 9a 76 2b 3d 6e bc 71 3c
       0.07696696 0.00409164 0.041861154 0.014754398
0003d0 5b c4 b8 3d b5 e6 1b bd b1 be 5e bc 3a 62 91 3b
       0.09021827 -0.038061816 -0.013595269 0.0044367583
0003e0 ec e2 81 3c 52 23 9a bd 66 ec ae bd a4 cf 8e 3c
       0.015855275 -0.07526268 -0.08541183 0.017432995
0003f0 70 a6 a8 3c 10 00 12 bb 05 6a a3 bd 4c 73 6a be
       0.020587176 -0.002227787 -0.07979206 -0.22895545

conv4.bias f4 [64]
000000 c3 05 41 bd 62 b8 8b be 49 a9 53 3d 01 24 b0 3b
       -0.047124635 -0.2728911 0.051675115 0.0053753858
000010 83 ef 46 be 13 8c 1f be f2 13 84 3d 60 b6 93 3d
       -0.19427304 -0.15580778 0.06449117 0.0721252
000020 99 f0 da 3d f9 0f a1 3e 62 43 c3 be ba b1 03 be
       0.106904216 0.314575 -0.38137347 -0.12860766
000030 11 c0 95 be 81 84 74 be 2f 01 a5 3c 4b 22 3e be
       -0.29248098 -0.23878671 0.020142166 -0.18567769
000040 3d 3d 5b 3e e2 83 67 3d 44 50 ce be 57 f9 f0 39
       0.2141008 0.056522258 -0.40295613 0.0004596214
000050 a6 7d a8 be 2e 4d f5 bc 6b fb 97 bb 75 ea 07 be
       -0.32908362 -0.029944029 -0.0046381257 -0.13273032
000060 b3 01 0d 3e 73 bf 42 be 4a 26 68 bc 86 a9 f3 be
       0.1377018 -0.19018345 -0.014169285 -0.47590274
000070 0c 3b 0b be 2d 8b 34 be b0 48 b7 3d 7c 88 82 bb
       -0.13596743 -0.17631216 0.08949411 -0.0039835554
000080 32 b6 e7 bd 5e ef ba bc 09 91 26 bc 9d 5b 02 bc
       -0.11314048 -0.022819217 -0.010166415 -0.007956413
000090 55 ff 28 be 74 75 62 bc a0 01 95 3c 0a c6 0c be
       -0.16503651 -0.013821948 0.018189251 -0.13747421
0000a0 f8 c2 51 be 8d 40 21 3e 42 6f 79 be 5f 8b 35 be
       -0.20484531 0.1574728 -0.24358848 -0.17728947
0000b0 c2 02 88 be 21 95 4e be be da 5e bd 04 31 00 bb
       -0.26564604 -0.20174076 -0.054407828 -0.0019560466
0000c0 02 ac c4 bc 07 ef bf bd 05 aa c0 be 33 00 0a 3e
       -0.024007801 -0.09371763 -0.37629715 0.13476638
0000d0 01 27 91 bd f0 b4 cd bd 84 94 82 bd e4 b8 89 be
       -0.070875175 -0.10044277 -0.06375983 -0.26898873
0000e0 d4 bd b1 bd 7f cc 22 be c0 97 83 bb 40 be 3e be
       -0.08678785 -0.15898322 -0.0040158927 -0.18627262
0000f0 14 f1 35 3e 0e c1 03 be 7d c5 42 be 65 db 20 be
       0.17767745 -0.12866613 -0.19020648 -0.15708692

bn4.weight f4 [64]
000000 5d f2 07 40 2d 51 37 40 cc 4e 26 40 5e c7 28 40
       2.1241677 2.8643296 2.5985594 2.6371684
000010 6c 3d 18 40 69 01 21 40 14 c5 1c 40 4e af 0e 40
       2.378749 2.515711 2.4495287 2.2294497
000020 7c 86 16 40 74 5d 0c 40 72 a5 1e 40 11 f0 03 40
       2.3519583 2.193204 2.478848 2.0615275
000030 93 bf 28 40 57 2d 18 40 d0 e2 1a 40 d2 df 1f 40
       2.6366928 2.3777673 2.4200935 2.498036
000040 60 2c 19 40 47 0e 1d 40 9d de 10 40 75 0a 11 40
       2.3933334 2.4539964 2.2635872 2.2662632
000050 75 0e 22 40 1c 32 25 40 01 02 14 40 cf 1d 3c 40
       2.5321324 2.5811834 2.3126223 2.9393194
000060 08 47 35 40 6e fe 21 40 4c 08 ff 3f 41 24 5c 40
       2.8324604 2.5311542 1.9924407 3.4397128
000070 bf ed 3e 40 c8 4c 3d 40 b4 d6 1e 40 3e e8 13 40
       2.9832609 2.9578114 2.4818544 2.31105
000080 25 00 0c 40 09 9c 4a 40 49 d9 00 40 52 ee 2a 40
       2.1875088 3.1657736 2.013262 2.670796
000090 16 5d 19 40 1c 26 11 40 31 5f 03 40 54 ca 2f 40
       2.3963065 2.267951 2.052685 2.7467241
0000a0 65 3a 2b 40 78 31 22 40 ee 0f 1b 40 72 8a 01 40
       2.6754391 2.5342693 2.4228473 2.024075
0000b0 78 3d 31 40 3b b8 34 40 d9 b9 26 40 7e 53 18 40
       2.7693768 2.8237445 2.6050932 2.380096
0000c0 7e 04 02 40 c2 48 12 40 31 ec 14 40 dc e5 25 40
       2.0315242 2.2856908 2.326916 2.5921545
0000d0 c3 c7 18 40 68 91 ee 3f 21 e6 2a 40 93 ca 01 40
       2.3871925 1.8638124 2.670296 2.0279891
0000e0 45 5b eb 3f b1 af 21 40 ee 5a 16 40 97 e0 26 40
       1.8387228 2.5263484 2.3493 2.6074579
0000f0 62 3e 27 40 6f e9 18 40 89 a7 19 40 ee ca 39 40
       2.6131825 2.3892477 2.4008505 2.9030108

bn4.bias f4 [64]
000000 0c cd 28 be 7c 01 71 be ee 0b e1 3d 35 97 3b 3e
       -0.16484469 -0.23535722 0.109886035 0.183194
000010 b6 fb bc be 61 d3 18 3e 45 b9 8c bd 0d 73 65 3e
       -0.3691079 0.14924385 -0.06871275 0.2240717
000020 28 6d 61 3e 4f 69 80 be 09 3b dd bd bd e3 80 3e
       0.22014296 -0.25080344 -0.10802276 0.2517375
000030 e7 a2 bb 3c 6e 12 64 be 80 54 8b bc 53 74 3f be
       0.022904826 -0.22272655 -0.017008066 -0.18696718
000040 0a cf 93 bc ec 85 8e bc d3 7f c2 bd b6 85 45 3d
       -0.01804306 -0.017397843 -0.09497037 0.04822322
000050 45 19 77 3e 21 30 2f be 3f 54 84 3e 6c 35 30 be
       0.24130733 -0.17108203 0.25845525 -0.17207879
000060 88 e5 e8 bd 64 9f eb bd 7c 4b 63 3e 7d ce 46 be
       -0.113719046 -0.11505011 0.22196764 -0.19414707
000070 9f 7a d1 3d 84 7d 23 be 8e ef b0 bd 11 5f 5a be
       0.10228466 -0.15965849 -0.086394414 -0.21325327
000080 41 3d 9e 3d 2d fc ab 3e 40 34 85 be 20 3f 1b be
       0.07726527 0.33590832 -0.26016426 -0.15160799
000090 b8 77 e6 bc 26 c5 72 3e 52 82 81 be 84 63 7d 3e
       -0.028133258 0.23708019 -0.2529474 0.24744993
0000a0 db ac f3 bd 7b 3e 4e 3e b8 23 7e 3e 3b 7f 8e bd
       -0.11898204 0.20141022 0.24818313 -0.06957861
0000b0 af 73 d6 3d 14 b3 1e 3e 97 e2 5f 3e 65 14 9c 3d
       0.10471284 0.15498 0.21863781 0.076210774
0000c0 6b 3d 97 be 3f b0 d3 ba 23 63 58 bc 6e 44 d7 bc
       -0.29539046 -0.0016150548 -0.01320723 -0.026277747
0000d0 9f 1d c5 3d a1 a0 51 3d 0f c3 c1 3d ae 3c 82 bd
       0.096247904 0.05117858 0.094610326 -0.0635923
0000e0 67 81 11 3e 9b 99 45 3e a0 0d 91 3c b0 07 15 be
       0.1420952 0.19296877 0.017706692 -0.14553714
0000f0 7b 0c 39 3c cc 82 bf 3b 14 d9 3f be 8f ee a0 bc
       0.0112944795 0.0058444496 -0.18735152 -0.019645004

bn4.running_mean f4 [64]
000000 63 52 30 3f 37 75 cb 3e b2 16 52 3f 9a 82 9e 3e
       0.6887571 0.39737865 0.8206588 0.30959016
000010 81 7b f9 3e ec 42 c8 3e b0 b0 36 3f 02 d2 5d 3f
       0.48727039 0.39113557 0.71363354 0.8664857
000020 c4 cc 51 3f 62 9b 6e 3f f5 d0 d0 3e f7 41 a7 3e
       0.8195307 0.93205845 0.40784422 0.32667515
000030 00 0f e6 3e ea 23 f2 3e 98 cb c5 3e cb de 03 3f
       0.4493332 0.47293025 0.38631892 0.5151183
000040 74 88 a3 3f f2 ce 66 3f ca 66 cf 3e 64 4a 16 3f
       1.2776017 0.90159523 0.4050811 0.5870726
000050 34 0e 26 3f 0e 16 cd 3e af e7 2b 3f 58 a7 05 3f
       0.6486542 0.4005589 0.67150396 0.5220847
000060 c2 4f 67 3f 23 7d da 3e 66 71 c7 3e ce 4a 5d 3e
       0.90356076 0.42673597 0.38953704 0.21610567
000070 5b 2b e7 3e 3d 88 fd 3e 86 36 bd 3e b6 30 c9 3e
       0.45150265 0.49518004 0.3695566 0.39294976
000080 f2 d2 03 3f 38 2d d6 3e 0f 87 0e 3f 52 17 aa 3e
       0.5149375 0.41831374 0.55674833 0.33220917
000090 a1 4d 8f 3e eb 90 73 3f dc 68 9a 3f 06 c9 09 3f
       0.27988914 0.95143 1.206325 0.5382236
0000a0 86 94 0e 3f ac d6 36 3f f6 0e 87 3e aa c8 70 3f
       0.5569538 0.71421313 0.26378602 0.9405619
0000b0 30 6a 21 3f eb 13 10 3f c4 15 1f 3f 81 55 10 3f
       0.63052654 0.5628039 0.62142587 0.5638047
0000c0 2e c0 78 3f aa 11 59 3f ee 01 02 3f f5 8a 3a 3f
       0.9716824 0.8479258 0.50784194 0.7286828
0000d0 6d 41 49 3f ef fe f3 3e a0 86 88 3e 7c 9c 0e 3f
       0.78615457 0.47655436 0.2666521 0.55707526
0000e0 77 2a e9 3e 76 7e 16 3f 1c a2 14 3f 5d 85 4f 3e
       0.4554021 0.58786714 0.5805986 0.20265718
0000f0 aa b9 4f 3f b9 4a 1e 3f c1 4c 1c 3f c3 6d 40 3f
       0.81142676 0.6183277 0.6105462 0.75167483

bn4.running_var f4 [64]
000000 e4 6a 94 3f df e6 57 3f 80 7f a1 3f 57 c5 ff 3e
       1.159512 0.84336656 1.2617035 0.49955246
000010 91 87 50 3f 74 2c 3d 3f f4 8f e1 3f 0c 06 ac 3f
       0.8145686 0.73895955 1.7622056 1.3439345
000020 0d dd 96 3f f7 75 a6 3f 34 65 48 3f 3e aa 0e 3f
       1.1786209 1.300475 0.78279424 0.5572852
000030 3d 2b 34 3f 2b 46 44 3f 3d ab 1e 3f 06 0b 56 3f
       0.70378476 0.7666957 0.6198004 0.8361057
000040 24 18 fb 3f 28 67 ad 3f 6f 93 8f 3f d8 c7 60 3f
       1.9616742 1.3547106 1.1216868 0.8780494
000050 5f 71 ae 3f 6b 58 14 3f 76 72 84 3f b7 57 96 3f
       1.3628348 0.57947415 1.0347431 1.1745518
000060 60 a5 08 40 f9 57 25 3f c8 09 25 3f af cd f3 3e
       2.1350937 0.6458736 0.6446805 0.47617862
000070 f7 00 73 3f ed c0 7c 3f cf f7 14 3f 34 54 18 3f
       0.9492335 0.9873188 0.58190626 0.59503484
000080 95 74 6f 3f 2e a4 48 3f d8 6c 74 3f 4e 9c 15 3f
       0.93537265 0.7837552 0.9547858 0.5844163
000090 db 21 f0 3e 30 28 06 40 2c e5 f7 3f 7c 21 9c 3f
       0.4690083 2.0962029 1.9366813 1.2197719
0000a0 c9 50 85 3f 19 9e 7b 3f 66 f5 15 3f 60 d6 04 40
       1.0415279 0.9828811 0.58577573 2.0755844
0000b0 0e 9d ed 3f 6d fe 8d 3f 6e 13 8f 3f 9e c7 4e 3f
       1.8563554 1.109327 1.1177804 0.8077334
0000c0 09 10 b2 3f 00 c9 f3 3f b1 49 48 3f 10 7c b0 3f
       1.3911144 1.9045715 0.78237444 1.3787861
0000d0 65 fd e9 3f 20 fc 51 3f b8 57 c3 3e 20 f7 36 3f
       1.8280455 0.8202534 0.38152862 0.7147083
0000e0 d1 55 26 3f 53 8f 74 3f 2b e2 8b 3f f5 9c 84 3e
       0.64974695 0.95531195 1.0928396 0.25901
0000f0 4b 53 99 3f 12 a6 9f 3f c4 e6 a4 3f af 05 00 40
       1.1978544 1.2472556 1.2882924 2.000347

lin.weight f4 [50, 64]
000000 c9 b1 9a be 02 9f ad 3e ff 71 8f 3e 0b 4b b3 3e
       -0.30213764 0.33910376 0.2801666 0.3501819
000010 39 54 95 bd 47 88 c2 be 6c cb ae bd 7d 50 8c be
       -0.07291455 -0.37994596 -0.085348934 -0.27405158
000020 7a 3c dc 3d a7 d2 fc 3b 71 f2 73 bd de a1 88 3e
       0.107537225 0.0077155414 -0.059557382 0.26685995
000030 72 1b d5 be dd dd 07 3e c6 19 1c be 45 8b 4f be
       -0.41622502 0.13268228 -0.15244207 -0.20267971
000040 db 59 2f bf 4b c0 95 be fb 49 4b 3e ca a5 91 bd
       -0.68496484 -0.2924827 0.1985244 -0.071117
000050 ae 90 e6 be 75 16 6b be 87 84 8b be fc bf 2a bf
       -0.45032257 -0.22957785 -0.27249548 -0.66699195
000060 fd 14 08 be 4e 28 b9 be 8a 99 41 be 9c 08 4b 3f
       -0.13289256 -0.36163563 -0.18906227 0.7931001
000070 f1 c1 8d 3e 61 38 36 be 2c d2 67 3e 9d 4a 78 3c
       0.27687028 -0.17794944 0.22638768 0.015154508
000080 5b b1 a7 be ce 10 a1 3e 32 13 08 3e 4d ba fe 3c
       -0.327525 0.31458133 0.13288572 0.031094695
000090 1f 75 49 3e e7 43 fc be 8e a1 a3 3d 39 b4 47 be
       0.19673584 -0.49270555 0.079897985 -0.19502343
0000a0 4f 92 a3 3e 40 f3 c6 be b0 15 a4 be 99 74 d7 be
       0.31947562 -0.3885746 -0.32047796 -0.42081144
0000b0 8d 48 00 bf 11 39 82 be 48 9a 0b bf 5a 58 af 3d
       -0.50110704 -0.25434163 -0.5453229 0.085617736
0000c0 c4 66 ba 3e 70 3b 60 bd 12 9a 0d 3e 72 16 5c 3e
       0.3640653 -0.054744184 0.13828304 0.21492937
0000d0 b6 83 72 3c e9 07 84 3c 16 09 5d be d1 5e a5 bd
       0.01480191 0.016117053 -0.21585497 -0.080747254
0000e0 35 bd b6 be b3 63 b5 be b0 d0 9e 3d 9b 9a 27 be
       -0.35691229 -0.35427627 0.07754648 -0.16367571
0000f0 02 7d 05 3e 75 77 c2 be 06 ac ad 3d c3 c8 b0 be
       0.13035968 -0.37981763 0.084800765 -0.3452817
000100 60 8e 00 3e ff b6 ac 3e cd a4 23 3e a1 d6 cc be
       0.12554312 0.33733365 0.15980835 -0.400075
000110 f1 11 11 3e eb 86 d5 bd 1f e7 db 3e 6f 6d 9a be
       0.14167 -0.10426124 0.4294977 -0.30161616
000120 7e d9 a8 bb 74 ee 42 3d 81 2c b3 3e c1 97 9a bc
       -0.00515288 0.047590688 0.3499489 -0.01887119
000130 41 82 97 be 1b a7 21 3e 41 9b f8 bd b4 5d 7e bd
       -0.29591563 0.15786402 -0.12138987 -0.06210108
000140 ea 92 1e be ff 8c 9c be 3d cc d0 3e 4b 2f 9f 3d
       -0.15485731 -0.3057632 0.4078082 0.07772692
000150 aa 48 6a be 58 3a 92 be 18 d6 33 bd de 81 e5 3b
       -0.22879282 -0.28560138 -0.043905348 0.0070040068
000160 5d 49 13 be 38 6c aa be c1 fd 09 be 71 16 5f bc
       -0.14383455 -0.3328569 -0.13475706 -0.01361619
000170 70 93 f9 3e 30 a3 51 be 18 cb b8 bd fc f7 e8 be
       0.48745298 -0.20472407 -0.09023112 -0.45501697
000180 25 31 94 3e a2 56 ae 3e cc 06 4b be d7 98 88 3c
       0.28943744 0.3405047 -0.19826812 0.016674442
000190 c4 c4 59 be e2 56 35 be 26 18 c3 3e 02 1d 00 bf
       -0.21266466 -0.17708924 0.3810436 -0.5004426
0001a0 64 fd bd bd 49 57 0b 3e 1e 9e 33 bf 28 46 23 be
       -0.09276846 0.13607515 -0.7016314 -0.15944731
0001b0 5c ac 9e bd 4e 2f 3b 3f 10 71 8a 3e 8e 04 e3 3d
       -0.07747719 0.73119056 0.27039385 0.11084853
0001c0 f6 64 d5 3e 49 c7 fc 3d f8 06 0a 3f 48 6e f8 3e
       0.4167859 0.12342698 0.53916883 0.48521638
0001d0 f6 25 e1 be 43 f3 de bd 6b fd 7e be 17 b3 54 bc
       -0.43974274 -0.10886242 -0.24901359 -0.0129821515
0001e0 26 a9 a2 3d 23 b1 3c be 15 fd a7 3d 6c 40 51 bd
       0.07942419 -0.18426947 0.082025684 -0.051086828
0001f0 2e 0a 45 3e 28 e3 40 be 6c fe eb be 1b 50 ec 3e
       0.19242164 -0.18836653 -0.46092546 0.46154866
000200 91 99 ef be bb b7 46 3d 23 d4 c7 3e ae e9 9d be
       -0.4679685 0.048515063 0.39029035 -0.30842346
000210 af 93 3d 3e 94 89 37 be 80 c0 b4 be d5 33 b0 3c
       0.18513368 -0.17923576 -0.35303116 0.02150909
000220 77 9d 84 bd 05 ef cd be 17 23 89 bd 42 92 42 be
       -0.064753465 -0.4022142 -0.06696146 -0.19001105
000230 11 48 30 3e 2e 8c a9 be a9 ce da bc 2d 38 85 be
       0.17214991 -0.3311476 -0.026709871 -0.2601942
000240 e2 77 96 3d dc 44 a4 bc 71 c2 8c 3e 96 4e 3b bd
       0.073470846 -0.020052366 0.27492097 -0.045729242
000250 92 87 8a be 75 68 26 be bb e3 8f be 7f 71 17 bf
       -0.27056557 -0.16250785 -0.28103432 -0.59157556
000260 75 17 2d 3e 8a 8a e0 bd b5 d7 c2 3e 92 c5 d6 be
       0.1690348 -0.10963924 0.38055196 -0.4194761
000270 6f fe b9 3e f5 5c ac be 2d fd f9 bd 47 64 ff 3d
       0.3632693 -0.3366467 -0.122064926 0.12470298
000280 be 2f 31 bf a3 fa 88 3e 5f 47 cb 3d 7a cd 8f 3e
       -0.69213474 0.2675372 0.09925722 0.28086454
000290 84 b3 82 3e 41 09 40 3d 59 60 5d be 2f d4 0c 3e
       0.25527585 0.046883825 -0.21618785 0.13752817
0002a0 88 0c c3 3e 96 77 16 bf 67 cf 0b bd 97 43 8d bd
       0.38095498 -0.58776224 -0.03413334 -0.06897657
0002b0 32 cd 01 bf a6 c2 cd 3e 18 4f a7 bd 1d 16 eb be
       -0.5070373 0.40187567 -0.08169383 -0.4591531
0002c0 09 25 43 be 1d e7 6d be 94 80 59 be d6 85 92 be
       -0.19057097 -0.23232694 -0.21240455 -0.28617734
0002d0 c9 c1 a6 3c 17 bf 81 be f4 39 92 3e 8b 42 39 3d
       0.020356076 -0.25341102 0.2855984 0.045229476
0002e0 6b e6 46 be 32 04 cb 3d 24 32 a0 be e7 53 e7 bc
       -0.19423835 0.099129096 -0.31288254 -0.02823825
0002f0 66 97 1f be 20 fd d5 bd 43 43 0d 3e 28 7d 18 bf
       -0.15585098 -0.104486704 0.1379519 -0.59565973
000300 f0 95 ff bd b8 a3 39 be cd 33 0b 3e cc 1a cd be
       -0.1247977 -0.1812886 0.13593979 -0.40059507
000310 b0 ab ad 3e 38 ec 2c be 85 a0 97 3e cf ee b6 3d
       0.3392005 -0.16886985 0.29614654 0.08932268
000320 10 f2 92 3e 29 79 1e be e1 8f 0a 3f 6e 24 be bd
       0.28700304 -0.15475906 0.5412579 -0.09284292
000330 5f 62 a8 bd 18 77 45 be 92 b3 e1 3c 1e 5d 8d be
       -0.08221888 -0.19283712 0.027551446 -0.27610105
000340 1c 06 9d 3e ce 9f 1b 3e ef 03 7a 3e c4 ba 9c bd
       0.30668724 0.1519768 0.24415563 -0.0765281
000350 fd c8 e6 be 28 44 fd 3d 29 ff 48 bd cf 61 2e be
       -0.45075217 0.123665154 -0.049071465 -0.17029499
000360 54 2d 51 be 87 2d 10 3d 23 b3 7a bc a5 7f 8b 3d
       -0.20427448 0.03519967 -0.015301499 0.06811456
000370 e7 68 02 3f 94 5a f6 be 23 8c 03 3e 36 d6 2e 3b
       0.5094132 -0.4811598 0.12846427 0.0026677973
000380 54 88 4a bc cd e5 64 3e fc fd 2a 3e c9 11 b0 3e
       -0.012361605 0.22353287 0.1669845 0.3438857
000390 49 48 7a be ec bb 8a 3e 4a 53 05 3f f5 46 1d 3e
       -0.24441637 0.27096498 0.52080214 0.15359099
0003a0 f3 25 51 3d 6a 73 57 be d2 87 e7 3e 9b 6e 09 3d
       0.05106158 -0.2104012 0.4522081 0.033552747
0003b0 6c 9c ed be de f9 6d 3e 41 98 68 3e 03 0d a8 3e
       -0.46408403 0.23239848 0.2271433 0.32822427
0003c0 39 fc b3 bb 6d 82 66 be 2c 49 4b be 69 c3 e8 be
       -0.005492714 -0.22510691 -0.19852132 -0.45461586
0003d0 f7 f5 c0 3c 3c 3a cc 3c e4 06 30 3d ce ca 12 3e
       0.023554785 0.024930112 0.04297532 0.14335176
0003e0 18 78 01 bd 28 b3 dd bd c3 98 c8 bc c3 c6 a9 bc
       -0.03160867 -0.10825187 -0.024486905 -0.02072466
0003f0 f6 7c ef 3d 9f 7b a0 be d6 46 6e be 0b 0c ca be
       0.11693756 -0.31344315 -0.2326921 -0.39462313
