cnn-100.pt (torch, 124875 bytes, 50 tensors)

conv1.weight f4 [8, 2, 5, 5]
000000 39 94 31 3e ea 0a 84 3e 9f 63 a6 3c db fa 35 3e
       0.17341699 0.25789577 0.020311175 0.17771475
000010 35 b3 32 3e 6d 9d b6 3e 6d 60 3b bb 58 32 80 be
       0.17451175 0.3566698 -0.002859141 -0.2503841
000020 6b 98 67 3d db da 7c bd d4 bc a7 be 94 6e d9 bc
       0.05654184 -0.061732154 -0.32761252 -0.026541986
000030 68 9e 43 3e cb b8 a1 3c 34 f0 31 3e c3 d2 98 3e
       0.19103396 0.019741436 0.17376786 0.29848298
000040 dd a6 a5 be ee 9e 4e be d2 1b 59 bd 95 8b 4d be
       -0.3235387 -0.20177814 -0.053005047 -0.20072778
000050 95 6e a9 be f2 64 62 3d 56 18 82 be 8c 45 42 be
       -0.3309218 0.05527205 -0.25409192 -0.18971843
000060 e6 08 58 3e 60 ca bf 3e d2 31 b5 3e 1b c0 d3 3e
       0.21097144 0.37459087 0.35389572 0.41357502
000070 a2 be b8 3e 63 54 60 3e 87 27 b2 be 15 0e 87 3e
       0.3608294 0.21907191 -0.34795782 0.2637793
000080 80 d6 a0 bd a1 1c 16 3d bf 00 c3 bd 4e cf 62 3c
       -0.07853413 0.036648396 -0.09521627 0.013843371
000090 ee 71 14 be 22 75 8c bd bd cd 8c bd 15 79 f5 3c
       -0.14496586 -0.06858279 -0.06875179 0.029964963
0000a0 78 9f 83 be 53 9a b1 3e 71 8c 27 be ee e2 f5 bb
       -0.25707603 0.34688053 -0.16362168 -0.007503859
0000b0 2a 6a ed bc 9f a8 28 3d 8f c3 30 3e 72 71 ff bd
       -0.028981287 0.041176435 0.172621 -0.1247281
0000c0 ea 92 10 bc bf 5e 91 bd cc eb 7e bd 1f ae 81 3e
       -0.00882409 -0.070981495 -0.062236592 0.25328156
0000d0 07 85 52 3e 07 e3 0b 3e 3c b2 41 bc 5b 12 07 3e
       0.20558558 0.13660823 -0.01182228 0.13190596
0000e0 fe 04 83 bd cd ac 86 be fb 8c 38 3e 68 e8 47 be
       -0.063974366 -0.26303712 0.1802253 -0.1952225
0000f0 ce d5 8d be ab 65 e0 bd 1f 01 e7 bd 01 93 27 bd
       -0.27702183 -0.109568916 -0.11279511 -0.04091168
000100 d1 4e 53 be 5b d3 cf be ed 76 04 be a3 41 02 be
       -0.20635535 -0.4059094 -0.12935992 -0.12720351
000110 48 07 97 be ed b0 8f 3d ab ea 18 3d 40 d4 08 3d
       -0.29497743 0.07016168 0.03733317 0.033405542
000120 94 4c d6 3d 1e 31 5f be bb cd bb 3e e7 02 90 3b
       0.10463825 -0.2179608 0.36680397 0.0043948772
000130 24 a7 66 3d 29 89 27 3e 93 c4 1a 3e b3 1b 2a be
       0.05631174 0.16360916 0.1511405 -0.16612129
000140 c5 6c 09 3e bc 3c 04 be 41 3f a3 3e 32 93 d4 3d
       0.13420399 -0.12913793 0.31884196 0.10379638
000150 91 5c 0d be 92 cd a1 3d e0 f8 68 3e 6d 71 80 3d
       -0.13804843 0.079005376 0.22751188 0.06271634
000160 a4 9e 76 be f1 33 a0 3d b1 c5 02 be 0a 8a 2f be
       -0.24083954 0.07822407 -0.12770726 -0.17142501
000170 2d 6c 24 bf ec c5 48 be a1 5f a0 be 44 2c 83 bd
       -0.64227563 -0.19606751 -0.3132296 -0.064049274
000180 1d 56 d4 bc 92 98 af 3e bd 6f c1 3d db ba 14 3d
       -0.025919968 0.3429609 0.094451405 0.03631101
000190 05 33 53 3c 7f 9d ee bd 78 11 06 bf 43 7f fd 3d
       0.012890582 -0.11651134 -0.52370405 0.12377789
0001a0 44 1b 96 3d b7 a0 e2 3c 5c 08 3f 3e 8a 64 18 3f
       0.07329419 0.027664525 0.18655533 0.5952841
0001b0 f3 a3 24 bd 58 27 ae 3d 9f 51 5e bc d0 6d 80 be
       -0.040195417 0.08503598 -0.013569265 -0.2508378
0001c0 74 45 06 3e 07 bc b4 3e 59 c3 19 bf ab 3f 06 bd
       0.13112432 0.35299703 -0.600637 -0.032775562
0001d0 c8 6b d4 3d 8a e9 a6 3e 7d b9 42 be f5 6b eb bc
       0.1037212 0.3260005 -0.1901607 -0.028738001
0001e0 79 d4 b4 bd 2e 05 d8 3e 40 48 0e 3e 65 0e 73 3e
       -0.088295884 0.42191452 0.13894749 0.2373596
0001f0 7f 00 2e 3e 03 9f ad bd cb 38 02 bd 39 99 5d bd
       0.16992377 -0.08477595 -0.031792443 -0.054101203
000200 f2 6c 5b be 31 8b 7e bb ac c2 3c be 41 bd b1 be
       -0.21428278 -0.0038840289 -0.18433636 -0.34714702
000210 69 f7 db 3d b0 69 a6 3e 57 e9 80 bd 5b c2 99 be
       0.10740549 0.32502508 -0.06294506 -0.30031094
000220 56 ae 07 bc d0 b9 67 be da 9d 4c 3e a2 b2 ad 3e
       -0.008281311 -0.22629476 0.1998209 0.3392535
000230 45 e0 d8 bd d3 fc 84 3d f3 bd d8 3e d7 54 6d 3e
       -0.10589651 0.06493535 0.4233242 0.23176895
000240 a3 ab 36 3e ab ef 62 3e ef 5f 87 3e 97 41 8d 3e
       0.17838912 0.22161739 0.2644038 0.27589104
000250 42 a7 5e 3e 4a 12 85 be ce 54 49 be 06 84 34 3e
       0.21743491 -0.25990516 -0.19661257 0.17628488
000260 88 5b 58 be d2 c6 41 be 54 82 1b 3d 8c 4d 16 3e
       -0.21128666 -0.189235 0.037966087 0.1467802
000270 b8 2e 5f ba f5 d1 5c bd 2c 1b 98 3e c4 88 29 be
       -0.00085137365 -0.053911168 0.2970823 -0.16556078
000280 85 92 19 3e 33 76 a8 3e a7 1a e6 bc 2a b5 79 3d
       0.14997299 0.3290268 -0.02808888 0.060963787
000290 dd 1f 22 3d 6f 15 e4 be 6f ab 73 bd 3c bc 2a 3d
       0.03958117 -0.44547603 -0.059489664 0.04168342
0002a0 60 ec 4a 3e 3f f3 f6 3b d2 d8 89 bd a1 f5 b2 be
       0.19816732 0.0075363214 -0.06730808 -0.34953025
0002b0 b4 27 95 be 5d 05 0f bf db 5c 94 be 03 a7 81 bd
       -0.29131854 -0.5586756 -0.28977093 -0.06330683
0002c0 65 35 a1 3d 98 76 f2 3d e5 93 15 3d 02 30 f5 3d
       0.07871512 0.11839026 0.036517996 0.119720474
0002d0 0f 56 7c bd 66 1b dd 3b 21 9e 29 bb cb 78 3c be
       -0.06160551 0.006747651 -0.0025881606 -0.18405454
0002e0 66 8d 53 bd 77 b8 32 3e 55 be 33 bd 07 cb 73 3c
       -0.05164852 0.1745318 -0.043882687 0.014879948
0002f0 b3 16 59 be 19 7f c3 bd 64 ca 7c bd 3a c2 5b be
       -0.21200065 -0.09545726 -0.061716452 -0.2146081
000300 16 27 24 3c 3a 9e e9 be e7 ad b6 be 98 97 1e be
       0.010019084 -0.4562853 -0.35679552 -0.15487516
000310 1a 67 82 bd 93 aa 1b bd 0e dc 71 3c a3 df 04 bf
       -0.06367321 -0.03800447 0.014761938 -0.5190374
000320 6e f4 bd 3c e9 a0 d4 be ed 60 5e 3d 25 69 cb 3d
       0.023187842 -0.41529015 0.054291654 0.09932164
000330 74 79 a9 bc 95 50 f0 be 73 ed 73 bd 3a 20 e2 3d
       -0.020687796 -0.4693648 -0.05955262 0.11041303
000340 f2 55 6e bc 7f 30 cd bc 29 0c 5e 3e ae a1 82 3e
       -0.014546858 -0.025047539 0.21684326 0.25513977
000350 3c 78 02 3e bc 8b 47 bd 10 49 0d 3e 89 35 a7 3d
       0.12741178 -0.048717245 0.13797402 0.08164508
000360 39 d8 83 3e 53 03 d9 3d 0d d9 92 3e f3 bb 15 3d
       0.25750902 0.10596337 0.28681222 0.036556195
000370 77 de 9e 3e 6a e3 43 3d d4 a3 09 3d 89 14 a0 3b
       0.31029102 0.0478243 0.033603504 0.0048852605
000380 d9 27 aa 3e 1a 27 99 be 39 2d 79 be 40 74 2a be
       0.33233526 -0.29912645 -0.24333657 -0.16645908
000390 6d d0 2d be 8a 0d 6b be 9b 5b 49 be 41 9f a7 be
       -0.1697404 -0.22954383 -0.19663851 -0.3273869
0003a0 7a 37 07 3e b1 3a 9a bd 2c ed 29 be fa d4 14 3e
       0.13204756 -0.07530726 -0.1659438 0.14534369
0003b0 f8 6c 6f bd 2b 81 23 be 1a b8 24 3e 58 86 52 be
       -0.05845353 -0.15967242 0.16085854 -0.2055906
0003c0 d1 eb b7 3d ff e5 bf 3e f1 3c f5 be 02 c8 11 3c
       0.08980525 0.3748016 -0.47898057 0.008897783
0003d0 41 94 89 3d cd e1 98 3d e2 ba fc 3d 59 4d 99 3d
       0.0671773 0.07464943 0.123403326 0.07485456
0003e0 ca 17 da 3c 04 ec 2e 3c 36 ea 05 3e 57 cd cd 3e
       0.026622672 0.010676388 0.13077626 0.40195724
0003f0 f5 78 f5 bb 79 3f 1a be 9b 94 97 bd 96 00 a0 3e
       -0.007491226 -0.15063275 -0.07401391 0.31250447

conv1.bias f4 [8]
000000 96 e0 22 be 91 d0 4e be b6 10 79 3d 65 3b 1e bd
       -0.15905985 -0.2019675 0.060806952 -0.03863086
000010 8a 7a dc 3e 8a f7 00 3e 19 3a 27 3e db cb 10 bc
       0.4306224 0.12594429 0.16330756 -0.008837665

bn1.weight f4 [8]
000000 bf d5 63 3f d3 5b 4c 3f 5c cf 70 3f b5 f3 41 3f
       0.88998026 0.7982761 0.94066405 0.7576249
000010 f6 67 83 3f 41 43 92 3f d2 39 87 3f 34 ba 99 3f
       1.0266101 1.1426774 1.056452 1.200995

bn1.bias f4 [8]
000000 00 78 94 3d a9 07 a3 be 17 e4 89 3d 1f de 98 bc
       0.07249451 -0.31841782 0.06732958 -0.018660603
000010 43 8f 32 be fe cd 64 bd 00 c4 0a bd 0e b1 90 3d
       -0.17437463 -0.055860512 -0.033878326 0.070650205

bn1.running_mean f4 [8]
000000 cc 66 03 3f 5d 4a 0f 3f cf 39 61 3f 24 b6 ae 3f
       0.5132873 0.55972844 0.87978834 1.3649335
000010 48 96 02 3f 9d 99 99 3e 7e fc f3 3e 33 6a 99 3e
       0.5101056 0.3000001 0.47653574 0.29963836

bn1.running_var f4 [8]
000000 7b 8d 11 3f 72 88 36 3f c9 95 bc 3f f9 af 53 40
       0.5685651 0.7130195 1.4733211 3.3076155
000010 32 f1 e8 3e 1f 09 62 3e 83 f8 f7 3e 61 01 b4 3e
       0.45496517 0.22073792 0.48431787 0.35157302

conv2.weight f4 [16, 8, 3, 3]
000000 9c 0a 1c 3e f9 4e 82 bc 55 18 53 be 9d 5f 1e 3e
       0.15238422 -0.015906798 -0.2061475 0.15466161
000010 aa 4e 61 3e 16 35 b0 bd 48 ab 98 3e b1 76 6b 3d
       0.22002664 -0.08603875 0.29818177 0.05748624
000020 b6 16 ad 3d 09 b8 8d be 43 6b a0 3d 88 c6 a4 be
       0.084515974 -0.2767947 0.078329585 -0.32182717
000030 bf 47 63 3d c2 c0 79 bc c4 9c 3c be 44 fe 2d 3e
       0.055488344 -0.015243711 -0.18419176 0.16991526
000040 6f fe d0 3d c3 da 4e 3e 21 04 1d 3e b8 76 7d 3c
       0.10204779 0.20200638 0.15333606 0.015470199
000050 9b ab 87 3e 7c dc 24 be eb da b8 3d 45 75 f1 3d
       0.26498112 -0.16099733 0.0902613 0.117899455
000060 36 1b a0 be b5 b5 01 be e4 70 0d be 9a ed 4e bd
       -0.3127076 -0.12666972 -0.13812596 -0.050519563
000070 f4 ba 98 be 82 c5 23 3d 89 da 55 be 40 db 57 bd
       -0.29830134 0.03998328 -0.20884146 -0.052699327
000080 16 ed ff bd 5a 24 e7 bd 5a a4 19 be 0f fc 42 3d
       -0.124963924 -0.112862304 -0.15004101 0.047603663
000090 52 44 e4 bd ba 6f e7 3c b1 86 55 be 9f 18 73 be
       -0.111458436 0.028251518 -0.20852162 -0.23739861
0000a0 de af ae be ee 9c b0 be b5 8a 6d bd 43 60 48 be
       -0.3411855 -0.34494728 -0.05799361 -0.19567971
0000b0 b8 7c 04 be 55 57 f5 3d 8a 76 52 3e 59 cc 67 bb
       -0.12938201 0.11979548 0.20553032 -0.0035369603
0000c0 22 f9 4c 3c ff 19 8c 3e b5 12 13 3e 13 ea 4b bd
       0.01251057 0.27363583 0.14362605 -0.049783777
0000d0 71 e8 d5 bd a1 df 8f bd 29 71 09 be 7c ee 8e bd
       -0.10444725 -0.07025076 -0.13422073 -0.06979081
0000e0 12 33 40 be 21 2e 4b be 78 7c 1b 3e 94 54 a8 3d
       -0.18769482 -0.19841816 0.151842 0.08219257
0000f0 0e 8a 7f 3e 4a bf 3c be 09 3b 67 3e 9a 91 64 3e
       0.24955007 -0.18432346 0.22581114 0.22321168
000100 d5 d0 78 3d 1a a3 af bd a0 f0 42 3d 81 5f b2 bd
       0.060746033 -0.08576031 0.04759276 -0.08709622
000110 93 0c 40 be 4e 5e 6a 3c ec 39 67 3c db bc 79 be
       -0.18754797 0.014304711 0.014112931 -0.24388449
000120 fc 42 49 be 17 81 93 3e 00 f5 41 3c 13 6b 19 3e
       -0.19654459 0.28809425 0.011838198 0.14982252
000130 81 57 5d be 2c be bf 3d 99 88 2c 3e 33 e6 4b be
       -0.21615411 0.09362444 0.16848983 -0.19912033
000140 0c f5 52 3e 7f be e5 3d e4 ba 0c 3e 17 5b 4d be
       0.2060129 0.11217975 0.13743168 -0.2005428
000150 01 45 b9 3d c6 8b fc bd c3 0e 3e be 68 cd 07 3e
       0.090463646 -0.12331347 -0.18560319 0.1326195
000160 d6 44 2f 3e ea 85 1f 3e e0 3d 81 be 41 97 75 bc
       0.17116103 0.15578428 -0.2524252 -0.014989675
000170 46 70 a0 3d 2b 51 92 3e 06 39 37 3e 90 ff d3 bd
       0.078339145 0.2857755 0.17892846 -0.10351479
000180 09 85 92 bd 76 bf 5a be fa 7c 5b be 90 bb 8d be
       -0.07154281 -0.21362099 -0.21434394 -0.2768216
000190 b6 db cb 3c 99 50 98 3d 6c c6 cf 3d c6 d2 e3 bc
       0.02488504 0.07437248 0.10145268 -0.027810466
0001a0 fe 28 89 3d 41 77 a4 3e 34 93 1d be 80 40 8c be
       0.06697272 0.32122234 -0.15388185 -0.2739296
0001b0 5f 46 c0 bd 8e 1a 1a be ba be ad 3e b9 9a 21 3e
       -0.09388422 -0.15049192 0.33934575 0.15781678
0001c0 27 9c 3b 3d f5 2b ca 3c f4 94 0d 3e 39 bc 72 3d
       0.045803215 0.024679163 0.13826352 0.059261534
0001d0 1b b4 8c be 46 f8 09 3f 33 8b 12 be f4 f6 1a be
       -0.2748116 0.5389446 -0.14310913 -0.15133268
0001e0 d5 ca 99 3e c7 1d 4a be aa 71 eb 3c 95 e4 d3 3e
       0.3003756 -0.19737922 0.028740723 0.41385332
0001f0 ee c5 b3 3c 1a 2a 2f be 35 93 10 3d 4b ff 01 be
       0.021944966 -0.17105904 0.035296638 -0.12695043
000200 76 86 e1 bc b3 54 3c be b8 61 81 3e 47 77 80 be
       -0.027529936 -0.18391685 0.25269866 -0.25091
000210 57 04 a1 3e b8 ac df 3c 20 c2 b7 be fe 11 0a bf
       0.31448624 0.027304038 -0.35890293 -0.53933704
000220 60 e7 37 bc f8 12 e4 bd a9 8e a6 be 11 28 d5 bd
       -0.011224598 -0.111364305 -0.32530716 -0.10408033
000230 3d 75 1f 3e a5 da b4 bd 0f 59 d6 3d 47 42 91 3e
       0.15572067 -0.08830766 0.10466205 0.28370878
000240 94 48 14 bf db a3 e6 3a 99 b6 1a 3c 23 95 e5 bd
       -0.57923245 0.001759644 0.009442949 -0.11210086
000250 4a fb d7 bd 8f 1c 09 3c 91 f3 a1 bd c8 f1 8b bb
       -0.105459765 0.008368625 -0.07907785 -0.004270766
000260 cb 27 ed 3d 74 90 46 be a8 b7 fc 3d ee 58 32 bd
       0.115798555 -0.19391042 0.12339717 -0.04354184
000270 55 93 0e 3e 0b 6a 7a bc bf 71 14 3e ac 77 6c 3d
       0.1392339 -0.015284072 0.14496516 0.057731315
000280 c0 cb c9 bc 82 2f 53 3e 9b 27 e3 bc 7f 2c 16 be
       -0.024633288 0.20623592 -0.027728846 -0.14665411
000290 86 d4 80 be 33 00 0b 3e 04 56 2a be cd b8 7c bd
       -0.25162143 0.13574295 -0.16634375 -0.061699677
0002a0 89 17 88 3d 63 a9 a5 3e 4a 16 e5 bd e7 11 e1 3d
       0.06645114 0.32355794 -0.11185892 0.10989743
0002b0 1a 8c be bc 84 9c ba 3e 16 df 2c 3e c3 22 c1 3e
       -0.023260165 0.36447537 0.16881976 0.37721834
0002c0 94 45 37 be 7a d5 a5 3d 96 d6 c6 bc 84 3b 02 be
       -0.17897636 0.08097358 -0.024272244 -0.12718016
0002d0 d0 30 b8 3d f6 14 65 3d c4 f6 0d 3e c8 86 84 3e
       0.08993685 0.055928193 0.13863665 0.2588408
0002e0 f4 d8 9e bd 28 88 fd 3d 1b 1b 61 3e 2e 75 39 be
       -0.07756224 0.12379485 0.21982996 -0.18111107
0002f0 ef 9f d0 3e a9 1c 28 be 44 8b 68 bd 50 b9 7d be
       0.4074702 -0.16417183 -0.05677344 -0.24777722
000300 d5 18 fb 3c fb 8f 8c 3e 2c 7f 83 be a0 c7 06 bd
       0.03065149 0.27453598 -0.25682962 -0.03290522
000310 c8 f9 06 3c 61 0c 6c be 61 9e 9c 3d 47 77 24 3e
       0.008238263 -0.23051597 0.07647396 0.16061126
000320 05 fe 33 be 51 73 32 be 27 fc 6c 3e ba 26 db bd
       -0.1757737 -0.17426802 0.23143063 -0.10700746
000330 fc ea 34 be 90 21 9c 3e fd 90 de 3d 2e f3 64 bd
       -0.17667764 0.30494356 0.10867498 -0.055895977
000340 c0 e6 37 3d e9 0d 6b bd 3d 1b 0a bd 10 1c ab ba
       0.044897795 -0.057386313 -0.033717383 -0.0013054628
000350 56 06 a7 be a3 3c 14 3e 08 a3 d3 bd bf d3 9e 3e
       -0.3262202 0.14476256 -0.1033383 0.31020924
000360 f6 9d 7b bd 36 5a e4 3d 52 03 07 bd 16 29 6b 3e
       -0.06142994 0.11150019 -0.03296215 0.22964892
000370 0d 52 cf 3d 40 c2 39 3e 29 bc ad 3c d3 fe c1 3e
       0.10123072 0.18140507 0.021207886 0.37889728
000380 8a a9 10 3e 35 02 ef 3e 47 72 b2 3d 5b 64 04 3c
       0.14127174 0.4668137 0.08713203 0.008080567
000390 a5 20 18 3e a6 34 08 3e 42 ac 1b be 5a 85 cc bd
       0.14856203 0.13301334 -0.1520243 -0.09986372
0003a0 d5 f2 98 3e 19 5a 8b 3e e1 98 29 3e 2b 78 f8 3e
       0.29872766 0.27217177 0.16562225 0.4852918
0003b0 6d 6d 24 3d ed 50 27 3e b8 cf de 3c 99 e1 74 3d
       0.04014342 0.16339464 0.027198657 0.05978546
0003c0 4c 5e 00 3c 46 fd 2f be 3a 23 a2 bb 7e 4b 9d 3d
       0.007834982 -0.1718646 -0.004948047 0.076804146
0003d0 7d 05 a3 3d 5e ea 4b 3e 93 65 80 3e ed 06 99 3d
       0.07960031 0.19913623 0.25077495 0.07472024
0003e0 6a 1e f9 3c 9f 45 69 bd b5 01 48 be 1c 67 e2 bc
       0.03041001 -0.05695116 -0.19531901 -0.027637057
0003f0 53 04 27 3e ac 67 c5 bd c6 a9 9d 3d 66 9c bb bd
       0.16310243 -0.096389145 0.07698397 -0.0916069

conv2.bias f4 [16]
000000 fd 40 f4 3c 19 ab ee bd 1e c6 2a 3c c5 9c 34 be
       0.029816145 -0.11653728 0.010423211 -0.17637928
000010 fe 7a 1f 3d 2e 48 84 bd 3c 63 7f be 46 a6 05 be
       0.038935654 -0.0645908 -0.24940199 -0.1305171
000020 d5 a9 f3 bd 41 61 de bd 95 7c 1a be 94 ec d3 3d
       -0.11897627 -0.108583935 -0.15086587 0.10347858
000030 f2 da 76 3c 94 8a 70 bd 53 4e 90 be 5d 9d 4e 3c
       0.015066849 -0.05872591 -0.28184757 0.0126107605

bn2.weight f4 [16]
000000 1a b8 6a 3f 02 09 98 3f c1 83 67 3f 8f 33 81 3f
       0.91687167 1.1877749 0.90435416 1.009386
000010 b9 76 55 3f ab ba 4c 3f 99 d7 8f 3f 66 91 80 3f
       0.8338428 0.7997233 1.123767 1.0044372
000020 16 98 80 3f fd 39 85 3f f6 16 88 3f f8 4a 71 3f
       1.0046413 1.0408322 1.0632007 0.9425502
000030 b2 7f 84 3f ee 64 61 3f a6 eb 93 3f 76 2a 66 3f
       1.035147 0.8804463 1.1556289 0.8990854

bn2.bias f4 [16]
000000 74 9d 8f be bf 39 ec 3c 62 de 44 be 55 bc ee 3d
       -0.28049815 0.02883613 -0.19225457 0.11657015
000010 17 cd 65 ba 1d 1a bf 3c 0a 49 83 3d 64 fd 22 be
       -0.00087662175 0.023327881 0.064104155 -0.15916973
000020 ae 37 2a 3e 74 da f5 bc 2f 59 ff bd a9 27 db be
       0.16622803 -0.030011393 -0.12468182 -0.42803696
000030 38 cf 21 bc 97 6b 1c be 12 44 40 3e 6b 3b 26 bd
       -0.009876065 -0.15275417 0.18775967 -0.04058401

bn2.running_mean f4 [16]
000000 e4 56 94 3f 57 a8 f3 3e b1 1f 2b 3f 66 46 57 3f
       1.1589017 0.4758937 0.6684523 0.84091794
000010 eb 1f 45 3f f6 dd 45 3f 0f 05 c0 3e b2 2c d2 3e
       0.7700183 0.7729181 0.3750386 0.41049725
000020 92 c1 ff 3e 16 93 88 3f 0a 2f 00 3f e7 2b bc 3f
       0.4995237 1.0669887 0.50071776 1.4700898
000030 3d b5 88 3f 82 de 4d 3f 77 66 bb 3e 17 a3 8f 3f
       1.068031 0.80417645 0.36601612 1.1221646

bn2.running_var f4 [16]
000000 20 40 08 40 7a 7a a4 3f 8c c3 96 3f 7f f2 27 40
       2.1289139 1.2849877 1.1778426 2.6241758
000010 e5 a0 ee 3f ad ef 6b 3f bd 07 a6 3f cc 5e 98 3f
       1.8642851 0.9216259 1.2971112 1.190393
000020 25 09 89 3f 9e fb fc 3f cd 1d 8f 3f d9 66 99 40
       1.0705916 1.9764287 1.118097 4.7938046
000030 37 dc df 3f 6c 36 ba 3f c4 65 5b 3f 34 d3 b2 3f
       1.7489079 1.4547858 0.8570216 1.3970704

conv3.weight f4 [32, 16, 3, 3]
000000 d3 c5 2d be 88 42 f9 3d 02 4a ae 3d ce 00 a2 3d
       -0.16969995 0.12170893 0.085102096 0.0791031
000010 f7 e5 fc 3d a9 57 fc 3d 3b 4d 95 3c 0b f3 e2 bc
       0.1234855 0.12321407 0.018225303 -0.027703783
000020 fa 18 1a 3d ee e3 fd be 32 35 ee bd fb 81 94 bd
       0.037621476 -0.4958796 -0.1163124 -0.07251354
000030 3f c5 96 bc ba 0e b1 be 28 f5 68 bd 97 b7 27 be
       -0.018404601 -0.34581548 -0.056874424 -0.16378628
000040 61 b6 7e be 3f 06 df bc d3 62 92 bb c8 61 e6 bb
       -0.2487426 -0.027224658 -0.004467347 -0.0070306994
000050 9e 2c c6 3b bf 52 88 bd 85 b9 0d be 86 e3 54 be
       0.0060477993 -0.066564076 -0.13840301 -0.20789918
000060 9f 3e a4 bb 5e c8 54 bb 5c 1d 0f be 3b 23 71 be
       -0.005012348 -0.003246806 -0.13976043 -0.23548596
000070 e9 30 ef 3d 70 26 a3 bd 75 e7 67 bc 5e f3 a3 bd
       0.11679251 -0.07966316 -0.014154305 -0.08005403
000080 e1 45 a1 3e 53 c9 d2 bd 18 80 0b 3d 37 e0 34 3c
       0.31498626 -0.10292306 0.034057707 0.011039785
000090 72 4d c6 3b 50 a7 ec bd 08 0a 20 bd 87 23 7b 3e
       0.0060517127 -0.1155535 -0.039072067 0.24525271
0000a0 a3 f3 83 ba dd 1e e6 bd 09 c7 02 be 3a ac b0 3d
       -0.0010067116 -0.112363555 -0.12771238 0.086265996
0000b0 cf 04 ef bd 0d 20 32 bc ea 23 d4 bd 2b d6 41 bc
       -0.11670839 -0.010871899 -0.103584126 -0.011830847
0000c0 24 ba c8 3d 29 0e dc bd ee c2 86 bd 61 4e 9d 3c
       0.098011285 -0.10744888 -0.06580149 0.019202413
0000d0 fe 59 dc 3d 0a a2 17 bd 5c a4 19 be 1f 52 d8 bd
       0.10759352 -0.037019767 -0.15004104 -0.10562538
0000e0 a8 43 30 3e c8 15 88 be 9c e6 5d be c4 46 85 bd
       0.17213309 -0.26579118 -0.21670002 -0.06507638
0000f0 e8 5f 72 be ba f1 b8 be c1 53 92 bd df 00 32 bd
       -0.23669398 -0.36121923 -0.07144881 -0.043457862
000100 99 e5 99 3d eb 5a 6c bc f5 bc 9e 3d 64 78 bf bd
       0.075144954 -0.014425973 0.077508844 -0.093491346
000110 7c c9 ff bd 54 37 82 3c c3 b8 e9 3d b9 4b 1d bd
       -0.12489602 0.015895523 0.114121936 -0.038402293
000120 fd 7b 8d bd 13 ae 79 bd e0 21 03 be 67 42 97 bd
       -0.069084145 -0.060957026 -0.12805891 -0.07385712
000130 4b fc eb bd 79 cc 3b be ee 00 ed 3d f2 21 e7 bd
       -0.115227304 -0.18339719 0.11572443 -0.112857714
000140 3c 62 2a be b8 17 1e 3e 44 f9 56 3e ac 0c 03 3d
       -0.16639036 0.15438735 0.20993525 0.031994507
000150 07 22 bf 3c 4d b6 3f 3c 39 26 94 3d 0a 22 ad be
       0.023331655 0.011701179 0.07233853 -0.33815032
000160 d8 dc fc bc 14 e7 a7 bc e6 5d c7 3d a0 4a 15 bc
       -0.030867025 -0.020495929 0.097347066 -0.00911203
000170 0e 52 8e 3e f8 b4 56 bd b5 1a 44 3e f1 6c f0 3d
       0.27796978 -0.05241868 0.19150813 0.11739529
000180 10 c9 e8 3d 24 38 98 bd 92 6a 0b bd c8 9d ab be
       0.11366475 -0.07432583 -0.03403718 -0.33518815
000190 ab 8b 3e 3c 45 f1 b1 bc 9c 33 ec 3c 9b e4 81 3e
       0.011629979 -0.021721492 0.028833203 0.25369725
0001a0 fd 29 9f 3e ef de 1e 3e b6 0e 88 bd 61 a5 04 3c
       0.31086722 0.1551473 -0.06643431 0.00809607
0001b0 9c 97 42 be 86 6c da bd 1a 90 9d 3c 4e 2d 8d be
       -0.19003147 -0.106652305 0.019233752 -0.27573627
0001c0 67 00 8a be b7 37 ab 3d 0c 94 1f be 22 3b 7d 3d
       -0.26953432 0.08360236 -0.15583819 0.06182397
0001d0 04 47 0e 3e 00 c3 8e 3d 1c 51 17 3d d4 04 ef bc
       0.13894278 0.06970787 0.036942586 -0.029177107
0001e0 59 60 85 3e 11 96 4c 3d a8 b3 32 3e c5 46 ba bc
       0.2605007 0.049947802 0.17451346 -0.022738824
0001f0 cf 12 3b 3d 1b 6d 05 3e 99 c4 03 bc 5c 2e 1c 3e
       0.045672234 0.13029902 -0.008042478 0.1525206
000200 a2 72 35 3e 06 65 b5 be c7 fc 19 3e 32 44 e8 3c
       0.1771951 -0.35428637 0.15037833 0.02835283
000210 d3 29 74 bd 6c b4 5e bd 6a c0 3b bd 08 48 bb 3d
       -0.0596102 -0.054371282 -0.045837797 0.09144598
000220 67 6a 0f 3c a9 e7 ae bd c2 ad 22 3e 99 3f ef bc
       0.008753396 -0.085402794 0.15886596 -0.02920513
000230 cc 55 29 3d 91 0e 94 3c 78 bd 69 3d 80 09 0c be
       0.041341588 0.018073352 0.057065457 -0.13675499
000240 bc 14 13 3e 03 a6 7f 3e 20 92 50 3e 2e 81 e7 3d
       0.14363378 0.24965672 0.20368242 0.11303936
000250 07 ae 1f 3e a1 4e 82 3d 60 a1 ba be 4e a2 9b bc
       0.1559373 0.063626535 -0.36451244 -0.018998291
000260 76 94 13 3e a6 f1 6b 3d 1c 7e 7c 3d d3 6b 37 3d
       0.14412102 0.0576035 0.061643705 0.044780564
000270 46 38 7c 3e 17 17 56 3e d4 53 ae 3d 94 bd 0d 3e
       0.24630842 0.20907246 0.08512083 0.1384185
000280 76 30 58 3e 17 c8 fe 3d 5f 36 12 be a5 26 1b be
       0.21112236 0.12440508 -0.14278553 -0.1515146
000290 8e 3b f6 bc de 3f 69 bd 9b a7 a5 bd 3b df 08 be
       -0.030057695 -0.056945674 -0.08088609 -0.13366406
0002a0 96 69 9c bd b6 5a d3 3c 03 23 0c bd 5c 15 ab bb
       -0.076373264 0.02580009 -0.034213077 -0.005221052
0002b0 1d 17 17 3e a2 d5 b1 3e 8e 26 19 3d 56 ae a2 3c
       0.14754911 0.347333 0.037390284 0.01985852
0002c0 b5 dd 36 3d fc ce 97 bb f1 62 37 bd e9 b0 94 bc
       0.04464503 -0.0046328288 -0.044772092 -0.018150764
0002d0 67 a7 4b be 15 5c a2 38 e5 ac 76 3e 08 17 8f be
       -0.19888078 7.7419136e-05 0.24089392 -0.2794726
0002e0 19 57 6f be f7 de 3b bd 53 d3 e0 bc 53 f0 3e be
       -0.23373069 -0.045866933 -0.027444517 -0.18646364
0002f0 6f 37 84 3d 14 00 6b bc 64 0e 63 3d 07 68 7f 3d
       0.064558856 -0.01434328 0.055433646 0.062355068
000300 78 f1 0e 3e 6e b7 5c 3d d6 b2 36 bd e5 81 9f ba
       0.139593 0.05388587 -0.044604145 -0.0012169449
000310 86 ec ef 3d 05 3a be bc f4 63 00 3e 57 25 19 3d
       0.11715035 -0.023221025 0.12538129 0.037389126
000320 28 a7 ed 3d 24 63 bc 3d cc 55 40 3e de 86 10 3e
       0.11604148 0.09198597 0.18782729 0.14113948
000330 f7 cb 79 3e 90 29 8e 3e 82 2f 6f 3e a4 53 ea bc
       0.24394213 0.27766085 0.23357967 -0.028604336
000340 a6 be ed bc b7 43 b7 bc 8a 9b a7 bc 81 90 4d bd
       -0.029021572 -0.022371156 -0.020459909 -0.050186638
000350 57 90 cd bd 0b da 20 3e 30 0d bb 3d 65 69 93 bd
       -0.10037296 0.15708177 0.09133375 -0.07197837
000360 c0 5d cb 3c 43 dd 2f 3e 40 37 a0 3c f4 27 a5 3d
       0.024824977 0.17174248 0.019557595 0.08064261
000370 ac 4e 26 bd 77 ec 02 3e dc 3a 02 be 7f 02 17 3e
       -0.04060237 0.12785517 -0.12717766 0.14747046
000380 3b 87 6f 3d 4d 5f ea 3d c8 cd 21 3e 70 79 25 3e
       0.058478575 0.114439584 0.15801156 0.16159606
000390 13 bc 42 3e 24 a2 3e 3e 97 0f 16 bb 7f 08 86 3d
       0.19017057 0.18616539 -0.0022897476 0.06544589
0003a0 36 aa 19 3e bf 1e 62 bd 8b 62 b8 bd 2c 15 96 3c
       0.15006337 -0.055205103 -0.090031706 0.018320642
0003b0 5b d0 44 3d 70 84 22 3e 24 90 15 3d 23 68 12 3e
       0.048050266 0.15870833 0.036514416 0.14297538
0003c0 78 28 dc 3d 3c 2b 1d 3e dd 3e ad 3d 4f 60 44 3d
       0.10749906 0.15348524 0.08459256 0.04794341
0003d0 e1 c4 00 bd 18 e0 c5 3d df ba c8 bd 74 dd ee 3b
       -0.03143776 0.09661883 -0.09801268 0.007289583
0003e0 53 39 a5 bc 1b d4 2d 3b 00 36 d9 3c 2a 43 bf 3d
       -0.020168936 0.002652413 0.026515007 0.093389824
0003f0 a4 11 7f bd bb c7 b4 3d af f6 95 be 4d 7c 34 be
       -0.062272683 0.08827158 -0.29289767 -0.17625542

conv3.bias f4 [32]
000000 93 4d 5a be e7 d5 d7 bd cd 0c 16 bd 88 16 45 be
       -0.21318655 -0.105388455 -0.0366333 -0.19246876
000010 c6 7d d0 be 2f 5c fe bd d4 53 05 bf cc e7 1f be
       -0.40720958 -0.124199264 -0.52081037 -0.15615767
000020 3c fa 89 be b4 ac bc be 85 b2 6c be f3 8f 8c be
       -0.26948726 -0.36850512 -0.23114975 -0.27453575
000030 1e a3 d1 be b8 31 ca be e9 dc a9 be 25 42 15 bd
       -0.4094476 -0.39491057 -0.33176354 -0.036440033
000040 06 b1 67 be d1 44 03 be e8 1d 98 bd 3e d8 02 bd
       -0.22626123 -0.1281922 -0.07427579 -0.031944506
000050 d4 9e fc bd e6 c2 b2 be 01 84 85 be 8a f1 5e be
       -0.123349816 -0.3491432 -0.26077273 -0.21771827
000060 be 54 d7 bc 72 b5 2d be 09 72 80 be 82 70 ec bd
       -0.026285525 -0.16963747 -0.25087002 -0.11544897
000070 67 88 6c bd c3 b9 22 be 64 42 a0 be 24 0b 7d bc
       -0.05774727 -0.15891175 -0.31300652 -0.015444551

bn3.weight f4 [32]
000000 40 fa 63 3f 19 c6 8a 3f 13 7a 75 3f c7 c0 71 3f
       0.89053726 1.0841705 0.95889395 0.9443478
000010 da db 81 3f bc ac 6b 3f b7 bf 8f 3f 80 4b 60 3f
       1.0145218 0.92060447 1.1230382 0.87615204
000020 08 94 5c 3f 66 a1 7a 3f ce ce 89 3f 68 2e 7d 3f
       0.8616338 0.97902524 1.0766237 0.98898935
000030 89 af 81 3f f0 e8 88 3f eb e9 7f 3f 1a 09 8e 3f
       1.0131694 1.0696087 0.99966305 1.1096528
000040 c0 29 8c 3f 31 d0 75 3f 89 04 84 3f c3 70 63 3f
       1.0950241 0.960208 1.0313884 0.88843936
000050 0f 47 78 3f a8 e9 82 3f 84 7f 70 3f 4b 27 89 3f
       0.96983427 1.0227556 0.93944573 1.0715116
000060 78 47 78 3f 21 c6 8b 3f eb 5d 81 3f 8c 93 7c 3f
       0.9698405 1.0919839 1.0106786 0.9866264
000070 be db 8a 3f dc 1b 7b 3f 22 e7 63 3f 28 6f 63 3f
       1.084831 0.98089385 0.89024556 0.88841486

bn3.bias f4 [32]
000000 79 35 b0 3d cc b7 a7 3e cf ca 8f 3e 3c 99 a0 3d
       0.08603949 0.32757413 0.28084418 0.07841727
000010 c2 07 27 3e c7 45 7d 3d b1 79 ca be f2 50 85 3e
       0.16311553 0.061834123 -0.39545968 0.2603832
000020 53 ec 0a be 21 d1 38 3e cb 3b 6c 3d 70 d7 c6 3d
       -0.13566713 0.18048526 0.05767421 0.0970906
000030 15 8f d9 3d 39 9d 4c 3e a0 df 75 3e f8 d4 2f 3c
       0.10622994 0.1998185 0.24011087 0.010731928
000040 9e 5d 3c bd bf 3a 94 3e 84 13 d7 3c 38 a1 0f 3d
       -0.045987718 0.2895107 0.026254423 0.03506586
000050 9c 94 e7 3e 32 5b f5 3b 2a c5 5c 3e 2b fa be 3e
       0.45230567 0.007487678 0.21559587 0.37300238
000060 a9 3a cf bc 59 86 10 bc 4e 7f 48 be 8d 24 01 be
       -0.025296526 -0.0088210935 -0.19579813 -0.126116
000070 03 a5 1c bd 78 ab b3 3c 9a 6e fe 3c 30 b6 19 bc
       -0.038243305 0.021932349 0.031058598 -0.009381816

bn3.running_mean f4 [32]
000000 c0 76 cf 3e 28 6b b4 3f 85 c3 62 3f a3 28 d6 3e
       0.40520287 1.4095201 0.8857959 0.41827878
000010 b8 69 ee 3e 03 08 39 3f 8f 7f 2a 3f f5 bb 83 3f
       0.46565032 0.7227785 0.6660089 1.0291735
000020 6c c3 6d 3f 25 eb de 3e 4d 35 1c 3f 54 c0 a0 3f
       0.92876315 0.43538776 0.6101883 1.2558694
000030 c8 fe 09 3f 31 51 a8 3e 05 ac 10 3f 40 6b 28 3f
       0.5390439 0.32874444 0.5651248 0.6578865
000040 45 6d e5 3e e0 0e 23 3f 4f ce 60 3f 32 e3 6d 3f
       0.4480993 0.6369457 0.878148 0.929248
000050 bc fe de 3e bb 75 bf 3e 72 34 cb 3e 37 43 13 3f
       0.43553722 0.3739451 0.3968845 0.57524437
000060 ec 02 4f 3f 6e cc 39 3f 0a 1f 22 3f df d5 5c 3f
       0.80863833 0.7257756 0.6332861 0.8626384
000070 83 c6 73 3f aa aa 05 3f 7d 3e 3b 3f f2 52 2b 3f
       0.9522478 0.5221354 0.73142225 0.6692344

bn3.running_var f4 [32]
000000 f4 53 2d 3f e8 62 6b 40 69 21 95 3f fb 10 4f 3f
       0.6770623 3.6779118 1.1650821 0.80885285
000010 6e dd b2 3f b4 0f db 3f ed 9a c8 3f 85 f0 d5 3f
       1.3973825 1.7114167 1.567228 1.6714026
000020 21 a5 89 3f 7c 47 6a 3f ed 1d f1 3f 1a aa e9 3f
       1.0753518 0.91515326 1.8837258 1.8255036
000030 f6 fc 70 3f 71 d3 3d 3f 9f 45 f0 3f 6e ad 31 3f
       0.9413599 0.7415076 1.8771247 0.6940526
000040 73 95 3f 3f 5e 15 7a 3f 6e fd d8 3f 82 5a 96 3f
       0.74837416 0.97688854 1.6952341 1.1746371
000050 e4 3d 3a 3f e0 3a 13 3f 82 87 9b 3f ea d8 fd 3f
       0.7275069 0.5751171 1.2150729 1.9831822
000060 11 7c d5 3f f3 1d 06 40 27 e0 ce 3f 13 ab de 3f
       1.6678487 2.095578 1.6162156 1.7395958
000070 93 ac f7 3f e1 a4 a7 3f 3c 43 b0 3f 47 7c a2 3f
       1.934954 1.3097192 1.3770518 1.2694176

conv4.weight f4 [64, 32, 3, 3]
000000 dd e7 e5 3d 15 5e e7 3d da a1 98 bd d0 ca 15 bd
       0.11225865 0.112972416 -0.07452746 -0.03657037
000010 12 58 e6 bb 88 94 95 3c fd f8 12 be a9 f4 24 3c
       -0.007029542 0.018259302 -0.14352794 0.010068097
000020 43 bd ee 3b 4d 73 3f bc 08 cd ee 3a ba 41 66 3d
       0.0072857453 -0.011685205 0.0018219063 0.056215025
000030 8a 53 7e bd 30 8c 6f be 1c 57 b7 bd cb 91 c9 bb
       -0.062091388 -0.23393321 -0.08952162 -0.006151413
000040 51 ef ef 3b d0 37 a3 bd 41 d6 55 3d 2d 35 ea 3c
       0.00732223 -0.0796963 0.05220628 0.02858981
000050 8a 17 87 bc cb 27 7f 3c 59 13 b9 bc ee ae 20 ba
       -0.016490716 0.015573452 -0.022592233 -0.0006129582
000060 f7 e8 0b 3e f5 a8 f7 3d 7f f6 1b 3d 7f 3a 28 be
       0.13663088 0.12092773 0.038076874 -0.16428564
000070 ab 92 7b 39 c8 21 5b be 4b a2 af bd 07 42 63 bd
       0.00023991863 -0.21399605 -0.08575877 -0.05548289
000080 19 dc 63 bc 34 8a 38 be ab 2b 4a bd 4c b6 8a bd
       -0.013907456 -0.1802147 -0.04935805 -0.067730516
000090 26 02 fb bd 3b 4c a0 bd 84 13 e0 3d 39 33 de bc
       -0.12256269 -0.0782704 0.10941222 -0.027124034
0000a0 52 32 7d bc 55 ec 20 3e ff 11 15 3e 39 f6 31 3e
       -0.015453892 0.15715154 0.14557646 0.17379083
0000b0 5a 86 2e 3e 09 ea ea bb 33 e3 00 be fa 41 64 3b
       0.17043439 -0.0071690124 -0.1258667 0.0034829364
0000c0 08 ea bf 3d 8d b1 7d bc 27 92 84 3b 58 e2 2b 3e
       0.0937081 -0.015484226 0.004045743 0.16785562
0000d0 dd 97 05 3e e8 c8 9e 3c 41 11 ab be 58 f0 37 be
       0.13046212 0.019382909 -0.334116 -0.17962778
0000e0 ae cc a3 be 6f dc 22 be ac 7d 21 be 5a fe 6e be
       -0.31992096 -0.15904401 -0.15770596 -0.23339215
0000f0 f9 2b 0d 3e de 52 a8 bd 81 0d 24 bd 38 3f 89 3d
       0.13786305 -0.08218931 -0.04005194 0.06701511
000100 7e 09 e4 bb a5 4e 73 3e fb bd f5 3d 17 f8 ad bd
       -0.0069591394 0.2376047 0.119991265 -0.08494585
000110 65 f1 3e 3e a7 2c a6 3d bb a9 04 3c 48 b3 6c ba
       0.18646772 0.081139855 0.0080971075 -0.00090294005
000120 65 9e 17 be 8d 20 f7 3b fd bb a1 bd 80 83 f0 3c
       -0.14806516 0.007541722 -0.07897184 0.02935958
000130 06 9e 46 bd 1b ad 3f 3c a9 7f 9b 3d 9e dd 15 3e
       -0.048490547 0.011698986 0.075927086 0.14635321
000140 f5 67 98 3d 0e 84 7c bd 89 55 07 3e 46 36 5d 3d
       0.07441703 -0.061649375 0.13216223 0.054006837
000150 0a 23 91 bb 3d d4 d1 3d e5 12 b7 3d 64 c9 76 3c
       -0.004429226 0.10245559 0.08939151 0.015062664
000160 8f 04 bd bd 8b 3b 97 bd e4 54 19 be 59 f8 05 be
       -0.09229385 -0.07384404 -0.1497379 -0.13083018
000170 68 eb 72 bd 9c 5e 4c be f6 9f 22 be 95 df 12 be
       -0.059306532 -0.19957966 -0.15881333 -0.14343102
000180 97 a3 25 be 3f ab ea bc bf 33 2b be 71 a9 a9 bc
       -0.16175686 -0.02864611 -0.16718958 -0.020710679
000190 dd c3 0d bd 7f 3d e5 bc 33 91 40 bc 5e 8b aa 3d
       -0.034610618 -0.027983425 -0.011753368 0.083273634
0001a0 6f bf ee 3c b5 f7 0c be d5 49 fc bd ae ce b7 3c
       0.029144017 -0.13766368 -0.1231877 0.02243742
0001b0 06 23 ae 3c 26 7c f2 3c d1 13 62 3d 74 a8 f2 3d
       0.021256935 0.029600214 0.05519468 0.11848536
0001c0 5b ee 88 bd ea db b2 3d ee a5 e2 bc 98 22 ab 3c
       -0.06686088 0.087333515 -0.027667012 0.020890519
0001d0 86 dd 1b bc 3c d0 43 3e 32 13 1c 3e 55 7b 9b 3c
       -0.0095132645 0.19122404 0.15241697 0.018979708
0001e0 bf b4 46 3e 9c 4d 64 3e 8e 0b 4c 3e 3b e9 5d 3e
       0.19404887 0.2229523 0.19926283 0.21671002
0001f0 7c 3d 46 3e 4f 3d 99 3d f6 6f 63 3d 3d 77 b5 3d
       0.19359392 0.07482397 0.055526696 0.088606335
000200 31 79 db bc 89 33 8b 3c aa 8a 90 bd 90 cc 39 3c
       -0.026791187 0.016992347 -0.07057698 0.011340275
000210 06 e2 f5 bd 79 d1 2f be b5 99 7b be ba 17 26 be
       -0.12006001 -0.17169751 -0.24570353 -0.16219988
000220 e7 d4 62 bd 31 bb 10 bd 3e 36 bd 3c 7e 16 e6 b9
       -0.05537882 -0.03533477 0.023097154 -0.00043885777
000230 6e f8 d4 3d e6 2c 87 3c 31 48 69 bd bb b3 0a 3c
       0.10398947 0.016500901 -0.056953613 0.008465703
000240 9b 51 37 3d a6 87 c1 3d b7 4e ad 3d c9 6e bc 3d
       0.04475556 0.09449701 0.08462279 0.09200818
000250 82 b6 03 bb 7a b8 82 bd cc 3f bd 3d 58 9f ed 3c
       -0.0020097797 -0.06382842 0.09240684 0.029006645
000260 3f 05 eb 3d e6 3c bc 3d 1e 73 c6 3d 38 3c ba 3b
       0.1147561 0.09191303 0.096899256 0.005683448
000270 70 a5 88 3d d6 c0 dd bc 29 89 c2 bd 58 6f 3e bd
       0.0667218 -0.02706949 -0.094988175 -0.046492904
000280 de f4 56 3d 64 be da bc 13 52 cf bd ad 27 40 be
       0.052479617 -0.026702113 -0.10123076 -0.18765135
000290 d2 bd fb bc be 91 a5 bd a2 8c 75 bd ec 0e 2a be
       -0.030730162 -0.08084439 -0.05994857 -0.16607255
0002a0 25 ca 85 be 8e d4 21 be b1 ff c8 bd 4c 26 c3 3d
       -0.26130787 -0.1580374 -0.09814394 0.09528789
0002b0 da b4 63 3e 29 00 37 3d bc 85 bf 3d 97 be 11 3e
       0.22236958 0.044677887 0.0935168 0.1423286
0002c0 23 22 4a 3d ca d1 51 bd 01 b2 ea bd ef 3d dd bd
       0.04934896 -0.05122546 -0.11459733 -0.108028285
0002d0 dd 43 6e bd 5b 57 a6 bc 95 e8 23 be 7b 71 a8 be
       -0.05817019 -0.020305326 -0.16006692 -0.3289908
0002e0 ed ec ae be 80 12 b8 be 58 0f 5c be a2 3d c6 be
       -0.34165135 -0.35951614 -0.21490228 -0.38718897
0002f0 b9 bc b8 be e8 8e 96 bd 4e 85 ff 3c 3e 65 fd 3c
       -0.36081484 -0.07351476 0.031191494 0.030932065
000300 2a 86 55 bd 3e 31 78 3d 14 d7 90 3d bd 1d f6 3d
       -0.052129902 0.060593836 0.07072273 0.12017391
000310 0c 8e 66 3d 78 4a 9a 3d d4 26 c7 bd ab b2 92 3d
       0.05628781 0.07533735 -0.09724203 0.071629845
000320 0a 83 b3 bd fd ef f1 3c b2 99 ad 3b bb 51 d6 3c
       -0.08765228 0.02953338 0.005297863 0.026162019
000330 a3 34 8e 3d 4d b0 9c bd d1 34 83 3c e3 0b 0d be
       0.069436334 -0.07650814 0.016016396 -0.13774066
000340 81 b0 ad bc fb 09 75 bd 69 ab 2c 3e 3b d5 87 3d
       -0.021202328 -0.05982397 0.16862263 0.06632467
000350 c0 59 5d bd 55 8d 42 be ef 28 ca 3d 9d a0 9c bd
       -0.05404067 -0.18999226 0.09871089 -0.07647822
000360 52 8b 3c bd 85 cc c7 bd 62 42 11 be ae 1b 82 3d
       -0.046031304 -0.09755806 -0.1418548 0.06352936
000370 0c dc af 3d b4 91 35 3d 90 9f 82 bd fc 9e ba 3d
       0.085868925 0.044328406 -0.063780904 0.09112355
000380 16 9d 47 bc f5 f0 83 3d da 6a ae 3d 01 b6 8e 3d
       -0.012183448 0.06442443 0.08516474 0.06968308
000390 b2 8a 3f 3e 74 9b a6 3d bf c3 f3 3d 0e df 8a 3d
       0.18705252 0.08135119 0.1190257 0.067808256
0003a0 72 09 b0 3d b0 fc 6a 3e 32 d6 06 3e 34 af 31 3e
       0.085955516 0.22947955 0.13167647 0.17351991
0003b0 3c 84 5c 3e d1 22 07 3e 83 4e 95 3d fe 0d b4 3d
       0.21534818 0.13196875 0.072903655 0.08791731
0003c0 20 f4 85 3b 0c 8e 99 bc a7 a8 d1 3c 5b 61 31 3d
       0.00408794 -0.018744491 0.025593115 0.043305736
0003d0 5e cc d8 3d 5f c5 dd 3d 38 9e 25 be 53 2c 62 bc
       0.10585855 0.10828661 -0.16173637 -0.013804513
0003e0 6a 3d 14 bd 65 cb cf bd 52 ab 46 3c e8 8c ee bd
       -0.03619138 -0.10146216 0.012125807 -0.116479695
0003f0 47 11 89 bb 12 ed 19 be 2b 83 0a bd 7a 4f 27 be
       -0.004182968 -0.15031841 -0.033816498 -0.16338912

conv4.bias f4 [64]
000000 f0 4e b3 bd 05 cb 2a 3d bb 8d 8e 3c fc 60 ab 3d
       -0.087552905 0.04169752 0.017401567 0.08368108
000010 b7 4c 14 be 7f 87 5e be 3b 86 9a be f4 ec 44 be
       -0.1448239 -0.21731375 -0.30180535 -0.19231015
000020 31 16 8a bd ca 86 e6 bc 87 51 b6 bd a3 1c ec be
       -0.06742514 -0.028140444 -0.08902269 -0.46115598
000030 fd f1 68 bd 99 ee 46 be 7b 18 0c 3e 07 ad 5e bd
       -0.056871403 -0.19426955 0.13681214 -0.05436423
000040 a0 0d 35 be b4 f3 82 be 7f d6 53 be 74 ac 1b 3e
       -0.17680979 -0.25576556 -0.20687293 0.15202504
000050 3a 51 7b be 77 39 1b 3e e6 f3 8c bd de 20 87 be
       -0.24542704 0.1515864 -0.068824574 -0.26392263
000060 3f a5 d2 bd 9b 08 35 be d5 d8 a0 3d c5 d0 e8 bd
       -0.102854244 -0.17679064 0.078538574 -0.11367945
000070 ba b5 ba bd 8c 1c 27 be df f8 06 3e e0 35 23 be
       -0.09116693 -0.16319484 0.13180874 -0.1593852
000080 9f 11 fb bc 69 2a 58 bd 94 9d f1 bd 96 cd 15 be
       -0.03064805 -0.05277482 -0.11797634 -0.14629206
000090 b1 a6 5c be c9 7e ce bd eb 50 1d be 9a f4 54 be
       -0.21547963 -0.10082776 -0.15362899 -0.20796433
0000a0 a9 85 e6 3d ef a8 b3 bd fd 8f 7f bd 82 b7 64 be
       0.112559624 -0.08772456 -0.062393177 -0.22335628
0000b0 c4 3a 8f 3d 42 18 85 be d6 d7 c8 bd 4c f4 46 3d
       0.069936305 -0.2599507 -0.098067924 0.048572823
0000c0 84 0b 02 be 2c de 96 be 53 ad 06 be b3 ac 8d 3d
       -0.12699705 -0.2946638 -0.13152055 0.069177054
0000d0 96 c9 b1 3d cd 16 08 bd 3a cc 5f 3d d2 b5 7d be
       0.086810276 -0.03322487 0.054638125 -0.2477639
0000e0 02 ea 47 bc e4 22 19 bc b4 26 0e bd 93 dc 44 3e
       -0.012201788 -0.0093466975 -0.03470488 0.19224767
0000f0 d7 b7 6c be c8 78 d0 bc 19 7a cd be 93 98 0e 3e
       -0.23117004 -0.025448218 -0.40132216 0.1392539

bn4.weight f4 [64]
000000 11 20 0f 40 41 4a 26 40 dd e2 22 40 34 e2 1e 40
       2.2363322 2.598282 2.5450966 2.4825563
000010 a7 4b 24 40 c8 d5 12 40 57 85 3e 40 d4 02 32 40
       2.5671175 2.2942982 2.9768884 2.7814226
000020 c3 9a 24 40 53 50 19 40 c2 3e 30 40 4f 54 26 40
       2.571946 2.3955276 2.7538304 2.5988958
000030 fb c0 24 40 7a 96 14 40 4a 54 0d 40 5a 76 2a 40
       2.5742786 2.3216844 2.2082696 2.6634736
000040 92 c4 0c 40 91 d3 23 40 c9 d3 23 40 a5 c8 0f 40
       2.1994977 2.559788 2.5598013 2.2466214
000050 3e cc 03 40 41 db 08 40 76 a2 3b 40 61 d2 2d 40
       2.059341 2.1383822 2.9317908 2.7159655
000060 a4 e0 0f 40 8a 45 11 40 d6 3f 1a 40 22 98 25 40
       2.248086 2.2698693 2.4101462 2.5874104
000070 5d 4d 04 40 ce 9c 0d 40 02 c4 06 40 3b c4 0f 40
       2.0672219 2.2126956 2.1057134 2.246352
000080 71 fd 17 40 a4 b9 2b 40 7f 46 26 40 97 03 33 40
       2.3748438 2.6832056 2.5980527 2.797094
000090 80 36 1a 40 29 cd 17 40 e9 cd 10 40 1a 91 18 40
       2.4095764 2.371897 2.2625678 2.3838563
0000a0 e8 6d 04 40 5d ab 20 40 e3 78 35 40 85 28 27 40
       2.0692081 2.5104592 2.8355033 2.611848
0000b0 dc 11 10 40 c8 ac 2b 40 63 02 30 40 22 b6 1d 40
       2.25109 2.6824207 2.7501457 2.4642415
0000c0 ed bd 2b 40 85 27 1e 40 45 71 13 40 a3 cb 22 40
       2.6834671 2.471162 2.3037884 2.543679
0000d0 29 26 0f 40 c4 15 46 40 4d 11 1a 40 2d dd 24 40
       2.236704 3.0950785 2.407306 2.5759995
0000e0 0e c1 14 40 87 44 27 40 a1 53 15 40 92 6c 34 40
       2.3242831 2.6135576 2.3332293 2.8191266
0000f0 20 42 36 40 a7 44 1c 40 e6 35 23 40 59 c3 28 40
       2.847786 2.4416902 2.5501647 2.636923

bn4.bias f4 [64]
000000 4c ee e2 3c bf c9 5b bd e9 68 f7 bc 76 f5 76 3d
       0.02770152 -0.053659197 -0.030201392 0.060292684
000010 b1 f4 8c 3e 10 56 05 bc fc c9 ec bd 81 45 0b 3d
       0.27530435 -0.008138195 -0.11561963 0.03400183
000020 b2 df 7b 3c 1c 18 65 3d 28 b2 54 3d 0e af 66 be
       0.015373157 0.055931196 0.051927716 -0.22527716
000030 7e ab 1c 3e 48 57 db 3d 78 84 a2 bd d9 5f 44 3d
       0.15299794 0.10710007 -0.07935423 0.04794297
000040 0d 39 d8 bb b4 36 03 be 7a ea 1b 3d 18 66 a3 be
       -0.006598598 -0.12813836 0.03806541 -0.3191383
000050 1f 55 bf 3b e2 80 3e be 9a a9 18 3e 81 cf 8a be
       0.0058390046 -0.18603852 0.14908448 -0.27111438
000060 d1 02 d9 bd ca 36 46 3e 5a 96 1c 3e 75 4f 27 be
       -0.1059624 0.19356838 0.1529173 -0.16338904
000070 05 d0 20 3e d9 64 14 bd 11 00 18 3e b2 a0 86 3e
       0.15704353 -0.03622899 0.14843775 0.26294476
000080 1c 47 d6 bd 78 1c e6 bc 74 2a bb 3c c6 bb b8 3e
       -0.10462782 -0.028089747 0.022847392 0.3608076
000090 e7 2e 77 be c7 0d 56 bd e0 b8 a2 be 6c 5e 02 bd
       -0.24138986 -0.052259233 -0.31781673 -0.03182833
0000a0 68 f3 25 3d 2e 4c 9f be 1a 0f 5f bc 9f f5 e6 be
       0.040515333 -0.31112808 -0.01361444 -0.4510927
0000b0 a6 a2 3e 3e 18 55 91 3e 10 82 3e 3d dc 01 78 3c
       0.18616733 0.28385234 0.046510756 0.015137162
0000c0 b7 52 8d 3e 79 ef 96 3e f4 a8 53 bd eb 20 c1 3d
       0.2760217 0.29479578 -0.051674798 0.09430107
0000d0 ea 3d 2a be 4c c2 31 bd 4f ab 49 3e 03 49 81 3e
       -0.16625181 -0.043398187 0.19694255 0.25251016
0000e0 4d 03 35 be 21 7f 94 3e e8 30 c7 bd 0a f5 51 3e
       -0.1767704 0.29003242 -0.09726125 0.20503631
0000f0 1a 08 6e 3e 70 08 93 3e 09 7b df 3c 31 e6 20 bd
       0.23245278 0.28717375 0.027280347 -0.039282028

bn4.running_mean f4 [64]
000000 13 9d 37 3f 59 15 2b 3f fa bb a6 3e ec e0 6e 3f
       0.7172405 0.6682945 0.3256529 0.93311954
000010 bd af a9 3e 82 ed 88 3f 62 78 b1 3e b4 1b 57 3e
       0.3314189 1.0697482 0.34662157 0.21006662
000020 5a f9 33 3f de ce 6f 3f 86 d4 a1 3e e2 d1 ca 3e
       0.70302355 0.9367503 0.31607455 0.39613253
000030 82 5e fa 3e 48 0b 86 3f bf 37 18 3f 0e 4f 9c 3e
       0.4890023 1.0472193 0.5946006 0.30529064
000040 bf d5 03 3f 66 e7 ad 3e 3e 42 da 3e 2c 4b 46 3f
       0.51498026 0.33965605 0.42628664 0.77458453
000050 15 f2 2d 3f bf 18 1b 3f 30 5c e3 3e 24 5c 94 3e
       0.6794751 0.60584635 0.4440627 0.28976548
000060 47 5d 7d 3f 90 18 92 3f e7 c8 35 3f 37 d2 d0 3e
       0.98970455 1.1413746 0.7100968 0.4078538
000070 9e 62 3e 3f 5a 99 10 3f 3e 4e 1e 3f 82 a5 ac 3e
       0.7436923 0.56483996 0.6183814 0.33720022
000080 22 af 1b 3f 64 cf c8 3e e8 44 18 3f bd 70 bf 3e
       0.60814106 0.39220726 0.5948014 0.373907
000090 5f e0 09 3f b0 59 d5 3e d2 c7 8d 3e 76 dc 34 3f
       0.5385799 0.4166999 0.27691513 0.70648897
0000a0 75 d5 49 3f e3 1e b4 3e 7e 7d db 3e b5 80 84 3e
       0.78841335 0.35179815 0.4286918 0.25879446
0000b0 62 01 1c 3f 33 fd 19 3f 32 6c 31 3f 30 81 1c 3f
       0.6093961 0.60151976 0.6930572 0.61134624
0000c0 f1 71 57 3f 2f 3b da 3e 7d 29 88 3e 88 8e ce 3e
       0.84158236 0.42623278 0.26594153 0.40343118
0000d0 9e 06 60 3f 89 69 a6 3e bb aa 37 3f 06 37 25 3f
       0.875101 0.32502392 0.7174489 0.64537084
0000e0 3f 12 28 3f 9f dd ae 3e 82 29 a4 3e cf 70 84 3f
       0.6565284 0.34153458 0.32062918 1.0346926
0000f0 60 da bd 3e 52 b9 2f 3f 92 6d f1 3e bb cf c9 3e
       0.3708067 0.6864215 0.47153908 0.39416298

bn4.running_var f4 [64]
000000 88 4e 9f 3f 44 6a 82 3f a5 f5 12 3f c3 fa c3 3f
       1.2445841 1.018868 0.57406074 1.5310901
000010 d5 1a 0a 3f bb fd ca 3f 83 57 3a 3f 2b 8f e2 3e
       0.5394719 1.5858682 0.7278978 0.44249853
000020 77 7d 9b 3f fa d9 bc 3f e4 70 0a 3f 53 b1 4c 3f
       1.2147664 1.4754021 0.5407851 0.79958075
000030 d6 0d 61 3f 10 a3 16 40 3f ff 6a 3f 6d 9b 27 3f
       0.87911737 2.3537025 0.91795725 0.65471536
000040 f9 e2 72 3f 7e 00 29 3f f0 c9 43 3f 01 4c 85 3f
       0.9487758 0.66016376 0.7648001 1.041382
000050 7e ca a3 3f 97 82 59 3f 28 e2 6c 3f 00 26 20 3f
       1.2796171 0.8496489 0.9253259 0.62557983
000060 6c 35 d9 3f 71 9e d5 3f dc a8 ac 3f 25 f4 69 3f
       1.6969428 1.6688977 1.3489032 0.9138816
000070 b3 02 8a 3f a2 5c ae 3f a4 94 48 3f 7d 93 00 3f
       1.0782074 1.3622019 0.7835181 0.5022505
000080 86 9c a0 3f 35 60 1e 3f ab f0 6c 3f 85 da 12 3f
       1.2547767 0.6186555 0.9255473 0.57364684
000090 d6 a2 86 3f a5 d3 67 3f 49 95 0d 3f 3e f6 cb 3f
       1.0518444 0.9055732 0.55305916 1.5934522
0000a0 42 67 8b 3f 23 f8 25 3f f6 75 47 3f f1 d7 cb 3e
       1.0890887 0.6483175 0.7791437 0.39813188
0000b0 1c bd 63 3f 7c f8 8f 3f 74 c2 c9 3f d9 f3 79 3f
       0.88960433 1.1247706 1.5762467 0.97637707
0000c0 ae 85 c4 3f aa fd 60 3f 9a a2 f8 3e 06 7f 01 3f
       1.5353296 0.8788706 0.48561555 0.5058445
0000d0 e4 2e b7 3f a4 f1 32 3f 29 74 a7 3f c5 62 76 3f
       1.4311185 0.69899964 1.3082324 0.9624446
0000e0 58 c4 90 3f 08 98 15 3f a4 2e d7 3e 81 c2 e8 3f
       1.1309919 0.58435106 0.4202777 1.8184358
0000f0 26 ea 61 3f 10 b5 b3 3f 02 bc 98 3f d5 68 23 3f
       0.8824791 1.4039631 1.1932375 0.63831836
