cnn-400.pt (torch, 124107 bytes, 50 tensors)

conv1.weight f4 [8, 1, 5, 5]
00000000: 6069 c7bd eb7a a2be b213 84be 8dcc 62be
00000010: 4f7c ff3d da76 43bd 55eb 15bf 92f0 debe
00000020: 5688 373e bedd f4bc bd8d b7bd 6830 653e
00000030: ffb2 2fbe 46b9 903d 0238 15bf 99ad 113f
00000040: 667c 2cbe 68c1 f53e cb36 9ebd 4c09 0abe
00000050: bfec 733e d271 8c3e 9829 303f ba81 de3e
00000060: 2ecd 943e e05d 1e3e 9119 85bc a096 143e
00000070: 5ae5 3dbc 5744 d8be d6d3 053e aa51 823d
00000080: 93da 343e 150a b83e 1d3c 373d 73f7 2a3d
00000090: f0f7 d4bc 000d 383e bc81 debe 15ce 003f
000000a0: d956 46be 7c7a 90be 3acc 78be 2beb 99be
000000b0: 70a5 6bbf 0d64 77be f27d ea3e 9cd9 b93e
000000c0: 466f f2bd 7f21 18bf 4b25 a9be 1c70 36be
000000d0: 06dd 91be 67ec 8b3e 88bf d43e 25e9 65be
000000e0: a8cd 04bf 62d0 13bd adb7 973e 006b 1c3e
000000f0: 603b 623d ef27 90be 7c8e 2d3f c71c 853e
00000100: f7f7 1bbf ffdb cb3e 3f20 b8be b486 d8bd
00000110: bd6f 6c3e 4389 e4bd c809 51bd a6f7 59be
00000120: ab3c 9fbe 6d07 b33e bd6b 133f a75e 82be
00000130: e449 b53e eadf c2be 72d3 913e b66b 8b3c
00000140: 60cd b53e 3525 323e eb7f 0fbe 3a87 04be
00000150: 6c30 86be 8a67 eb3e 92a7 8dbd cc3e cfbd
00000160: a83c 833c 75b8 96be 8e15 543f 68e6 2fbe
00000170: e112 e3bd 7819 4ebe 0b0a 87be 48e6 693e
00000180: 9f6c 4ebe 9459 7dbe 0bd7 bdba 56b4 b83d
00000190: 6b29 333e dec8 b13d 75b4 4a3e a0ec 63be
000001a0: 2906 9e3d 7854 f4bd d15f 05be 548e 38bd
000001b0: f9d8 4f3e 833a 913d a996 8d3d 9a25 9d3e
000001c0: 3156 f83e eff5 ae3e 6b9c 193e 511a 013e
000001d0: 86e8 85be 922d ee3d 31fe fcbc f210 18be
000001e0: a7d3 e4be ab4d 80bd d6b9 11bf 841d 7dbe
000001f0: f591 9e3e c8fa 733e 9b2f b73e 4b7b d03d
00000200: c409 27bd a7b7 a1be 218f f13e 3d39 cdbc
00000210: 16db 563d 1ff1 d43d 95e7 cebe 28d8 24bd
00000220: 478e 00bd 1c40 c0b9 e947 90bd 661b 8abe
00000230: 9f13 443e 4e14 0a3e 7a02 ca3d f07d d0bd
00000240: 6c50 8fbe 3a88 7a3e 87fa 46be 1339 a83e
00000250: 37e4 383e a3d6 93be a9fd b3be cb96 dcbe
00000260: 3d34 36be 8d5a a03e cb07 8a3e 4670 29be
00000270: e02d 553e f0c5 b23e 6e3a 5b3f 3019 2d3f
00000280: 9c34 953d cc15 bdbe adbd e7be 023a c1bb
00000290: 851c aa3e f47e a6be d5dc 9cbe 9513 923e
000002a0: 1f25 c33e 2d11 08bf 217e a5be 6188 7f3e
000002b0: 10f1 09be 9046 6bbe fa94 b93e dc14 a7be
000002c0: b1fe a0be 1d79 853e 5bb4 4ebc 4585 babe
000002d0: 82e4 aebe 9ca8 2fbf 19b8 ed3e 1018 94bd
000002e0: 0a16 44be 3739 82be 41d0 c03e abd7 ebbd
000002f0: 7528 bfbd a896 8ebe 6977 463e da34 d23d
00000300: 964f 273f 2997 3abe 3718 013f 1c69 96be
00000310: bade 4abe 97b2 ae3e 6ddf 72bd 8e45 4cbe
-0.097368956 -0.31734404 -0.25796276 -0.22148342 0.12474882 -0.047720768 -0.58562213 -0.43542916
0.17923102 -0.029890891 -0.08962581 0.22381747 -0.17158125 0.07066588 -0.58288586 0.56905514
-0.16844329 0.4799912 -0.07725295 -0.13480109 0.2382078 0.27430588 0.6881347 0.4345835
0.2906279 0.15465498 -0.016247543 0.14510584 -0.011590326 -0.4223964 0.1306909 0.063632324
0.17661504 0.35945192 0.044735063 0.041739892 -0.025997132 0.17973709 -0.43458354 0.50314456
-0.19369067 -0.28218448 -0.24296656 -0.3006223 -0.9204931 -0.2415926 0.45799214 0.36298835
-0.1183763 -0.5942611 -0.33036265 -0.17816204 -0.2848894 0.27328798 0.41552377 -0.22452219
-0.51876307 -0.0360874 0.2963232 0.15275192 0.055232406 -0.28155467 0.6779554 0.25998518
-0.6092524 0.3981628 -0.35962102 -0.105725676 0.230895 -0.11158993 -0.05103472 -0.21285877
-0.31100973 0.34966603 0.5758627 -0.2546284 0.35407937 -0.38061458 0.28481632 0.017019134
0.3550825 0.17397006 -0.1401364 -0.1294221 -0.26208818 0.45977432 -0.06916727 -0.101193994
0.016020134 -0.29437605 0.8284539 -0.17177737 -0.11087585 -0.20126903 -0.2637485 0.22841752
-0.20158623 -0.24741203 -0.0014483643 0.09018771 0.17496268 0.086808905 0.19795401 -0.22258234
0.07716019 -0.11930174 -0.13024832 -0.04505761 0.20297612 0.07091238 0.06913502 0.3069275
0.4850326 0.34172007 0.15001075 0.12607695 -0.26153964 0.116297856 -0.030882927 -0.14850214
-0.44692728 -0.06264814 -0.5692419 -0.2471829 0.3097073 0.23826134 0.35778508 0.10179766
-0.040780798 -0.31585428 0.4717951 -0.025051707 0.05245503 0.10397553 -0.40411058 -0.040245205
-0.031385686 -0.0003666886 -0.07044966 -0.26974028 0.1914811 0.13484308 0.098637536 -0.10180271
-0.27991045 0.24466029 -0.19431506 0.32856044 0.18055807 -0.28874692 -0.35154465 -0.43083796
-0.17793365 0.31319085 0.2695907 -0.16546735 0.20818281 0.3491664 0.8563603 0.6761656
0.07285425 -0.36930692 -0.452619 -0.0058968076 0.33224884 -0.32518733 -0.3063723 0.28530565
0.3811426 -0.5315121 -0.3232279 0.24954368 -0.13470864 -0.22976136 0.36246473 -0.32633102
-0.31444314 0.26068965 -0.012616242 -0.36429802 -0.34158713 -0.6861665 0.46429518 -0.07231152
-0.19149032 -0.25434276 0.37658885 -0.11515745 -0.093338884 -0.27849317 0.19381489 0.10263987
0.65355814 -0.18221726 0.50427574 -0.29377067 -0.19811526 0.34120628 -0.059295107 -0.19948408

conv1.bias f4 [8]
00000000: 6a20 353e 06fa 81be 1906 b83e 98a0 d8bd
00000010: 76dd 8e3e a760 7b3e 26e2 adbe 3209 553e
0.17688146 -0.25386065 0.35942152 -0.10577506 0.27903336 0.24548589 -0.339616 0.20804289

bn1.weight f4 [8]
00000000: e8f8 923f e73a 453f 899a 833f 66f2 9a3f
00000010: 8ab7 493f 138d 843f cdb3 a43f 0494 3a3f
1.148221 0.77043 1.0281535 1.2105224 0.78795683 1.0355552 1.2867371 0.72882104

bn1.bias f4 [8]
00000000: ef41 f73d 4491 87bd a96c f838 0ef0 9fbc
00000010: 0fbb b6be a936 25be cec1 ca3c 0308 a33e
0.12073123 -0.06619504 0.00011845801 -0.019523647 -0.3568959 -0.16134132 0.024750616 0.3184205

bn1.running_mean f4 [8]
00000000: 4efd c93e ee06 df3e 9ebe cb3e 581b af3d
00000010: 5e4c e23e 7f67 c53e 5eba 503e 012c 073f
0.3945107 0.43559974 0.39793867 0.08550137 0.4419889 0.38555524 0.20383593 0.5280152

bn1.running_var f4 [8]
00000000: 9b34 f63e 4311 d43e 7f33 243e 1772 863d
00000010: 8398 723e 68aa 453e 50d9 533e 0958 ec3e
0.4808701 0.4141942 0.16035269 0.0656473 0.23690991 0.19303286 0.20688367 0.46160915

conv2.weight f4 [16, 8, 3, 3]
00000000: c336 2fbc 95dd e03d c9cd d3bb a056 37bd
00000010: 059a 903d 128c b73d e84f 50be 8af2 9ebd
00000020: fb60 f83d d475 433d 8510 c0bd 863b dbbb
00000030: 116e fbbd 2b8b 99be 18c2 02be cb3a b5bd
00000040: 8b7f 19bc 3c98 163e 8862 da3d 09c0 9a3d
00000050: 4736 33bd eec4 993d 71fe cbbb 66f9 35be
00000060: 7c4c ce3c 95bf 1f3d cca7 dabc b8c4 22bf
00000070: 34e7 84bf 318b 35bf d99d 2abf 75e3 80bf
00000080: 2555 68bf abd3 00bf 29e5 57bf e124 12bf
00000090: 2735 0fbe 6f84 43be c591 243e bdda 073e
000000a0: 948d 43bd 0b73 98bc 3b5f 903e c995 7abd
000000b0: 57d0 033d 562c 2dbe fd73 ce3d 12af 6e3d
000000c0: 61b0 0bbc 2869 4d3e b403 a6bd ec66 c6bd
000000d0: 1637 343d 1d4d 02be 36ce 8c3d 2cc5 1b3d
000000e0: c53b e13d 2c24 e03b dee8 0abe 2d15 ae3d
000000f0: 9979 bf3d 2bc3 bbbd 7497 493d 41c7 9a3e
00000100: d84a e23d d7f9 1ebe f0c0 083e da1a 453e
00000110: 6634 99be be26 37be d611 183e c769 6abe
00000120: 9c49 b53d a0a0 9c3e 038c 9e3d b8a1 593e
00000130: d30c 90be 7633 1abd f52f babd dcea 92ba
00000140: 6d91 57be b83d 9e3e 48c7 1b3e 9e53 223d
00000150: eaf2 7fbb 1789 bfbc 3932 b23e 92ab 84bd
00000160: d10b 473e a1b6 3dbd f5fb 94be 819c f2be
00000170: 3ab9 40be 4dac ddbc 4318 4fbe b728 58be
00000180: 35a6 02be 1597 f5bd 44f4 2fbe e68c 79bd
00000190: e2ce 40be 8d67 453d 272d 38be fac8 323d
000001a0: 9ae9 ad3c 3262 2a3d fa7d b8bc 09d6 8f3d
000001b0: 01e2 23bd 7d87 cb3e a033 8fbd f41e 99be
000001c0: 1039 65be c69e 42be db47 063e 1d86 3f3e
000001d0: 56c2 1d3d d1a1 9c3d 9c60 5e3d c058 8b3e
000001e0: 4359 92be 0892 b4be db3c d2be 794c 3dbf
000001f0: b88f 0bbf 9415 99be 1bfa d1bd ce09 35bd
00000200: 5a71 99be 5eb2 b9be c8db 1dbf 8501 f5bd
00000210: a51c e5ba 3714 8bbd 0b04 97be 6768 1fbe
00000220: 4fb3 56bd 54dc fdbd fc00 0b3c 03ec 143e
00000230: 8887 d63b 992a ad3e 7035 a03e 03a4 973d
00000240: ce9b 9c3e 9377 24bd ef55 b83e f01d f7bd
00000250: 8e16 e43c 3552 c63d ea04 ccbd 1f1a 46bd
00000260: 4b73 93bd 744e 29bd 387c 91bd a186 c9bd
00000270: 30de dfbc cf50 173c 3ce0 bc3d f6c2 6b3e
00000280: d404 073f 5468 d13e 8518 5e3e 29e4 95be
00000290: 827e ca3d dfec 363e 2865 d2be ed60 883e
000002a0: c18d 083e fae9 95be a55b 6fbd dc87 cd3d
000002b0: 1811 ca3d 2719 973c ebea 263d 1576 4f3e
000002c0: a17e b4be 8e8b 403e 7d37 bf3e 4353 693e
000002d0: 8e25 7b3e 597a 013e b98f 843e 78bf 7a3e
000002e0: 9a94 1c3d 1b33 653e ebd2 20be cd5d 3e3d
000002f0: 16c6 423d fb40 283d 8284 423e 33ad 88bd
00000300: 10db b7bd 1880 3bbe ea14 4b3e b7ad b4bd
00000310: 774f c4be c19d 853d c19c 9b3e a233 70bd
00000320: 2f10 6e3e 20d5 71be 0eff cfbd f14a 5cbb
00000330: 4dae 67bc a0ca 98be 6153 cdbd 2c09 ba3c
00000340: abd3 b9be 6617 ac3d 142b b0be f645 013e
00000350: 3ee7 d83d dd1d 69bc a2e4 c33e b939 a63d
00000360: 9161 43be 6a9c b0bc a096 033e 7975 a9be
00000370: 40d8 02be c040 503e d802 41be 09ac fd3c
00000380: 0564 553e add1 e13c bd51 6a3e 2ebc 503d
00000390: 6361 293e 9a1c c93d d74e 0fbe 8832 863d
000003a0: 4356 b4bd 90fc e3bd d260 933e 28cf 573e
000003b0: 99b2 15be 2619 c13e 03e4 9a3e 41a0 15bd
000003c0: 0004 203e a46b 7e3e f0cf fa3c 103b 2bbe
000003d0: 35dd c7be a542 973d 83dc abbd c38f b3be
000003e0: 345c 4b3d 39b5 31be 8815 98be 9d24 673d
000003f0: 84ea 943c f150 5d3d d4a0 3e3e e74c 29be
-0.010694209 0.109797634 -0.0064637405 -0.044760346 0.07060627 0.08962263 -0.20342982 -0.077611044
0.121278726 0.04771979 -0.09378151 -0.0066904454 -0.12276853 -0.2998899 -0.12769353 -0.088491045
-0.0093687875 0.1470651 0.106633246 0.07556159 -0.043752935 0.075082645 -0.0062254 -0.17770919
0.025182955 0.039001066 -0.02669134 -0.6358142 -1.0383058 -0.70915514 -0.66647106 -1.0069414
-0.9075492 -0.5032298 -0.84334046 -0.5708752 -0.1398512 -0.19093488 0.16071232 0.13267036
-0.04774244 -0.018609544 0.28197655 -0.061178003 0.03218111 -0.16911444 0.10080717 0.05827243
-0.008525939 0.20059645 -0.08106175 -0.096875995 0.043997847 -0.12724729 0.06875269 0.038029835
0.10997728 0.0068402495 -0.13565394 0.08500133 0.09349365 -0.09168085 0.049216703 0.30230144
0.110494316 -0.15524994 0.1335485 0.19248524 -0.2992279 -0.17885873 0.14850554 -0.22891913
0.088519305 0.30591297 0.07741549 0.21253097 -0.28134784 -0.037646733 -0.09091178 -0.001120891
-0.2105157 0.30906463 0.15212739 0.039630525 -0.00390547 -0.0233808 0.34803942 -0.06478037
0.19438101 -0.046316747 -0.29098478 -0.47385028 -0.18820658 -0.027059698 -0.20224099 -0.21109281
-0.12758715 -0.11991707 -0.17183024 -0.060925387 -0.1882892 0.048194457 -0.17985974 0.043648697
0.021229554 0.041597553 -0.022521008 0.07023246 -0.040010456 0.39751807 -0.069922686 -0.29906428
-0.22385049 -0.1900588 0.13113348 0.18703504 0.03851541 0.076480515 0.054291353 0.27216148
-0.28583726 -0.35267663 -0.41062054 -0.73944813 -0.5451617 -0.29899275 -0.10252782 -0.044198804
-0.29969293 -0.36268896 -0.61663485 -0.119631805 -0.001747985 -0.06790965 -0.29495272 -0.1556717
-0.052417096 -0.1239554 0.008484121 0.14543156 0.0065469183 0.33821562 0.3129077 0.0740433
0.3058762 -0.040153097 0.36003062 -0.12066257 0.027842786 0.096836485 -0.09961875 -0.048364755
-0.07199725 -0.041334584 -0.07103771 -0.098401316 -0.027327627 0.009235575 0.09222457 0.2302359
0.5274174 0.4089991 0.21689041 -0.29275635 0.09887411 0.17863797 -0.410928 0.26636449
0.13335325 -0.29280072 -0.05843701 0.10035679 0.098665416 0.01844461 0.04075138 0.20259888
-0.3525286 0.18803236 0.37347022 0.22785668 0.24526045 0.12644328 0.25890902 0.24487102
0.038227655 0.22382776 -0.15705459 0.046476174 0.04755219 0.041077595 0.1899586 -0.0667366
-0.0897733 -0.18310583 0.19832197 -0.08822196 -0.38341877 0.0652423 0.3039303 -0.05864299
0.23248361 -0.23616457 -0.1015607 -0.0033614004 -0.014140678 -0.2984209 -0.10025669 0.022709452
-0.36294302 0.084029004 -0.34407866 0.12624344 0.10590981 -0.014228311 0.3826037 0.081164785
-0.19080187 -0.021558959 0.12850428 -0.33097437 -0.12777805 0.203372 -0.18848741 0.030965822
0.20838936 0.027565802 0.22882743 0.050960712 0.16541056 0.098199084 -0.13994919 0.06552607
-0.088055156 -0.11132157 0.28784806 0.21075118 -0.14618911 0.377145 0.30252084 -0.036529783
0.15626526 0.24845749 0.03061673 -0.1672175 -0.39035955 0.07385758 -0.08391669 -0.3507062
0.04964848 -0.17354287 -0.29703927 0.0564314 0.018178232 0.05403227 0.18616039 -0.16533242

conv2.bias f4 [16]
00000000: 414e 95bd 1603 0b3e 3d73 0dbe e0c3 d9bd
00000010: 3734 a4bd 84b9 93be 5b8b 033e 66b8 5b3e
00000020: f3f5 4b3e 8325 79be c9fe 1abe 75cd 8c3d
00000030: 09b3 0d3d c053 993d 5091 2bbe 7607 183e
-0.072903164 0.13575396 -0.13813491 -0.10633063 -0.08017772 -0.28852475 0.12846129 0.21457061
0.19918041 -0.24330716 -0.15136255 0.06875125 0.03459457 0.07486677 -0.16754651 0.14846596

bn2.weight f4 [16]
00000000: cd27 833f 0098 423f 99e0 433f 46fc b03f
00000010: 71f0 913f a8b8 973f 1db5 403f 6257 6b3f
00000020: 27ed 7d3f 1d44 7f3f fd73 503f 69b5 493f
00000030: 0def 703f 7b1f 8b3f ff8a 3b3f c9eb 823f
1.0246521 0.76013184 0.76514584 1.3826988 1.1401502 1.1853228 0.75276357 0.9193021
0.9918999 0.9971331 0.81426984 0.78792435 0.9411476 1.0868982 0.73258966 1.0228206

bn2.bias f4 [16]
00000000: 131b 323e d7e2 a2be fca5 9ebe 4dec bcbd
00000010: 058f 77bb a83d b4bd a4e1 803e a712 69be
00000020: 5ec8 f73e c13b a7bc 050a 093e 2e5a c33e
00000030: f886 ccbd 3189 18be ea30 8cbe 7ddf 16be
0.1739314 -0.3181369 -0.3098601 -0.09224758 -0.0037774455 -0.088008225 0.2517215 -0.22761022
0.48395056 -0.020414235 0.13382728 0.3815474 -0.09986681 -0.14896084 -0.27381068 -0.14733692

bn2.running_mean f4 [16]
00000000: 6a72 c63f a52a fa3f c1c6 cd3e 23e6 153f
00000010: 0134 1c3f 9c48 1b3f 515f 203f d2da 943f
00000020: b88a 163f 0887 8a3e 2601 f93e 59dc e13f
00000030: 3e42 f93e ec74 a53f 1f64 d53f f576 113f
1.5503666 1.9544264 0.401907 0.58554286 0.6101685 0.6065767 0.6264544 1.1629279
0.5880542 0.27056146 0.4863369 1.764537 0.4868335 1.2926307 1.667118 0.5682214

bn2.running_var f4 [16]
00000000: 7c3b ce3f fb85 ad40 439f 6e3f e35f 0740
00000010: 02a1 d13f bb0a d93f bef0 1d3f 63aa ee3f
00000020: d8b9 b33f 028f 483f 3f0f 6b3f 1764 4240
00000030: ec9f 813f 4f58 8240 f42f 3b40 57ea cf3f
1.6111903 5.422605 0.93211764 2.1152275 1.6377261 1.69564 0.6169547 1.8645748
1.404109 0.7834321 0.9182014 3.037359 1.0126929 4.07328 2.9248018 1.624339

conv3.weight f4 [32, 16, 3, 3]
00000000: 4fd1 5b3e e6d9 313e 672f b3bd 0a4d f33d
00000010: b12c 4b3e f505 3a3d 285e d63d 8de1 4c3d
00000020: bf2d 7bbe 82ed d5bb 98cd 28be 324f 01bd
00000030: 898f 633c 70ab 88be b5fa 4bbe 9bb5 8e3e
00000040: b663 763a 7bac 343e aed3 a0be 361d 17bd
00000050: 9338 253c 92b1 a4be 73d0 a1bc 4c16 a03d
00000060: de26 d6bd f1cd 1e3e 1b6d 833e bc77 503e
00000070: b86e 733e 25eb 523e 2f87 0c3e 5220 883e
00000080: ab93 873e cc0d 033e 9fbf 563e 7638 7c3e
00000090: b249 013d de05 143e 1a06 7b3e 1304 793e
000000a0: 318a 543d 7fe3 2d3e dcf2 9a3d 867e 423d
000000b0: 8e93 4f3d 537d b9bd 231b 70be d463 51bd
000000c0: eae6 183d b316 0ebe 8cf3 6abd e0c1 373e
000000d0: 2a5a cf3d 3355 1bbe 9ad0 35be b070 9dbe
000000e0: 2bcf ffbd c788 21be 2f3b 7dbd e93f cebd
000000f0: 486c 80be e2bd 88be 020a 90bd 9632 9c3d
00000100: 5cf6 1bbe 918d aebe 8adf 843e 2d93 9abc
00000110: a0c0 77be 00de 11bd a304 94be 347a d3be
00000120: 3ced bbbe 9b96 54be 4fc8 acbd 0c46 f9be
00000130: f115 9ebe ed69 eabc 42b3 c3bd 9465 2cbe
00000140: 65e3 43be d4af 343c a071 a53d 077e 80bd
00000150: 7327 993d b9f0 193e 45c3 163e ee4f 6b3d
00000160: ef2d 9e3d d6b0 3bbc ccf4 2fbe dbaf f4bd
00000170: e14e 073e a482 af3d c944 97bd 0c1b 173e
00000180: b714 c8bc be7e 2e3d 4ad1 c53d 0c11 0fbe
00000190: b5c5 113e d476 8abd b504 2c3d 2f2d 183e
000001a0: 3543 713d 7f29 123e 4210 f6bb 5cbd 463e
000001b0: 1e97 9d3c 8a4d 1b3e 5bdd 4b3e 897b cd3d
000001c0: c4ae 893d ae06 2fbd e0e2 d9bd 1635 183e
000001d0: f804 983e d2b2 17be dd78 56be d39f b33c
000001e0: 4183 8abe 83c8 11be 9d9c 94be db4e 61be
000001f0: eecf 983d 9695 273e 0f1f 973d b074 47be
00000200: 8dde 8bbe 72b2 433d 29d1 c33d 6997 8c3c
00000210: 583f 173e 74f1 0a3d b9c4 bd3d 52e3 ff3d
00000220: ad92 ac3d 5443 643d 0545 abbc da57 c7bc
00000230: dbe1 993d 3da5 45be a6e6 4dbe 9895 18bd
00000240: 4336 9cbd 62fe fd3d 744b ad3d 0d56 76be
00000250: 8a54 afbe 35a2 73be 3fc6 063e f793 893d
00000260: 9744 d53c ca0c 11be b108 173e 1cc9 32bd
00000270: efbc 8a3e e9d4 1b3e 1732 203e 33be 7a3e
00000280: 5cd6 2b3e 7047 3c3d 5e30 06be 4242 3c3b
00000290: 12e6 7dbe b5fc 2dbe 1a01 08be bd2e 0bbd
000002a0: 1018 9d3e af69 213e e57d 603e 9bb4 ccbe
000002b0: 97cd c0be 0a08 61be cd44 08be 11c6 3dbe
000002c0: f446 eebd f774 da3b 2909 b83c 95bd 1c3e
000002d0: 912f bfbd 7b54 57bc 9df2 41bd 1455 e03b
000002e0: 78a8 1e3e 7e4a b33d 2224 a83c 8531 313e
000002f0: 1f94 3d3d bb2c 1a3b eab2 60be ad1a 83bd
00000300: dab1 9abe efac 49be 0504 a0be f119 6bbb
00000310: 8cac 623d 2b9c 893d 2d4a b43d a080 9dbc
00000320: 7869 9a3d eeca 8b3e 408c e33e d35d 9c3e
00000330: 0d31 3ebe 2eab b2be 37b5 42be 17f4 d93d
00000340: 5dbe 623e 3f28 6e3e 9b9d 9e3d b204 003e
00000350: 3289 a03e 9fdc 0ebd 8cea cd3d 4481 383e
00000360: b4db b33d 115b 273d 5774 333d 58b5 23bd
00000370: caa0 313e 4d37 1e3e e9f5 3e3e b119 303e
00000380: 10f0 a63d 1a23 1cbe 638b 4dbe a274 aabe
00000390: d06d 9b3d 80b7 833e 65e7 8f3e 8e9e 9e3d
000003a0: 6af6 c2ba 91a4 af3c 59e4 103e 25fe ddbd
000003b0: cbf7 1abd e525 0d3e ab40 373e 12ac 8fbc
000003c0: 1a90 07bd 180b 48bc d53a 4dbd c384 49be
000003d0: 859b b4be dd82 a0be 7ecf 2abe c15a a4bd
000003e0: 9a69 70be 620e 023e 0684 283e 2759 863d
000003f0: 4b6b c1bc 38ba c8bc 556b c53d 5c20 9a3d
0.21466564 0.17368278 -0.08749276 0.118799284 0.19841267 0.045415837 0.10467178 0.05001979
-0.2452917 -0.0065285573 -0.16484678 -0.031569667 0.013889202 -0.26693296 -0.19919856 0.2787293
0.00093990134 0.17643921 -0.314115 -0.036893092 0.010084289 -0.32166725 -0.019752717 0.07816753
-0.10456632 0.15508248 0.25669178 0.20358175 0.23772705 0.20597513 0.13723443 0.26587158
0.2647985 0.12798232 0.20971535 0.24630913 0.031564422 0.14455363 0.24514046 0.2431796
0.051889602 0.16981314 0.07565853 0.047483943 0.05067783 -0.09057107 -0.23447852 -0.051120594
0.03732959 -0.13875847 -0.05736117 0.17945051 0.10124619 -0.1516922 -0.17755356 -0.30750036
-0.12490686 -0.15774833 -0.06182402 -0.10070784 -0.25082612 -0.2670737 -0.07033159 0.07626836
-0.15230697 -0.34092382 0.25951797 -0.018869007 -0.24194574 -0.035612106 -0.28909788 -0.4130417
-0.36704433 -0.20760576 -0.08436643 -0.48686254 -0.30876115 -0.028614962 -0.09555675 -0.16835624
-0.19129713 0.011028249 0.08078313 -0.06274038 0.074782275 0.15033235 0.14722927 0.057449274
0.07723605 -0.011455735 -0.17183226 -0.11947604 0.13213684 0.085698396 -0.073861666 0.14756411
-0.02442394 0.04260134 0.09659059 -0.13971347 0.14235575 -0.06760946 0.041996676 0.14860986
0.058901984 0.14273642 -0.0075092623 0.19408172 0.019237097 0.15166298 0.19908659 0.10033328
0.06722787 -0.04273098 -0.10638976 0.14864 0.2969129 -0.14814308 -0.20944543 0.021926796
-0.27053264 -0.14236645 -0.29025736 -0.22002737 0.074615344 0.16365656 0.07378971 -0.19478106
-0.2731823 0.0477776 0.095613785 0.017162042 0.14770257 0.033921674 0.092660375 0.1249453
0.08426414 0.05572827 -0.020906935 -0.024333883 0.07513782 -0.19301315 -0.20107517 -0.03725204
-0.07627537 0.12402035 0.08461657 -0.24056263 -0.34244186 -0.23792346 0.13161562 0.06717675
0.026033683 -0.14165035 0.1474941 -0.043648824 0.2709727 0.15217938 0.15644108 0.24486618
0.1678099 0.045966566 -0.13104388 0.0028726016 -0.24794796 -0.16990931 -0.1328167 -0.03398012
0.3068242 0.15762971 0.21923025 -0.3998154 -0.37656853 -0.21975723 -0.13307495 -0.18532588
-0.11634627 0.0066667753 0.022465305 0.15306695 -0.093352444 -0.0131427 -0.047350515 0.0068460796
0.15493953 0.08754443 0.020525042 0.17304046 0.046283837 0.0023525197 -0.2194325 -0.064015724
-0.30213815 -0.19694875 -0.31253067 -0.0035873617 0.055340335 0.0671924 0.088032104 -0.019226372
0.07539648 0.2730326 0.4444294 0.30540332 -0.18573399 -0.34896225 -0.1901444 0.106422596
0.2214293 0.2325754 0.077449046 0.12501791 0.31354672 -0.03487837 0.10054502 0.18018061
0.087821394 0.040858332 0.043812122 -0.039967865 0.17346492 0.15450783 0.18648495 0.171973
0.08151257 -0.15247765 -0.20072703 -0.3329211 0.075893044 0.25725937 0.28106228 0.07745086
-0.0014874463 0.021440776 0.14149608 -0.1083949 -0.03783397 0.13783987 0.17895763 -0.017538104
-0.03309641 -0.012209676 -0.050104935 -0.19679551 -0.35274902 -0.3134984 -0.16680714 -0.080251224
-0.23477784 0.12700799 0.16456613 0.06559973 -0.023610732 -0.024502859 0.096396126 0.07525703

conv3.bias f4 [32]
00000000: 5ae9 a7be 5609 15be b5be 55bd e787 9f3d
00000010: 34c4 08bf 0abc 02bf d914 79be 4ec3 79be
00000020: c69e a0bd fea0 9cbd d0b8 a1be 6eb3 08bf
00000030: 5b7a a6be 64bc 2ebd 547a 97be 27d0 e0be
00000040: 5a14 d0be f5af 09bf 9af1 9bbe 7161 993d
00000050: 8ba1 bcbe b58f ebbe 5c3a c0be 30e2 8fbe
00000060: 2939 eebe 4be8 403e 6a89 2dbe 4dc3 44bd
00000070: c10b efbe 6f66 cfbe 022f 28bf 5c5f 59be
-0.3279522 -0.14554343 -0.052183826 0.07789593 -0.5342438 -0.51068175 -0.24324359 -0.24390909
-0.07842784 -0.07647894 -0.31586313 -0.5339879 -0.32515225 -0.042660132 -0.29585516 -0.43908808
-0.40640527 -0.53784114 -0.30457765 0.074892886 -0.36841998 -0.46008077 -0.37544525 -0.28102255
-0.46527985 0.18838613 -0.1694695 -0.048037816 -0.46688655 -0.40507838 -0.6569673 -0.21227783

bn3.weight f4 [32]
00000000: f38b 9d3f 7b78 423f 7154 643f b95a 5f3f
00000010: 3a87 443f 1728 5a3f 5e95 633f 1ee7 703f
00000020: 5116 8d3f ec01 713f 4732 7d3f baba 843f
00000030: 83c9 713f 6dce 7b3f 50a0 6c3f 257b 903f
00000040: 1fc4 803f f02c 5f3f 8860 853f 427b 6b3f
00000050: 67ba 973f f460 823f 2663 5e3f 8595 833f
00000060: d13c 913f 76ec 513f 1d92 603f c42c 6e3f
00000070: cdc4 993f ae99 903f ea7b 673f 906b 703f
1.2308334 0.7596509 0.8919135 0.87247807 0.7676884 0.8521742 0.8889979 0.94102657
1.1022435 0.9414356 0.9890484 1.0369484 0.9444811 0.98361856 0.9243212 1.1287581
1.0059851 0.87177944 1.0420084 0.9198495 1.185376 1.0185838 0.8687004 1.0280005
1.1346685 0.82001436 0.8772295 0.93037057 1.2013184 1.1296899 0.9042345 0.9391413

bn3.bias f4 [32]
00000000: 384a 3cbd e3a8 453f fc42 933b a23f 7d3e
00000010: d488 b13e c719 0abf 45b4 f03d cde2 b73e
00000020: 6b7d d43e 5e9f d23d 40ac 9abe 107e e43e
00000030: 9212 243e 3819 f03d 7b1b 153e f20f 803d
00000040: 56a7 6c3e ea07 df3e cc7f 183f 3a9f 8bbc
00000050: 829e cc3d dfa4 863e a75f 27be 103b 233e
00000060: 0656 d63e 1477 ad3e 513c 143c b29f 463e
00000070: 83dd 473e df8e d93e 40e8 8cbd 3c3b 2bbe
-0.045969218 0.77210826 0.004494069 0.24731305 0.34674704 -0.53945583 0.11753134 0.35915223
0.41501936 0.10284303 -0.3020954 0.44627428 0.16022709 0.1172356 0.14561264 0.06253041
0.23110709 0.43560725 0.5957 -0.017043699 0.099911705 0.26297662 -0.16345082 0.159405
0.41862506 0.33879912 0.009047584 0.19396856 0.19518094 0.42491814 -0.06880236 -0.16721815

bn3.running_mean f4 [32]
00000000: 608d 3f3f 118b 333f e151 123f 506f e13e
00000010: a0e8 7c3f 56c8 8d3f 070e 153f 1f50 543f
00000020: b30c fb3e 6501 183f a0b5 643f f150 463f
00000030: b263 1b3f 596b 9c3f f5ec 743f 4abf ff3e
00000040: 88c1 3c3f 1bd7 543f 85c9 143f c320 683f
00000050: 55e3 983f 295c c53e 18fa 123f 8caf 1140
00000060: 349e 123f 5a86 463f 0644 3f3f 3d65 833f
00000070: 6b17 c23e d956 5b3f e129 373f 4853 5c3f
0.74825096 0.70134073 0.5715619 0.44030237 0.9879246 1.1076763 0.5822453 0.82934755
0.49033126 0.5937713 0.8933964 0.77467257 0.60699 1.222026 0.9567407 0.4995063
0.73732805 0.83140725 0.58119994 0.9067499 1.1944376 0.38546875 0.5741286 2.2763395
0.5727265 0.77548754 0.7471317 1.026527 0.37908491 0.85679394 0.7154828 0.8606458

bn3.running_var f4 [32]
00000000: ef0d 8240 7812 cd3f 8003 903f 72fd 373f
00000010: 5d47 0e40 c074 df3f b0e7 de3f ba0d 0b40
00000020: 55aa c13f d93d c23f d28b cc3f 08b5 6640
00000030: 60a7 a43f 11a9 2f40 7dd9 e23f 0f18 a33f
00000040: 8a96 1e40 ae84 0640 4671 943f 4cab e33f
00000050: caf9 c340 001b 683f 07c2 c83f e825 8e40
00000060: 41b7 1640 5061 c63f 0967 1740 887d 1140
00000070: a30c 8f3f dd12 3640 7d4c ac3f 391d 1140
4.064201 1.6021261 1.1251068 0.718711 2.2231057 1.7457504 1.7414455 2.1727128
1.5130106 1.5175124 1.598017 3.6047993 1.2863579 2.744694 1.7722622 1.2741717
2.4779382 2.1018481 1.1597068 1.7786651 6.124242 0.906662 1.5684212 4.442127
2.354935 1.5498447 2.3656638 2.2732868 1.1175731 2.8449013 1.3460842 2.2674086

conv4.weight f4 [64, 32, 3, 3]
00000000: e58e a43d c24b 11bd 947f 57be 3e2a 8dbd
00000010: 147d cabd 123e 22bd 3e5f e63d 69d9 583d
00000020: 8211 b83d 5fdd cebd 5a4a 2c3d 1c59 3e3d
00000030: e00b 7cbe 6968 f5be 721e 19be e6ec f2bc
00000040: 6701 d9bd aeae 0abe acfd 32bd ab08 94bd
00000050: 2c49 4ebc 46a9 43be 7e0b 69be d02d 01be
00000060: b9c3 4abd b21b bf3d 7166 c93b 3557 3d3e
00000070: 196a 353e 589f 383e 23ec 5bbe 140f f4bd
00000080: 2237 f6bd b15c 4b3d 4075 21bc a4b4 10be
00000090: 77a3 bfbd 01c4 15bb 44eb bcbc e19e d13d
000000a0: 1fe5 15bc d50d 133d e2ff 003d e834 0d3e
000000b0: 1a28 ed3d e352 33be 68e4 37be 7325 e5bd
000000c0: 3524 d7bc 1dfb f1bd 08c8 a13c 84c5 713e
000000d0: 99bd 4d3e 5c68 543e 1271 5c3e a0b6 3f3e
000000e0: a764 233e b9dc a73c 2017 9d3d e03a 25bd
000000f0: f012 1b3e 5129 213e d1e8 2d3e 3dfe 593d
00000100: 2491 d53d 0d81 d63c ce4d a7bc f5a5 8abd
00000110: 7bf9 0f3e ac3f 95be 8e19 35be 8b9f 4abe
00000120: 6108 63be af5a 82be e34b f63d 6752 e13b
00000130: 4e5b 20bd 1f08 063e a6d1 3abe da00 86be
00000140: cc69 2ebe 164c fe3d e8e8 c0bc c97f 953d
00000150: 90a6 1ebe 5c81 a3be 2bc0 aabe 00e5 223e
00000160: 3bba 603e aefc 4d3e 35f8 d53c 09ea 733d
00000170: 8ca6 0f3e 4dde 12bc f0ba f5bd 9223 27be
00000180: 6273 de3c 4316 b13a 5c48 c73d 3d3e 66be
00000190: b88a 6bbe 8fb3 39be 6e51 7bbd 520e 52bd
000001a0: 793d b4bd 1f34 2abe 335c 92be 3f04 53be
000001b0: a42b cc3d 5a1f 49bc f840 2d3c 03bf f0bc
000001c0: 3b3c 4d3c b84d 7b3c 44e1 ea3c f81b f4bc
000001d0: 2757 4ebc 4406 2dbe 27c9 cfbd 0bf0 afbd
000001e0: 5040 0fbe d086 553c 9234 7b3d 707f 5fbe
000001f0: 490f 59be 70c3 17be 91ae 6bbb 2104 33bd
00000200: 51a2 ff3b ae1c 263e 5924 803d afe0 a73d
00000210: e841 883c c785 74bd a080 5fbc 02b9 91bd
00000220: 74c4 f7bd 7240 11be 97c5 3b3d 74d2 053e
00000230: 1fe9 cd3d e046 89bd 6255 14be 564b 45be
00000240: e8b3 24be 5de0 66be d330 08bd 1e95 693d
00000250: 9959 4d3e 62f6 383e 1608 6bbd 0e1a 48bc
00000260: 0b3b 09be d445 2bbe 889b 9ebe 7114 43be
00000270: c974 55be 98ab 2fbe b8d6 4bbe a0ce 26be
00000280: 6b34 9abc 2b94 8ebc 120c 333e babe 82bd
00000290: 17cf 953d 45c2 bc3d fd24 623d dbba 5d3e
000002a0: f91f 86bd 6774 92bd 42dd 19be 51ee 823d
000002b0: b6ad 033d 31fe 803d 9281 bc3d 05b9 bd3d
000002c0: 6315 dc3d 2bb5 d43c 26da 433d f09f 7bbd
000002d0: b97e af3c 6071 383e c255 113e 201f 133e
000002e0: c39c 493e a667 573e dc2f d7bc d442 df3d
000002f0: 9134 e33d 0f40 553e 8111 733d f7d0 01bd
00000300: 8c85 1dbe 0e0a f4bd 0602 37be 2cbd 9f3c
00000310: 15f3 a2bd dade 65bd f777 0c3c abbe 56bd
00000320: 5ffb 66bd ff77 31be 02ce 78be 537e a7be
00000330: 766c d13c 6f5e 493d d1b0 3ebd f090 cc3b
00000340: 4c7f 1bbe 9988 6dbc a0ec 433e f7c5 133e
00000350: 985e 253e d3eb 13bf dff1 00bf c74f 0abf
00000360: c57e 583c e4b7 b43c 0b6b 89bd 5af8 173e
00000370: a87d 3b3e f041 123e a71e e43c 1384 25bd
00000380: 1cf2 a7bd 92c9 673d 2eb0 503e 0a7d 373e
00000390: f362 f7bd 7eda febd b0fd b2bd 46c8 86bc
000003a0: c4f2 d33c ce5f c73d 86a2 02be 5559 c7bc
000003b0: 1d4f 00be 5d32 613e 65fd 983d 239e 2d3d
000003c0: 8fce 19be c4ba 05be dc1d c1bd de0c 4d3d
000003d0: c496 e1bc 96e1 81bd 9698 313d 2b99 833d
000003e0: 32eb bbbd f14c a8bd 540f 853c 8463 9ebd
000003f0: aa2e 71be e035 dfbd b10a bdbd 3344 8dbb
0.080350675 -0.03547264 -0.21044761 -0.06892823 -0.09887138 -0.039609976 0.11248635 0.052941713
0.08987714 -0.10100817 0.042063095 0.0464717 -0.24613905 -0.4793122 -0.1495302 -0.029653978
-0.105959706 -0.13543198 -0.04369895 -0.07228216 -0.012590688 -0.19107541 -0.2275829 -0.12615132
-0.049503062 0.09331454 0.006146245 0.18490298 0.17716254 0.18029535 -0.21476798 -0.119169384
-0.120222345 0.049648944 -0.009854615 -0.14131409 -0.0935735 -0.0022852423 -0.023061402 0.10235382
-0.009148865 0.035901863 0.03149403 0.13789713 0.115799144 -0.17512088 -0.17958224 -0.111887835
-0.026262382 -0.11815474 0.019748703 0.23610502 0.20091857 0.20742935 0.21527508 0.1872201
0.15956365 0.020490991 0.07670426 -0.04033935 0.15143943 0.15738417 0.16983344 0.053220976
0.10428074 0.026184583 -0.020422842 -0.06769935 0.14060013 -0.2915014 -0.1768553 -0.19787423
-0.22171165 -0.2545981 0.12026193 0.006876278 -0.039149575 0.13089035 -0.18244037 -0.26172525
-0.17032546 0.12416856 -0.023548558 0.07299764 -0.15493226 -0.3193463 -0.33349738 0.15907669
0.21946041 0.20115921 0.02611933 0.059549365 0.14028376 -0.008964133 -0.11998546 -0.16322163
0.027154628 0.0013510663 0.09730598 -0.2248468 -0.23002136 -0.18134902 -0.061356954 -0.05128319
-0.088007875 -0.16621445 -0.28585967 -0.20607089 0.09969261 -0.012275541 0.010574572 -0.029387956
0.012526567 0.015338354 0.028671868 -0.029798493 -0.012594021 -0.16896921 -0.10145789 -0.085907064
-0.13989377 0.01303263 0.06132943 -0.21825957 -0.21197237 -0.14820647 -0.0035962204 -0.04370511
0.007801332 0.16221878 0.06256933 0.08197152 0.016632989 -0.059697893 -0.013641506 -0.071153656
-0.12098017 -0.1418474 0.045842733 0.13068563 0.1005423 -0.067029715 -0.14485696 -0.1926702
-0.16084254 -0.22546525 -0.033249687 0.057026975 0.2005371 0.18062738 -0.05738076 -0.012213243
-0.1340143 -0.16725856 -0.30978036 -0.19050767 -0.20845331 -0.17155302 -0.19906127 -0.16289759
-0.018823823 -0.017404636 0.17485073 -0.063840345 0.0731489 0.092167415 0.055211056 0.21653311
-0.06549067 -0.07151108 -0.1502581 0.063931115 0.032148086 0.06298483 0.09204401 0.09263805
0.10746267 0.025965294 0.047815464 -0.061431825 0.02142273 0.18011999 0.1419287 0.14367342
0.19688706 0.21035632 -0.026267938 0.10901418 0.110940106 0.20825218 0.059342865 -0.031693425
-0.15382975 -0.1191598 -0.17871866 0.019499384 -0.079565205 -0.05612073 0.008573524 -0.05242793
-0.05639207 -0.17330931 -0.24297336 -0.32713565 0.025564414 0.049162325 -0.046555344 0.006242864
-0.15185279 -0.014497899 0.19133234 0.14430986 0.16149366 -0.57781714 -0.50369066 -0.5402798
0.013213818 0.022060342 -0.0670987 0.14840832 0.18309653 0.14282966 0.027846647 -0.04040916
-0.082004756 0.056588717 0.20379707 0.17918792 -0.1207942 -0.12444018 -0.08739793 -0.01645292
0.025872596 0.0973507 -0.1275731 -0.024334589 -0.1253018 0.21991868 0.07470206 0.04238714
-0.15020202 -0.13059527 -0.09429523 0.0500611 -0.027537711 -0.06341855 0.043358408 0.06425699
-0.09175719 -0.082178004 0.01624266 -0.07733825 -0.23552957 -0.10898948 -0.09230555 -0.0043111085

conv4.bias f4 [64]
00000000: 35c8 acbd 8b57 9e3e 89a5 3ebe 97f1 6dbe
00000010: 45ea 2ebe a0ec b6be 80b5 dfbe c026 09be
00000020: e0a1 bfbe 8fde 1abe 033c a3be 88da a2be
00000030: 0f9f fc3d a16b b4bd 7420 8fbc 5b41 553d
00000040: 8d12 2cbf bc99 53be f2cc 40be e9b9 83be
00000050: 73be d6be 4fe2 0b3e dc07 a5be 548a debe
00000060: 24d5 25be 5042 01bf b04c 06bf bbd8 5a3e
00000070: ccb2 ce3e c017 3ebe b09b e83d 319d 02bf
00000080: 8e19 89be 782c 50be e4f7 07bd 3922 69be
00000090: aca6 97bd c46d 44be 864e 1dbe 811e 58bd
000000a0: de95 0cbf 60c1 643d e7e0 57bd e500 f93d
000000b0: 077b debe 904c 42bd 25e1 223d 6ff0 08bf
000000c0: 83c2 f4bd 682e 983d 02a9 1fbe 2607 32bd
000000d0: 4ee0 90be e078 8e3b 5f20 803e 406a d7bd
000000e0: 6bbe 55be 689f dabe 8644 12be 5921 423d
000000f0: 9562 cdbe 636a b1be 4536 2bbe 3066 81be
-0.08436624 0.30926165 -0.18617834 -0.2323669 -0.17081554 -0.35727406 -0.4369316 -0.13393688
-0.37428188 -0.15123962 -0.31881723 -0.3180735 0.123350255 -0.08809591 -0.01747153 0.05206428
-0.67215806 -0.20664114 -0.1882818 -0.25727776 -0.41942176 0.13660549 -0.3223256 -0.4346491
-0.16194588 -0.5049181 -0.52460766 0.21371739 0.40370786 -0.18563747 0.1135782 -0.51021105
-0.2677731 -0.20329463 -0.03319539 -0.22766961 -0.07404837 -0.19182497 -0.15361986 -0.052763466
-0.5491618 0.05584848 -0.052704718 0.12158374 -0.43453237 -0.047436297 0.039765496 -0.5349187
-0.11951163 0.07430726 -0.15591815 -0.04346385 -0.2829613 0.0043479055 0.25024697 -0.105183125
-0.2087342 -0.42699742 -0.14283952 0.047395084 -0.40114275 -0.3465148 -0.16719921 -0.25273275

bn4.weight f4 [64]
00000000: 7ad4 5d40 bf7c 6740 bf8e 5e40 9f85 8340
00000010: 6d43 8140 0975 5c40 9561 6540 0951 5f40
00000020: 2f27 8e40 2e59 8140 da86 8440 f073 9640
00000030: c156 6040 832c 7e40 f5ea 3640 6713 5d40
00000040: 1041 8b40 b466 7a40 49b4 8440 49b8 8d40
00000050: f755 4840 936d 4a40 81ad 7b40 96a1 7540
00000060: 0edc 7040 8ca7 5840 4f3f 9040 344e 7540
00000070: 781c 5040 a557 6c40 fda5 8340 47b8 6d40
00000080: 566c 7040 14f1 6940 057e 7940 4e3f 7a40
00000090: 16ca 8640 15d4 5f40 fa66 5840 075d 5e40
000000a0: d35f 8c40 dc50 6e40 a932 5140 10a8 8140
000000b0: 7b86 7340 5b14 7840 2780 7140 b8bf 8040
000000c0: ceb4 6140 5b61 4040 8256 6940 10b2 7c40
000000d0: 8dd8 7e40 b1ee 5b40 855f 7e40 fa22 5540
000000e0: d090 8540 f3cf 5b40 77e5 3240 35e4 7e40
000000f0: 7526 6340 c0df 6b40 42c2 4740 e8eb 8a40
3.4660935 3.616989 3.4774625 4.110061 4.0394807 3.4446433 3.584081 3.489321
4.442283 4.042136 4.1414614 4.7016525 3.505295 3.9714668 2.8580906 3.4543092
4.351692 3.9125185 4.1470075 4.4287457 3.1302469 3.1629379 3.9324648 3.8379874
3.763431 3.3852262 4.507728 3.8328981 3.2517376 3.6928494 4.1140122 3.7143724
3.7566123 3.6553392 3.8983166 3.9101138 4.2121687 3.4973195 3.3812852 3.474428
4.3866973 3.7236853 3.268717 4.0517654 3.805083 3.8762424 3.7734468 4.023403
3.5266604 3.005942 3.645905 3.948368 3.9819672 3.4364436 3.97458 3.3302598
4.1739273 3.4345672 2.7952554 3.9826787 3.5492222 3.6855316 3.1212316 4.341297

bn4.bias f4 [64]
00000000: 6c68 ae3d 1f28 763e 83cf e03e c234 52bd
00000010: a2df 433d 1383 803d c6d4 f83d 7e92 1abe
00000020: 04f8 273e f344 583d 84c5 4dbd d6fb b03e
00000030: 20dc 90be 2db5 f03d 8b02 eabd 6af0 39be
00000040: 0f8e 453d 7cf2 e4be 34ae cb3e 04e1 f93d
00000050: 4ff6 29be ae5f 2ebe 4864 29be ec61 6d3e
00000060: bbe9 203f 70e2 da3e 1901 a4bd 0b24 7e3e
00000070: 5ca3 f7bd e285 09be a712 f63d 2a6a 07be
00000080: 790c d5be 5372 09bd d0f8 393e f26a cc3e
00000090: 2d8d 023e 3f59 b03d a9c4 d3be 76ca 493e
000000a0: 92ef a33e da75 debc 389f 09be 3879 123e
000000b0: 4535 dd3d 79d0 983e 12eb 423d a250 2cbe
000000c0: c376 263e 2f08 893e f3ac b1be fb51 b3ba
000000d0: 104e f7bd fdaf a63e 376f d43d d5b3 943e
000000e0: 87a0 023e 1b9f 153d b03e 0cbe d5f7 0cbe
000000f0: 2cb4 f1bd e92a e7bc b88d 963c 211b ab3d
0.08516011 0.24038742 0.4390832 -0.051319845 0.047820695 0.062750004 0.12149958 -0.15094945
0.16403204 0.05280013 -0.050237194 0.34567136 -0.28292942 0.117533065 -0.11426266 -0.18158117
0.04823118 -0.4471625 0.39781344 0.122011214 -0.16597866 -0.17028686 -0.1654216 0.23181885
0.62856644 0.42750883 -0.08008022 0.24818437 -0.12091705 -0.13429978 0.120152764 -0.13224092
-0.41611078 -0.033556294 0.1816132 0.39925343 0.12749167 0.08610772 -0.41360977 0.19706139
0.32018715 -0.027155805 -0.13439643 0.14304054 0.10801176 0.29846552 0.04758746 -0.16827634
0.16256242 0.26764056 -0.34702262 -0.0013681048 -0.12075436 0.32556143 0.10372775 0.2904345
0.12756549 0.036528688 -0.13695788 -0.13766415 -0.11801943 -0.028218703 0.018378124 0.08354784

bn4.running_mean f4 [64]
00000000: e8e3 903e 783d 793f fdd9 fe3e 5e3d a03e
00000010: 04ed e93e 4246 553e b04f 5e3e c448 ea3e
00000020: 516c a13e f2ce b73e 1dc5 d43e 69c1 ba3e
00000030: f358 f53e da4e 023f 87fb 0040 93b6 bb3e
00000040: 0aa9 b93e 4251 923e 0fb9 a23e f33e 893e
00000050: 85dc 8c3e e23f aa3f d83c bf3e a6df a73e
00000060: 6fc2 203e 484e b53e 2825 7e3e d389 983e
00000070: 29c3 933f 04dc 4a3f 7727 7d3e 262b ed3e
00000080: daeb 0a3f d864 943e abee 0b3f ea3a b73e
00000090: b023 923e 62d2 773e 3614 b13e ea77 e33e
000000a0: 7578 7c3e 94bf 143f cf3d ae3f e420 f33e
000000b0: 9288 633e a561 0a3f 7ce3 2e3f 41f8 2e3f
000000c0: d402 013f d86d 123f 99bb cf3e a576 173f
000000d0: 6578 1b3e 983e 863f 6cb0 ca3e 6113 c33f
000000e0: 13cf d13e cae4 2a3f e528 4f3f ff2d c13e
000000f0: ed71 d13e e4c8 e43e 9c0c 273f f695 2e3e
0.2829888 0.9735942 0.49775687 0.3129682 0.4568864 0.20827582 0.21710086 0.4575864
0.3152795 0.35900074 0.41556635 0.36475685 0.47919425 0.5090157 2.015352 0.3666273
0.3626178 0.2857762 0.31781814 0.2680584 0.27511993 1.3300745 0.37351108 0.32787818
0.1569917 0.35411286 0.24818861 0.29792652 1.1543933 0.7924197 0.24722086 0.46321982
0.5426613 0.28983188 0.54661053 0.35787135 0.28542852 0.24201348 0.34585732 0.44427425
0.24655326 0.58104825 1.3612612 0.4748603 0.22220066 0.54055244 0.68315864 0.68347555
0.5039494 0.5719886 0.40572813 0.5916541 0.15182646 1.0487852 0.39587724 1.5240289
0.40978298 0.66755354 0.80921775 0.37730405 0.4090723 0.44684517 0.65253615 0.17049393

bn4.running_var f4 [64]
00000000: 1169 2a3f 8222 0c40 7f41 7f3f 5d7a 373f
00000010: 2eda 9f3f 9113 de3e 951e 0c3f e244 833f
00000020: 7fc6 763f a63d 5c3f 593a 9c3f 1fa7 9c3f
00000030: 93b6 953f 798f ae3f 8773 6b40 725a 3b3f
00000040: 64b9 a03f a846 423f 83ea 3c3f 9667 2d3f
00000050: 78fe 3c3f 0d31 3640 dc4c 8f3f 0f3b 613f
00000060: 5c7c ab3e 1ef5 553f 568a 4c3f 0d52 283f
00000070: 7148 0840 feeb f23f 85ed f03e 1915 7d3f
00000080: 999c 983f b9a8 273f 0083 903f 06b2 863f
00000090: 0ef5 7e3f 4979 d43e 6344 793f e630 653f
000000a0: 7b10 1c3f 659a a43f 7f7a 2f40 0202 793f
000000b0: 9149 023f 472f 9c3f 87c8 0740 69d5 1540
000000c0: 5568 ab3f 7ad0 b03f b8bb 653f b15d 953f
000000d0: 1cf1 fb3e 1dde 1d40 f512 6a3f 5a01 6540
000000e0: 81f1 8f3f 0df5 9e3f abdf b53f 5312 843f
000000f0: e161 833f 7ba9 8d3f 5738 b93f dd65 ba3e
0.6656657 2.1896062 0.99709314 0.71671087 1.2488458 0.43374303 0.54734164 1.0255396
0.9639663 0.8603157 1.2205306 1.2238501 1.1696342 1.3637534 3.6789262 0.73184884
1.2556577 0.7588906 0.73795336 0.67736185 0.7382579 2.8467438 1.1195331 0.8798074
0.33493316 0.83577144 0.79898584 0.657502 2.1294215 1.8978269 0.47056213 0.9886032
1.192279 0.65491825 1.1289978 1.0523078 0.99592674 0.41498783 0.97369975 0.8952774
0.6096265 1.2859617 2.7418516 0.9726869 0.50893503 1.2201928 2.1216142 2.3411505
1.3391215 1.3813622 0.8973956 1.1669217 0.4920739 2.4666817 0.91435176 3.5782075
1.1245576 1.2418534 1.4208883 1.0318092 1.0264245 1.1067346 1.4470319 0.3640584

lin.weight f4 [50, 64]
00000000: 13d4 33bf c683 0b3f 8b35 d1be f0ee 2a3f
00000010: 360b ad3e 32ee d53c 7860 b43e d0fd 6dbe
00000020: 9d16 953e 8a36 7bbe 53e8 0fbf a026 89be
00000030: dd97 d1bd 1315 8fbf 6301 1abe 0966 14bf
00000040: 4388 acbf 8ca4 193f 4870 8bbe c65d 3f3e
00000050: eacd 2f3e 3f33 87be a7f7 013e 7b21 c0be
00000060: 2359 48bf 9b67 49bd cb30 293f a782 b03e
00000070: c154 b03e 0c4c 033e e004 e9be 8cb1 963e
00000080: b09a b2be 098f 633f 0401 30bf 359e 62bf
00000090: 5862 413f d520 67be 7988 a53c ac46 3abe
000000a0: 679d 13be 3106 5fbe 8efc 0a3e d9d3 13bf
000000b0: c272 e3bc 4f89 71bc a91a 1ebf be3d 07bf
000000c0: 3721 df3d 6eed 00bf 9bae 153f adc6 ce3e
000000d0: 66f4 84bf aa13 34bd 2306 013f 7a88 11bf
000000e0: 4fd9 a63e fe4a debd 7cde 1b3e ce14 3a3f
000000f0: 308d c1be efd6 f0bd b23d b3be f028 ce3e
00000100: 28be 353d c13c 24bc 9922 25be 16c3 42bf
00000110: 99d3 b13e 9a3f 4c3e ccde cbbe 1c61 423e
00000120: f56e a63d dd0b 21bf 3e12 ec3e b206 ae3e
00000130: f780 093f ac15 07bf bd98 1c3e da34 ef3d
00000140: 9218 663f 8fbc 29bf 4556 d93b 42fe 8bbf
00000150: 6c2e d7be 1bbb 893d 9f6d 2c3f 5e48 bdbe
00000160: f258 1abf be19 edbe 4b9d 0cbe 6742 b6be
00000170: 977e 75bc 0083 26bf 9545 5dbe 0380 f73e
00000180: f418 d2be 8ed3 493f 0439 72be 58a6 d03c
00000190: 597d 293f 793c 8ebe 0137 83be 495d 42bf
000001a0: 3d68 90be 65a7 1e3e 82c9 c63d b143 13bf
000001b0: 9fce 123f 1dec b2be 65db 3bbc 331b 03bf
000001c0: bcbf 7abf d99c 123d 9aaf 573f a9bb 353e
000001d0: ea93 e1b9 877f 8c3e 947d 993e 9b40 1a3f
000001e0: f58e 943e 34ab 9e3e 1b5f f73e b97e 343f
000001f0: c84f 253f 70ea e5bd a020 e83b 6e03 4abe
00000200: b0cc 17bf 2132 633e ec2a 9e3d 6894 2e3f
00000210: ca8a a03d 2563 88bf 94f0 a53e fee9 3fbf
00000220: 82e6 cd3e e603 e6be 5332 38bf bc7e f53e
00000230: e6b4 c3be e99b 1ebe 4c81 80be 34ce c23e
00000240: bd82 4c3f 63ba aabe 67df 1e3e d139 9bbe
00000250: fd4f 233e 8fcb 9dbe db73 973d d52a e0be
00000260: 6730 053e c19a 03bf dfa8 3fbf 9109 cbbe
00000270: 8bf6 a5be ba25 39bf b3ac 18bf 85a5 3dbf
00000280: 65ac a93e ea5c eb3e 5367 3b3f 9a46 27be
00000290: 0e62 a6bc 86dc 083f 31c4 7abd c8b4 0e3f
000002a0: 88dc 433f 8b58 f3bd 1317 a1be d2b5 5d3e
000002b0: 1d91 7fbf ff3a 2dbe eff2 49bf 3bd4 5f3c
000002c0: e721 eb3c 8263 debe b3da c0be 0a93 263e
000002d0: 3f10 473d 340b 6a3d 1155 153f 1cf7 9c3c
000002e0: dbf2 f6be 4085 e1bd 481e e6be 86c1 c03e
000002f0: 6d35 6bbe fedb f5be 21a9 1bbf 7430 cbbe
00000300: 3d61 aebe b542 bb3e a855 453f cf96 41be
00000310: 5b96 6dbd 5035 ab3d caf6 263f 4a04 07be
00000320: 7724 cf3e b151 52be ec9b 05be aefe 1e3e
00000330: 45d5 253d 6935 593e 31dc f23e b877 8cbb
00000340: e295 11be 1ccd f6be ae42 98bd b69a e53c
00000350: 2bc3 e43e 8066 093f db16 52bf 4eb5 7fbe
00000360: 1e9f 9abe 0e33 b4be 8870 80be 5577 823e
00000370: 2e17 1dbf 0f0e 8bbe b5db 20be 952a 10bf
00000380: b675 59bd 37dd 413f a6fb 80be f2cb 99bf
00000390: 3780 de3e 4ead 1d3f f6d8 bcbe 5c79 a43e
000003a0: edce 8bbd 7bec 90bd 1ac1 903e 43d6 513e
000003b0: de78 a6be 6254 143f f46a 08bf 9a5d bbbe
000003c0: da7b 0a3e b398 083e 5e5b c7bd 9b48 99be
000003d0: 8d74 2b3f 8643 493e a4fd 1c3f 5883 f53d
000003e0: 191d 5fbe 24a6 acbe 65f4 24bd 5de2 cfbe
000003f0: adc4 253f a560 20bf 6f8a 993e 9b6d 0e3f
-0.70245475 0.54497945 -0.40861163 0.6677084 0.33797616 0.026114557 0.3522985 -0.23241353
0.29118815 -0.24532524 -0.56213874 -0.2678728 -0.10234044 -1.1178306 -0.15039591 -0.57968193
-1.3479084 0.60016704 -0.272341 0.18688115 0.17168394 -0.26406285 0.12692128 -0.37525544
-0.7826101 -0.04917107 0.6609008 0.3447468 0.34439662 0.12821978 -0.45511532 0.29432333
-0.34883642 0.8889013 -0.6875155 -0.88522655 0.75540686 -0.22571118 0.020206677 -0.18191022
-0.14415513 -0.21779706 0.13572904 -0.5774513 -0.027764682 -0.01474221 -0.6175943 -0.52828586
0.10895007 -0.5036229 0.5846955 0.40385953 -1.0387084 -0.043964066 0.5039999 -0.5684887
0.32587668 -0.108541474 0.1522159 0.72687995 -0.3780303 -0.11759745 -0.35008007 0.40265608
0.0443708 -0.0100242505 -0.16126479 -0.7607893 0.3473175 0.19946137 -0.39818418 0.18982357
0.08126632 -0.62908727 0.46107668 0.33989483 0.5371241 -0.52767444 0.1529264 0.116800025
0.8988124 -0.6630334 0.0066325986 -1.0936968 -0.42027605 0.06725141 0.6735477 -0.36969274
-0.6029197 -0.46308702 -0.13731878 -0.35597536 -0.014983795 -0.6504364 -0.21608575 0.48339853
-0.41034663 0.7883843 -0.23654562 0.025469944 0.6620689 -0.27780512 -0.25627902 -0.7592359
-0.28204527 0.15493543 0.09706403 -0.57525164 0.5734653 -0.34945765 -0.011465882 -0.5121338
-0.97948813 0.035794113 0.8425232 0.17747368 -0.0004302555 0.27441046 0.2997862 0.6025483
0.29015318 0.30989993 0.48314747 0.70505863 0.6457486 -0.11226356 0.0070839673 -0.19727871
-0.59296703 0.22187091 0.077230304 0.681952 0.07838972 -1.0655257 0.3241011 -0.7496642
0.40214926 -0.4492485 -0.7195179 0.47948253 -0.38223952 -0.15489163 -0.25098646 0.38047945
0.7988699 -0.33345327 0.15514909 -0.30317548 0.15948482 -0.30819365 0.073951446 -0.43782678
0.13006745 -0.5140801 -0.7486705 -0.39655736 -0.3241466 -0.7232319 -0.5963852 -0.7408069
0.3313934 0.45969325 0.73204535 -0.16335526 -0.020310428 0.5346149 -0.06122226 0.557446
0.7650838 -0.118821226 -0.31462917 0.2165139 -0.998308 -0.16917036 -0.7888631 0.0136614395
0.02870269 -0.43435293 -0.37666854 0.16267028 0.048599478 0.05713959 0.58332926 0.0191608
-0.4823216 -0.110117435 -0.44944978 0.37647647 -0.22969599 -0.48019403 -0.60804945 -0.39685404
-0.34058562 0.3657433 0.77083826 -0.18905185 -0.05800472 0.08359778 0.6522032 -0.1318523
0.40457508 -0.20538975 -0.1304776 0.1552684 0.040486593 0.2121178 0.47433618 -0.0042867325
-0.14217332 -0.4820336 -0.07434593 0.028027873 0.4468015 0.5367203 -0.82066125 -0.24971506
-0.30199522 -0.35195202 -0.25085855 0.25481668 -0.61363494 -0.27159163 -0.15708812 -0.56314975
-0.053090774 0.7572817 -0.25191993 -1.2015364 0.43457195 0.61592567 -0.36884278 0.3212384
-0.06826577 -0.07076355 0.28272325 0.2049189 -0.3251409 0.5794126 -0.532882 -0.3659485
0.13523808 0.133395 -0.09734224 -0.29938206 0.6697472 0.19654664 0.61324525 0.119879425
-0.21788444 -0.33720505 -0.040272135 -0.4060239 0.6475323 -0.6264747 0.2998843 0.55635995

lin.bias f4 [50]
00000000: 4871 dfbd cc73 ccbc d0c8 403e d425 163e
00000010: 7f75 16be a0a6 dc3d e76b 94bd 2ee1 cb3e
00000020: e871 573e 42ab 583d 8997 39be 004c 23bd
00000030: 485e 6fbe 85e8 5cbe e795 0c3e 6cf9 603d
00000040: adc0 eb3c ac56 1fbe dccc 953e 5a1b c9bd
00000050: 92d0 83bd e89b c5be c2fb 49bd 21be 24be
00000060: 1b96 f43d 8640 b8be b6ab 013f a9ea 18be
00000070: ae9e 00be c3bc c83e 9265 babe 23b0 ab3d
00000080: d1d6 d1bd 871c 293f fab3 45be cb16 0e3e
00000090: 4c2f 78be adff c8be b7fb 09be 39d9 fcbb
000000a0: 5919 35be 3902 f9bc d0a4 60be c757 a03e
000000b0: 0dfd 133e 33ca 65bd 55a6 9bbe 15ff 543e
000000c0: b93d aebc 060e 80be
-0.109102786 -0.02495756 0.18826604 0.14662868 -0.14693259 0.10773969 -0.07247143 0.39820236
0.21039546 0.0528977 -0.18124212 -0.0398674 -0.23375809 -0.21573074 0.13729058 0.054925367
0.028778398 -0.15560406 0.29257858 -0.0981967 -0.06436266 -0.3859551 -0.04931236 -0.16088153
0.11942693 -0.35986727 0.50652635 -0.14933266 -0.12560531 0.39206514 -0.36405617 0.08383205
-0.10246051 0.66059154 -0.19306937 0.13875882 -0.24236792 -0.39257565 -0.13474928 -0.0077163246
-0.1768545 -0.030396568 -0.21937871 0.3131697 0.14452 -0.056101035 -0.3040034 0.20800431
-0.021269666 -0.250107

conv.0.weight f4 [8, 1, 5, 5]
00000000: 6069 c7bd eb7a a2be b213 84be 8dcc 62be
00000010: 4f7c ff3d da76 43bd 55eb 15bf 92f0 debe
00000020: 5688 373e bedd f4bc bd8d b7bd 6830 653e
00000030: ffb2 2fbe 46b9 903d 0238 15bf 99ad 113f
00000040: 667c 2cbe 68c1 f53e cb36 9ebd 4c09 0abe
00000050: bfec 733e d271 8c3e 9829 303f ba81 de3e
00000060: 2ecd 943e e05d 1e3e 9119 85bc a096 143e
00000070: 5ae5 3dbc 5744 d8be d6d3 053e aa51 823d
00000080: 93da 343e 150a b83e 1d3c 373d 73f7 2a3d
00000090: f0f7 d4bc 000d 383e bc81 debe 15ce 003f
000000a0: d956 46be 7c7a 90be 3acc 78be 2beb 99be
000000b0: 70a5 6bbf 0d64 77be f27d ea3e 9cd9 b93e
000000c0: 466f f2bd 7f21 18bf 4b25 a9be 1c70 36be
000000d0: 06dd 91be 67ec 8b3e 88bf d43e 25e9 65be
000000e0: a8cd 04bf 62d0 13bd adb7 973e 006b 1c3e
000000f0: 603b 623d ef27 90be 7c8e 2d3f c71c 853e
00000100: f7f7 1bbf ffdb cb3e 3f20 b8be b486 d8bd
00000110: bd6f 6c3e 4389 e4bd c809 51bd a6f7 59be
00000120: ab3c 9fbe 6d07 b33e bd6b 133f a75e 82be
00000130: e449 b53e eadf c2be 72d3 913e b66b 8b3c
00000140: 60cd b53e 3525 323e eb7f 0fbe 3a87 04be
00000150: 6c30 86be 8a67 eb3e 92a7 8dbd cc3e cfbd
00000160: a83c 833c 75b8 96be 8e15 543f 68e6 2fbe
00000170: e112 e3bd 7819 4ebe 0b0a 87be 48e6 693e
00000180: 9f6c 4ebe 9459 7dbe 0bd7 bdba 56b4 b83d
00000190: 6b29 333e dec8 b13d 75b4 4a3e a0ec 63be
000001a0: 2906 9e3d 7854 f4bd d15f 05be 548e 38bd
000001b0: f9d8 4f3e 833a 913d a996 8d3d 9a25 9d3e
000001c0: 3156 f83e eff5 ae3e 6b9c 193e 511a 013e
000001d0: 86e8 85be 922d ee3d 31fe fcbc f210 18be
000001e0: a7d3 e4be ab4d 80bd d6b9 11bf 841d 7dbe
000001f0: f591 9e3e c8fa 733e 9b2f b73e 4b7b d03d
00000200: c409 27bd a7b7 a1be 218f f13e 3d39 cdbc
00000210: 16db 563d 1ff1 d43d 95e7 cebe 28d8 24bd
00000220: 478e 00bd 1c40 c0b9 e947 90bd 661b 8abe
00000230: 9f13 443e 4e14 0a3e 7a02 ca3d f07d d0bd
00000240: 6c50 8fbe 3a88 7a3e 87fa 46be 1339 a83e
00000250: 37e4 383e a3d6 93be a9fd b3be cb96 dcbe
00000260: 3d34 36be 8d5a a03e cb07 8a3e 4670 29be
00000270: e02d 553e f0c5 b23e 6e3a 5b3f 3019 2d3f
00000280: 9c34 953d cc15 bdbe adbd e7be 023a c1bb
00000290: 851c aa3e f47e a6be d5dc 9cbe 9513 923e
000002a0: 1f25 c33e 2d11 08bf 217e a5be 6188 7f3e
000002b0: 10f1 09be 9046 6bbe fa94 b93e dc14 a7be
000002c0: b1fe a0be 1d79 853e 5bb4 4ebc 4585 babe
000002d0: 82e4 aebe 9ca8 2fbf 19b8 ed3e 1018 94bd
000002e0: 0a16 44be 3739 82be 41d0 c03e abd7 ebbd
000002f0: 7528 bfbd a896 8ebe 6977 463e da34 d23d
00000300: 964f 273f 2997 3abe 3718 013f 1c69 96be
00000310: bade 4abe 97b2 ae3e 6ddf 72bd 8e45 4cbe
-0.097368956 -0.31734404 -0.25796276 -0.22148342 0.12474882 -0.047720768 -0.58562213 -0.43542916
0.17923102 -0.029890891 -0.08962581 0.22381747 -0.17158125 0.07066588 -0.58288586 0.56905514
-0.16844329 0.4799912 -0.07725295 -0.13480109 0.2382078 0.27430588 0.6881347 0.4345835
0.2906279 0.15465498 -0.016247543 0.14510584 -0.011590326 -0.4223964 0.1306909 0.063632324
0.17661504 0.35945192 0.044735063 0.041739892 -0.025997132 0.17973709 -0.43458354 0.50314456
-0.19369067 -0.28218448 -0.24296656 -0.3006223 -0.9204931 -0.2415926 0.45799214 0.36298835
-0.1183763 -0.5942611 -0.33036265 -0.17816204 -0.2848894 0.27328798 0.41552377 -0.22452219
-0.51876307 -0.0360874 0.2963232 0.15275192 0.055232406 -0.28155467 0.6779554 0.25998518
-0.6092524 0.3981628 -0.35962102 -0.105725676 0.230895 -0.11158993 -0.05103472 -0.21285877
-0.31100973 0.34966603 0.5758627 -0.2546284 0.35407937 -0.38061458 0.28481632 0.017019134
0.3550825 0.17397006 -0.1401364 -0.1294221 -0.26208818 0.45977432 -0.06916727 -0.101193994
0.016020134 -0.29437605 0.8284539 -0.17177737 -0.11087585 -0.20126903 -0.2637485 0.22841752
-0.20158623 -0.24741203 -0.0014483643 0.09018771 0.17496268 0.086808905 0.19795401 -0.22258234
0.07716019 -0.11930174 -0.13024832 -0.04505761 0.20297612 0.07091238 0.06913502 0.3069275
0.4850326 0.34172007 0.15001075 0.12607695 -0.26153964 0.116297856 -0.030882927 -0.14850214
-0.44692728 -0.06264814 -0.5692419 -0.2471829 0.3097073 0.23826134 0.35778508 0.10179766
-0.040780798 -0.31585428 0.4717951 -0.025051707 0.05245503 0.10397553 -0.40411058 -0.040245205
-0.031385686 -0.0003666886 -0.07044966 -0.26974028 0.1914811 0.13484308 0.098637536 -0.10180271
-0.27991045 0.24466029 -0.19431506 0.32856044 0.18055807 -0.28874692 -0.35154465 -0.43083796
-0.17793365 0.31319085 0.2695907 -0.16546735 0.20818281 0.3491664 0.8563603 0.6761656
0.07285425 -0.36930692 -0.452619 -0.0058968076 0.33224884 -0.32518733 -0.3063723 0.28530565
0.3811426 -0.5315121 -0.3232279 0.24954368 -0.13470864 -0.22976136 0.36246473 -0.32633102
-0.31444314 0.26068965 -0.012616242 -0.36429802 -0.34158713 -0.6861665 0.46429518 -0.07231152
-0.19149032 -0.25434276 0.37658885 -0.11515745 -0.093338884 -0.27849317 0.19381489 0.10263987
0.65355814 -0.18221726 0.50427574 -0.29377067 -0.19811526 0.34120628 -0.059295107 -0.19948408

conv.0.bias f4 [8]
00000000: 6a20 353e 06fa 81be 1906 b83e 98a0 d8bd
00000010: 76dd 8e3e a760 7b3e 26e2 adbe 3209 553e
0.17688146 -0.25386065 0.35942152 -0.10577506 0.27903336 0.24548589 -0.339616 0.20804289

conv.2.weight f4 [8]
00000000: e8f8 923f e73a 453f 899a 833f 66f2 9a3f
00000010: 8ab7 493f 138d 843f cdb3 a43f 0494 3a3f
1.148221 0.77043 1.0281535 1.2105224 0.78795683 1.0355552 1.2867371 0.72882104

conv.2.bias f4 [8]
00000000: ef41 f73d 4491 87bd a96c f838 0ef0 9fbc
00000010: 0fbb b6be a936 25be cec1 ca3c 0308 a33e
0.12073123 -0.06619504 0.00011845801 -0.019523647 -0.3568959 -0.16134132 0.024750616 0.3184205
