cnn-200.pt (torch, 124107 bytes, 50 tensors)

conv1.weight f4 [8, 1, 5, 5]
-0.3673831 0.49734488 0.12364114 0.47869137 0.68293464 -0.37902993 -0.19460209 0.30771756
0.10889996 0.26147646 -0.22914538 0.09466085 -0.2892635 -0.21901514 -0.091090836 -0.34623152
0.10257423 0.15561233 0.3011399 -0.02154032 0.07180022 0.0010211744 0.33933538 0.12334729
-0.18609764 0.11668217 0.46652663 0.46125463 0.6042847 0.25305802 0.14254509 -0.0072731827
0.39319766 0.31880376 0.57155794 -0.5338483 -0.2863922 -0.10098985 -0.2565058 -0.2015741
-0.035713624 0.095508695 -0.6302714 -0.11983538 -0.014480412 0.20645963 -0.16075413 0.0775677
-0.57729805 -0.240969 -0.4591319 -0.36941987 -0.027826967 -0.75942665 -0.108325616 -0.31393084
0.24578816 0.10051087 -0.19299507 0.212528 0.1916758 -0.1479105 0.050379355 0.36686313
0.1629469 0.14170839 0.4284077 -0.14225915 0.1371876 -0.17935477 0.3652391 0.15328385
0.42248204 0.35586786 0.30724087 0.2538076 -0.24719964 0.07770112 -0.26243678 0.03025073
-0.18052709 -0.14934243 -0.10877025 0.3584915 0.2713876 0.28089845 0.071866795 -0.046761613
0.9360432 0.24588495 0.24351129 0.001917315 -0.33457938 0.7730533 -0.013492653 -0.27888167
0.4185342 0.32682014 -0.016390001 0.58225274 0.18433724 0.4880053 -0.13081217 -0.48969457
-0.0980148 -0.020333376 0.33428875 0.041723754 -0.2674614 0.1094235 0.10481055 -0.06526893
0.20898022 -0.11944292 -0.15716891 0.17469442 -0.12589999 -0.27378282 -0.3773454 0.11543926
0.41905016 -0.020251717 -0.2901207 0.1069362 -0.1388194 -0.048699066 -0.27559763 -0.109296724
-0.13381906 0.62030613 -0.017889608 0.16746151 -0.61579174 0.49033704 0.014839459 -0.2695268
-0.2210304 0.10183222 0.37316266 0.5697971 -0.24842353 -0.19091156 -0.341386 -0.012409996
0.6911709 -0.22147378 -0.8932822 0.12806681 0.070925884 0.3489617 -0.17991912 0.23014495
0.12407321 0.19489235 -0.12069154 0.039842423 -0.4436288 -0.06787143 -0.21596108 -0.07213315
-0.29530552 0.09759969 -0.08944911 -0.13302714 -0.7674262 0.23018208 -0.3572284 0.13583583
-0.08644831 0.64485425 0.23107362 0.6261194 0.08724761 0.022875877 0.13950028 0.11724593
0.026538929 -0.6599082 -0.13396235 -0.17176601 -0.16439375 -0.3412449 -0.11170514 -0.20764668
-0.14842455 -0.51503867 -0.33534536 0.08147197 0.015264245 -0.3331183 -0.0655711 -0.16948134
-0.10618331 0.06468898 0.18211192 0.4842774 0.33908558 -0.09466859 0.09851288 0.31883436
00000000: a319 bcbe fda3 fe3e 9137 fd3d 0917 f53e
00000010: ced4 2e3f 3610 c2be c545 47be 288d 9d3e
00000020: f106 df3d 3ee0 853e 16a5 6abe 8cdd c13d
00000030: 581a 94be 8145 60be d58d babd 4245 b1be
00000040: 7012 d23d d758 1f3e 022f 9a3e 5375 b0bc
00000050: fe0b 933d edd8 853a 5ebd ad3e 819d fc3d
00000060: 6190 3ebe 10f7 ee3d 94dc ee3e 9129 ec3e
00000070: 67b2 1a3f d290 813e 57f7 113e e153 eebb
00000080: 3451 c93e 3f3a a33e 9f51 123f 48aa 08bf
00000090: 00a2 92be c4d3 cebd ba54 83be 7169 4ebe
000000a0: 7348 12bd 109a c33d 7759 21bf 406c f5bd
000000b0: 403f 6dbc 276a 533e bb9c 24be d0db 9e3d
000000c0: cec9 13bf 94c0 76be 5613 ebbe 9a24 bdbe
000000d0: 61f5 e3bc c969 42bf d2d9 ddbd 8bbb a0be
000000e0: e4af 7b3e a5d8 cd3d 80a0 45be f1a0 593e
000000f0: a946 443e da75 17be 955a 4e3d 7cd5 bb3e
00000100: 8ddb 263e 011c 113e 4158 db3e 62ac 11be
00000110: e87a 0c3e c7a8 37be 9f00 bb3e 71f6 1c3e
00000120: 914f d83e 5034 b63e ad4e 9d3e 12f3 813e
00000130: e721 7dbe c421 9f3d 1d5e 86be 61d0 f73c
00000140: 18dc 38be 39ed 18be f0c2 debd 338c b73e
00000150: 51f3 8a3e ecd1 8f3e e62e 933d 1b89 3fbd
00000160: 87a0 6f3f 44c9 7b3e 065b 793e 6a4e fb3a
00000170: fd4d abbe d2e6 453f 4a10 5dbc 94c9 8ebe
00000180: 1d4a d63e f854 a73e 5344 86bc 840e 153f
00000190: e7c2 3c3e d5db f93e a0f3 05be 3fb9 fabe
000001a0: fcbb c8bd 2e92 a6bc e527 ab3e 87e6 2a3d
000001b0: b3f0 88be 6e19 e03d eaa6 d63d b7ab 85bd
000001c0: e9fe 553e 7d9e f4bd e3f0 20be 18e3 323e
000001d0: edeb 00be 432d 8cbe 6b33 c1be 6b6b ec3d
000001e0: be8d d63e eee6 a5bc b38a 94be 5e01 db3d
000001f0: ac26 0ebe ac78 47bd 221b 8dbe f6d6 dfbd
00000200: dd07 09be 62cc 1e3f 3a8d 92bc 087b 2b3e
00000210: 87a4 1dbf 750d fb3e 3421 733c 6bff 89be
00000220: cb55 62be 698d d03d 2d0f bf3e 39de 113f
00000230: bd62 7ebe 527e 43be 25ca aebe 4c53 4bbc
00000240: 93f0 303f 06ca 62be 24ae 64bf f223 033e
00000250: 9741 913d 1cab b23e b83c 38be 1eab 6b3e
00000260: 181a fe3d dc91 473e 202d f7bd cf31 233d
00000270: 5023 e3be 2d00 8bbd e724 5dbe 8cba 93bd
00000280: 4932 97be 59e2 c73d 1831 b7bd 4438 08be
00000290: 0b76 44bf dab4 6b3e a4e6 b6be 8c18 0b3e
000002a0: d00b b1bd 2b15 253f 909e 6c3e 5c49 203f
000002b0: e0ae b23d 3166 bb3c 29d9 0e3e a21e f03d
000002c0: 2b68 d93c beef 28bf 6d2d 09be 6ee3 2fbe
000002d0: d656 28be a7b7 aebe aac5 e4bd 55a1 54be
000002e0: 9bfc 17be 93d9 03bf 63b2 abbe c7da a63d
000002f0: e216 7a3c 7b8e aabe 244a 86bd 848c 2dbe
00000300: a376 d9bd a87b 843d 8c7b 3a3e 35f3 f73e
00000310: a09c ad3e 9be1 c1bd 1fc1 c93d 423e a33e

conv1.bias f4 [8]
0.15357575 -0.06755398 0.08391501 0.31036568 0.048810158 -0.12480906 -0.035916716 0.17080583
00000000: f642 1d3e be59 8abd a2db ab3d 40e8 9e3e
00000010: 29ed 473d e49b ffbd 681d 13bd b9e7 2e3e

bn1.weight f4 [8]
0.75974494 1.1048546 0.9702142 0.9091893 0.9444767 1.2893343 0.8845982 1.0512826
00000000: a57e 423f e06b 8d3f f55f 783f a1c0 683f
00000010: 3ac9 713f e808 a53f 0775 623f 6e90 863f

bn1.bias f4 [8]
-0.14420947 0.04763604 -0.01846008 -0.2813746 -0.074706994 -0.021126477 -0.029713936 -0.09175398
00000000: a6ab 13be 021e 433d 9839 97bc 5510 90be
00000010: fbff 98bd 6f11 adbc a46a f3bc 83e9 bbbd

bn1.running_mean f4 [8]
0.6537058 0.44044837 0.4953803 1.4668486 0.21306874 0.17863058 0.14259256 0.81299573
00000000: 4359 273f 7382 e13e 7da2 fd3e b2c1 bb3f
00000010: b12e 5a3e efea 363e c903 123e 7d20 503f

bn1.running_var f4 [8]
0.69673675 0.56046546 0.619175 3.4654667 0.0896054 0.28859022 0.1323118 1.3704109
00000000: 575d 323f aa7a 0f3f 4182 1e3f 35ca 5d40
00000010: 0983 b73d 19c2 933e bf7c 073e a069 af3f

conv2.weight f4 [16, 8, 3, 3]
-0.38816398 -0.1584488 -0.36091906 -0.10109007 -0.20520388 0.00045442488 -0.012088937 -0.30175143
-0.034346953 -0.25771183 -0.2156791 -0.515854 -0.20387629 0.10135802 -0.2847111 -0.14841811
0.26568875 -0.25913933 -0.10026555 -0.17001985 -0.25461513 -0.22072524 -0.10532641 -0.0952772
-0.026881998 0.04847455 -0.050879396 -0.040815562 -0.31434938 -0.56865156 -0.07662517 0.09545845
0.1813115 0.2546357 0.11580215 -0.17904465 -0.08484227 -0.083005734 -0.21326761 0.10389818
0.03445988 0.19447437 -0.09626394 0.3384866 0.13479207 -0.6277035 0.05414153 0.03367277
-0.1672446 0.023339424 0.36767203 -0.40729806 -0.22246689 -0.06974216 -0.08989559 -0.21884796
0.17491207 -0.17018971 -0.07336961 0.016117103 -0.018155662 -0.010993657 -0.047477104 -0.22940023
-0.19766386 -0.124030575 -0.19606479 0.03046237 -0.061043654 0.27040637 0.16241811 -0.00238621
0.043159835 0.023998927 -0.046862975 0.03464622 0.040239792 -0.1249126 0.021859145 0.07297434
-0.08333169 0.19427527 0.21829301 0.009161464 0.053524047 -0.02303467 -0.21225587 0.046105362
-0.11955307 -0.14617404 -0.17338113 0.022268245 0.16451778 0.04968372 -0.007284441 -0.040099192
-0.32256502 0.19806787 0.010607261 0.16321191 -0.30757102 -0.1352371 -0.17648925 0.038142487
0.013981311 0.035948914 0.0061003948 -0.052298352 0.06393295 0.29410142 0.064994834 0.19003372
0.14428824 0.1192367 0.14594229 0.2881193 0.30867848 0.2903187 0.22200283 0.057282303
-0.04040086 0.041846443 -0.2579264 0.2118201 0.22439118 0.29914016 -0.14546931 -0.21507353
-0.06359022 -0.14482766 0.07980339 0.33264062 0.35117152 0.32317132 0.11528911 -0.24085528
-0.0062634517 -0.39069957 0.00476427 0.063582264 0.23075804 0.18135433 -0.033751875 -0.011082314
-0.0065124817 -0.034059193 0.12122182 -0.20666414 -0.09628665 0.12587349 -0.1003691 0.19302526
-0.39212874 -0.15311293 -0.39232212 -0.24732555 -0.25327766 -0.25862285 -0.5702103 -0.11051362
0.12508442 -0.14030851 -0.012244382 -0.11187543 0.031581733 -0.07631845 0.1889815 -0.13988289
0.20071965 0.20295788 -0.0018548795 0.077561826 0.037819583 0.040055305 0.12212154 -0.011276175
-0.34027722 0.20088357 0.2767455 -0.13913739 0.048790306 0.03886657 0.25396952 -0.20937914
-0.24271773 -0.22798018 -0.15677619 -0.000745402 -0.2063797 0.2922703 0.18638602 0.0029610002
-0.035545222 -0.21784203 -0.24707939 0.055480186 -0.017375719 -0.07324506 -0.015252111 0.07339359
0.06804309 -0.10822719 -0.030440956 0.12979634 0.28133082 0.29034442 -0.068717964 0.31603634
0.3937321 0.4588958 -0.13160175 0.4160287 0.13065192 0.14146952 -0.4120134 0.21918184
-0.010307927 -0.07122484 -0.046117466 -0.21801378 0.110964894 0.19407834 -0.17504187 0.30412608
0.13898619 -0.35695073 -0.0081429435 0.01563362 -0.17997319 0.02080163 -0.027656008 -0.27292356
-0.012119089 0.16356821 -0.004144727 -0.18126495 -0.14379676 0.036853936 -0.05395044 -0.09710804
-0.17532921 -0.13075401 0.5470793 0.093441226 -0.06971644 -0.05634092 0.04927905 0.070683226
0.015375231 0.029014185 -0.23866896 -0.19755226 -0.023941163 -0.015770376 0.06696404 -0.06845973
00000000: 6ebd c6be 6740 22be 62ca b8be 5008 cfbd
00000010: f720 52be e03f ee39 ad10 46bc 2a7f 9abe
00000020: 64af 0cbd cef2 83be fbda 5cbe 020f 04bf
00000030: f2c4 50be cb94 cf3d a7c5 91be ebfa 17be
00000040: 5b08 883e e9ad 84be 0658 cdbd af19 2ebe
00000050: ea5c 82be cc05 62be 5fb5 d7bd b120 c3bd
00000060: a337 dcbc 408d 463d ea66 50bd 382e 27bd
00000070: 67f2 a0be 2693 11bf a8ed 9cbd b87f c33d
00000080: b9a9 393e 9c5f 823e ad29 ed3d 7b57 37be
00000090: c9c1 adbd e9fe a9bd d362 5abe 92c8 d43d
000000a0: ce25 0d3d 4a24 473e 0726 c5bd 1e4e ad3e
000000b0: ef06 0a3e 2db1 20bf 82c3 5d3d 75ec 093d
000000c0: 2b42 2bbe 5232 bf3c 823f bc3e 5f89 d0be
000000d0: 5cce 63be fad4 8ebd 2e1b b8bd ae19 60be
000000e0: 261c 333e 3646 2ebe ce42 96bd 0408 843c
000000f0: 2fbb 94bc bd1e 34bc 5a77 42bd e5e7 6abe
00000100: 6568 4abe be03 febd 35c5 48be 388c f93c
00000110: e908 7abd b472 8a3e ef50 263e f661 1cbb
00000120: 5ec8 303d 6699 c43c 64f3 3fbd 32e9 0d3d
00000130: 7bd2 243d 2dd2 ffbd f311 b33c 9273 953d
00000140: cea9 aabd 19f0 463e 3488 5f3e f719 163c
00000150: 083c 5b3d 34b3 bcbc 9a59 59be fad8 3c3d
00000160: 3dd8 f4bd a6ae 15be d38a 31be e56b b63c
00000170: 5977 283e 2881 4b3d 52b2 eebb 0d3f 24bd
00000180: 3e27 a5be 4ed2 4a3e 14ca 2d3c 0621 273e
00000190: f379 9dbe 987b 0abe 99b9 34be 4c3b 1c3d
000001a0: de11 653c 2b3f 133d d2e5 c73b cc36 56bd
000001b0: 47ef 823d 7694 963e 031c 853d 3398 423e
000001c0: 4cc0 133e 5f32 f43d e571 153e 5f84 933e
000001d0: 1b0b 9e3e a7a4 943e b654 633e d9a0 6a3d
000001e0: 5f7b 25bd 2d67 2b3d ee0e 84be 5ee7 583e
000001f0: cdc6 653e e628 993e e8f5 14be 3c3c 5cbe
00000200: 973b 82bd b44d 14be f66f a33d df4f aa3e
00000210: c1cc b33e b676 a53e b21c ec3d c4a2 76be
00000220: a43d cdbb c609 c8be 981d 9c3b 6b37 823d
00000230: d64b 6c3e f3b4 393e 683f 0abd 9892 35bc
00000240: a866 d5bb a781 0bbd 2543 f83d c49f 53be
00000250: ef31 c5bd fbe4 003e 518e cdbd 6aa8 453e
00000260: 19c5 c8be a3c9 1cbe 72de c8be e942 7dbe
00000270: 9cad 81be 376a 84be 4df9 11bf f754 e2bd
00000280: 2116 003e 09ad 0fbe a99c 48bc f21e e5bd
00000290: d95b 013d d94c 9cbd 5e84 413e 763d 0fbe
000002a0: 7489 4d3e 31d4 4f3e 6e1f f3ba bcd8 9e3d
000002b0: b5e8 1a3d 0811 243d dc1a fa3d b5bf 38bc
000002c0: d138 aebe 6cb4 4d3e 96b1 8d3e 087a 0ebe
000002d0: 58d8 473d 8d32 1f3d 4b08 823e 7c67 56be
000002e0: ff8a 78be a373 69be f089 20be 1567 43ba
000002f0: 3355 53be 74a4 953e fadb 3e3e 570d 423b
00000300: de97 11bd fb11 5fbe 6102 7dbe 313f 633d
00000310: 8657 8ebc 8201 96bd fde3 79bc 614f 963d
00000320: 2d5a 8b3d 38a6 ddbd 505f f9bc 55e9 043e
00000330: 980a 903e 06a8 943e 01bc 8cbd 84cf a13e
00000340: 4197 c93e 64f4 ea3e 9cc2 06be b701 d53e
00000350: 9ec9 053e 63dd 103e 6cf3 d2be 3471 603e
00000360: 94e2 28bc 54de 91bd abe5 3cbd 013f 5fbe
00000370: 9041 e33d 79bc 463e 2d3e 33be 6ab6 9b3e
00000380: 6552 0e3e 3fc2 b6be fb69 05bc 1412 803c
00000390: e44a 38be 2e68 aa3c da8e e2bc a3bc 8bbe
000003a0: 258f 46bc 6d7e 273e 7dd0 87bb 859d 39be
000003b0: 753f 13be 27f4 163d 23fb 5cbd 94e0 c6bd
000003c0: 8089 33be 61e4 05be 640d 0c3f 1d5e bf3d
000003d0: 7ec7 8ebd bdc5 66bd d4d8 493d 5ec2 903d
000003e0: 65e8 7b3c 28af ed3c a365 74be 244b 4abe
000003f0: 4220 c4bc e030 81bc 7124 893d 9d34 8cbd

conv2.bias f4 [16]
0.13224053 0.04732842 0.049832884 0.22527139 -0.0013633124 0.07607946 -0.34593105 0.0014770831
-0.15949856 0.013220927 -0.08433368 -0.034484636 -0.2367054 0.056273498 0.04347413 -0.056794815
00000000: 106a 073e 72db 413d 911d 4c3d 8bad 663e
00000010: 2cb1 b2ba 8ccf 9b3d e01d b1be af9a c13a
00000020: 9753 23be 969c 583c 23b7 acbd c33f 0dbd
00000030: e662 72be 0a7f 663d ee11 323d aea1 68bd

bn2.weight f4 [16]
0.946706 0.8157398 0.9461923 1.0930713 1.1683662 0.738606 1.2250392 0.7776307
0.86343086 1.021277 1.2272922 1.0618104 0.947989 0.8161048 0.8695784 0.9057487
00000000: 535b 723f 53d4 503f a939 723f c3e9 8b3f
00000010: 068d 953f 4815 3d3f 16ce 9c3f ce12 473f
00000020: ce09 5d3f 34b9 823f e917 9d3f 67e9 873f
00000030: 68af 723f 3fec 503f b19c 5e3f 26df 673f

bn2.bias f4 [16]
0.08012764 0.041034646 0.18072186 -0.19526942 0.22743593 0.031318326 -0.2144556 -0.10277304
0.242081 -0.1960288 0.12806158 -0.036593266 0.016172776 -0.46475846 -0.13267599 0.109913774
00000000: f619 a43d f213 283d 270f 393e b5f4 47be
00000010: f7e4 683e a547 003d 409a 5bbe ac7a d2bd
00000020: 15e4 773e c6bb 48be 9322 033e d2e2 15bd
00000030: c57c 843c d2f4 edbe 37dc 07be 791a e13d

bn2.running_mean f4 [16]
1.7136736 0.7920891 0.8560414 0.6871196 0.80045635 0.5937849 0.4437706 1.2401205
0.8874738 0.8981175 0.5064228 1.3501704 0.47487074 0.9648525 1.1631408 0.3905447
00000000: a859 db3f 5ac6 4a3f 8725 5b3f 12e7 2f3f
00000010: b5ea 4c3f 4a02 183f e635 e33e 45bc 9e3f
00000020: 7c31 633f 07eb 653f eda4 013f 62d2 ac3f
00000030: 4222 f33e 9300 773f cce1 943f 7af5 c73e

bn2.running_var f4 [16]
2.9140203 2.3137665 1.7473084 3.274115 1.7111279 1.2135588 1.1883048 1.5044353
2.563815 1.0171338 1.2079794 1.241615 1.1024841 1.3924336 3.101304 0.5808207
00000000: 4f7f 3a40 c014 1440 cda7 df3f 1a8b 5140
00000010: 3d06 db3f e555 9b3f 5f1a 983f 5691 c03f
00000020: 8c15 2440 7131 823f 129f 9a3f 3eed 9e3f
00000030: 331e 8d3f 443b b23f c47b 4640 aab0 143f

conv3.weight f4 [32, 16, 3, 3]
0.06985511 -0.02240646 -0.03645959 0.14925979 0.11659845 0.08161385 0.2123845 0.41378006
0.03554167 -0.020734675 0.09437943 0.03539094 0.20746697 0.13549936 0.0049889055 0.16123092
-0.019838644 0.038831767 -0.07979363 -0.13691093 -0.1074249 -0.059296545 -0.036171407 0.18703948
-0.11979298 0.069720715 0.006889898 0.20778671 0.0042572543 -0.024964616 0.2401254 0.33889502
0.21249928 0.0033500337 -0.00024143915 -0.09175062 -0.14548406 -0.39952073 -0.31550542 -0.19502433
-0.12149371 -0.23240383 -0.19585073 -0.24171248 -0.092509486 -0.2038911 -0.057307985 -0.27269754
-0.06403642 -0.19910924 -0.35584784 -0.08907643 -0.29896295 -0.15578334 -0.1411745 0.08355149
-0.15454967 0.09427784 0.102539346 -0.002458253 -0.044047642 -0.1299262 -0.2779719 0.13818656
0.096855775 0.34910494 -0.025151595 0.07663081 0.07210861 -0.04221336 -0.03870077 -0.13906714
-0.1213957 -0.1364974 0.023868594 0.05798895 -0.18781137 -0.07485798 0.073751666 0.029876368
-0.034691896 0.15186359 0.16657954 0.02061054 -0.13567714 -0.112437695 -0.2726477 -0.11255035
-0.13781418 -0.04951541 -0.23574038 -0.1785949 -0.18868954 -0.1945565 -0.30860344 -0.16307305
-0.079659976 0.07664479 0.12893055 -0.12683679 -0.08257453 -0.027356695 -0.012885393 0.06725249
0.08988417 -0.1612671 -0.07212043 -0.1333785 -0.30792558 -0.13448244 -0.39385074 -0.027525993
-0.0009223447 0.04767727 -0.057059254 -0.032186378 -0.060891554 -0.062427077 -0.10344677 0.07930153
-0.090040654 0.114110194 0.19175433 -0.0005312015 0.09323043 0.16630286 0.22028519 0.20746307
0.36452672 0.18758683 0.22246252 0.24674958 -0.106160186 -0.048482515 -0.24784681 -0.17219605
-0.047665272 -0.21880586 -0.107512906 -0.2104985 -0.08106563 0.32128224 0.07362748 0.046012364
-0.03734409 -0.061956894 0.10973063 -0.029839206 0.23486993 -0.00040327045 -0.0024501416 -0.052636504
-0.03057499 -0.15141955 -0.05875903 0.082456395 0.02829612 -0.2993237 0.058233775 0.056584947
0.1547976 -0.050148483 -0.23915024 0.054209936 0.1806616 -0.022017531 -0.13119175 0.004693026
-0.012078837 0.07124864 0.09606841 -0.11850291 -0.085437424 -0.04813853 0.2422174 0.17745341
0.08127098 0.13204852 0.23064743 0.16404034 -0.1941393 0.08932125 0.01901038 -0.02951548
0.24114081 -0.010125668 0.23999299 0.075260185 0.10104681 0.13095465 0.2866365 -0.1682393
0.002278954 -0.08389702 0.042138055 0.14295524 0.09795563 0.16707925 -0.43601173 -0.18211472
-0.14254056 -0.015360817 -0.017994212 -0.25325933 0.12591383 0.21688932 0.23857187 -0.14004545
-0.09264964 0.08173107 0.03203913 0.01552341 -0.25003773 0.15020128 0.04833665 -0.15478231
-0.09200582 0.015075601 0.13869344 -0.12367677 -0.17885515 -0.12302228 -0.14586627 -0.2877041
-0.20404057 -0.016077967 -0.13145499 -0.15364087 0.2549903 -0.21177176 -0.07338252 0.1437277
-0.09053061 -0.13935539 -0.34478536 -0.15831944 -0.10056323 -0.030079603 0.122909024 -0.04691776
-0.049528696 0.14817339 0.35911414 0.08770366 -0.056921903 -0.2973455 -0.080342636 -0.16570732
-0.14080687 -0.20959479 -0.44674268 -0.053493746 -0.07783121 -0.13260598 -0.18180522 0.37816113
00000000: 3210 8f3d c18d b7bc a756 15bd 8fd7 183e
00000010: 2bcb ee3d 2a25 a73d 537b 593e fbda d33e
00000020: 2494 113d c4db a9bc 014a c13d 17f6 103d
00000030: 3972 543e 58c0 0a3e f979 a33b b819 253e
00000040: a784 a2bc 0f0e 1f3d d86a a3bd 6132 0cbe
00000050: 9601 dcbd efe0 72bd 7828 14bd 4787 3f3e
00000060: 0656 f5bd bcc9 8e3d a7c4 e13b 0ac6 543e
00000070: 7080 8b3b 9882 ccbc 6fe3 753e a683 ad3e
00000080: 6999 593e 3d8c 5b3b d42a 7db9 c0e7 bbbd
00000090: c6f9 14be fb8d ccbe ed89 a1be 75b4 47be
000000a0: b2d1 f8bd 45fb 6dbe 188d 48be 7a83 77be
000000b0: 9d75 bdbd d4c8 50be c7bb 6abd 039f 8bbe
000000c0: 8725 83bd 4be3 4bbe b031 b6be b46d b6bd
000000d0: ac11 99be ab85 1fbe 0c90 10be 0b1d ab3d
000000e0: 4542 1ebe bd14 c13d 2600 d23d a41a 21bb
000000f0: 4d6b 34bd 600b 05be 5552 8ebe c780 0d3e
00000100: 525c c63d e2bd b23e b80a cebc 9df0 9c3d
00000110: aead 933d ebe7 2cbd b384 1ebd 9e67 0ebe
00000120: 4f9e f8bd f9c5 0bbe 1288 c33c d285 6d3d
00000130: a051 40be 244f 99bd 1d0b 973d 49bf f43c
00000140: 1719 0ebd 2182 1b3e d493 2a3e 6fd7 a83c
00000150: f3ee 0abe bc45 e6bd 7b98 8bbe cc80 e6bd
00000160: 291f 0dbe acd0 4abd ed65 71be 95e1 36be
00000170: d537 41be d239 47be 4501 9ebe 9ffc 26be
00000180: c524 a3bd f2f7 9c3d 5f06 043e 81e1 01be
00000190: d61c a9bd 261b e0bc 411d 53bc acbb 893d
000001a0: 3115 b83d 3423 25be e0b3 93bd 6094 08be
000001b0: 6ca8 9dbe c4b5 09be cea6 c9be 317e e1bc
000001c0: 81c9 71ba 3e49 433d f7b6 69bd ddd5 03bd
000001d0: 6c69 79bd 89b3 7fbd e6db d3bd d768 a23d
000001e0: 3c67 b8bd 9bb2 e93d 3f5b 443e 5440 0bba
000001f0: 98ef be3d 4c4b 2a3e 7192 613e 3371 543e
00000200: 3fa3 ba3e c316 403e 37cd 633e ecab 7c3e
00000210: 836a d9bd 9a95 46bd 8ecb 7dbe 2954 30be
00000220: a93c 43bd a50e 60be ba2f dcbd eb8c 57be
00000230: bd05 a6bd 1b7f a43e 01ca 963d 7677 3c3d
00000240: 1ef6 18bd 83c6 7dbd 74ba e03d 5a71 f4bc
00000250: be81 703e 0b6e d3b9 8e92 20bb 6099 57bd
00000260: 6778 fabc ba0d 1bbe 4fad 70bd e6de a83d
00000270: 44cd e73c f540 99be 8a86 6e3d 9ec5 673d
00000280: 4383 1e3e 7f68 4dbd cde3 74be 3d0b 5e3d
00000290: 5bff 383e 1c5e b4bc 2157 06be f5c7 993b
000002a0: 50e6 45bc cfea 913d 84bf c43d a7b1 f2bd
000002b0: d1f9 aebd e82c 45bd d707 783e 59b6 353e
000002c0: 6671 a63d ba37 073e d72e 6c3e 31fa 273e
000002d0: 74cc 46be 0fee b63d a8bb 9b3c 73ca f1bc
000002e0: 9eed 763e 21e6 25bc b9c0 753e 0322 9a3d
000002f0: a1f1 ce3d fa18 063e 05c2 923e ec46 2cbe
00000300: 815a 153b 33d2 abbd f498 2c3d dc62 123e
00000310: f69c c83d d316 2b3e ee3c dfbe 487c 3abe
00000320: 27f6 11be f0ab 7bbc 9968 93bc 35ab 81be
00000330: 8eef 003e 3c18 5e3e 2f4c 743e 1368 0fbe
00000340: 18bf bdbd 9f62 a73d 763b 033d e755 7e3c
00000350: f204 80be 5dce 193e a7fc 453d 417f 1ebe
00000360: 8c6d bcbd a7ff 763c a705 0e3e 3f4a fdbd
00000370: ce25 37be 1bf3 fbbd f85d 15be f44d 93be
00000380: 03f0 50be f1b5 83bc 239c 06be 0854 1dbe
00000390: 178e 823e b2da 58be 9349 96bd 5b2d 133e
000003a0: 1d68 b9bd 2eb3 0ebe b587 b0be 7e1e 22be
000003b0: 18f4 cdbd 8069 f6bc bab7 fb3d d62c 40bd
000003c0: 9ade 4abd c4ba 173e cfdd b73e fa9d b33d
000003d0: f126 69bd ab3d 98be ae8a a4bd 2eaf 29be
000003e0: ad2f 10be 04a0 56be 75bb e4be 421c 5bbd
000003f0: f865 9fbd ddc9 07be 262b 3abe 569e c13e

conv3.bias f4 [32]
-0.21913117 -0.50748146 0.02006598 -0.26812294 -0.05757257 -0.08003318 -0.09109197 -0.20613016
-0.2424879 -0.63742054 -0.2519303 -0.05979105 -0.17337696 -0.018615589 -0.13005319 -0.08439485
-0.1999896 -0.33560544 0.030199463 -0.1756002 0.014174764 -0.060219303 -0.13519855 -0.23448288
-0.26740897 -0.28268796 -0.063393526 -0.26083153 -0.36550218 -0.37005386 -0.029822499 -0.17242254
00000000: ec63 60be 4eea 01bf 6961 a43c 6947 89be
00000010: 37d1 6bbd 70e8 a3bd 6d8e babd c913 53be
00000020: c04e 78be fe2d 23bf 02fd 80be 76e7 74bd
00000030: bb89 31be b87f 98bc aa2c 05be 35d7 acbd
00000040: 13ca 4cbe 7ad4 abbe dd64 f73c 8ad0 33be
00000050: 453d 683c 84a8 76bd 7d71 0abe 481c 70be
00000060: d4e9 88be 7abc 90be 77d4 81bd b68b 85be
00000070: 1a23 bbbe b377 bdbe 504e f4bc 898f 30be

bn3.weight f4 [32]
0.9952637 1.00426 0.82460654 1.0271597 0.8986898 0.8407863 0.9539194 0.9833138
0.83303344 1.0285817 0.89415884 0.9355339 0.9324076 1.0057648 0.8042573 0.981954
1.0620021 1.0171059 0.9244942 1.0201639 0.881381 0.9915645 0.8289489 0.91977453
0.9040898 1.3672705 0.9312076 1.0873802 1.0117327 1.0548514 1.1407627 1.0915539
00000000: 9ac9 7e3f 978b 803f 6a19 533f f879 833f
00000010: 8910 663f c53d 573f 1034 743f 74ba 7b3f
00000020: ae41 553f 91a8 833f 98e7 643f 267f 6f3f
00000030: 44b2 6e3f e7bc 803f cee3 4d3f 5661 7b3f
00000040: afef 873f 8730 823f a7ab 6c3f bb94 823f
00000050: 2fa2 613f 2cd7 7d3f ff35 543f 5876 6b3f
00000060: 6e72 673f b802 af3f 9f63 6e3f 462f 8b3f
00000070: 7580 813f 5f05 873f 8304 923f 0ab8 8b3f

bn3.bias f4 [32]
-0.55026436 0.10059707 0.4341128 0.1294452 -0.17321 -0.092964195 0.043472234 0.16147761
0.55937505 0.5571632 0.045901235 0.0197189 0.25913888 -0.24954371 0.2484553 0.54046726
0.23168543 -0.32649347 -0.12610415 0.11519747 -0.3452934 0.1776159 0.5372863 0.311063
0.50774455 0.025531318 -0.060129046 -0.022467727 -0.32061696 0.0011398724 0.060923316 0.33127132
00000000: 20de 0cbf d605 ce3d 0844 de3e 488d 043e
00000010: f65d 31be 0364 bebd f10f 323d 635a 253e
00000020: 3433 0f3f 3fa2 0e3f ef02 3c3d 8889 a13c
00000030: daad 843e 6388 7fbe 116b 7e3e 105c 0a3f
00000040: f23e 6d3e 272a a7be 7221 01be a7ec eb3d
00000050: 4cca b0be f1e0 353e 988b 093f a643 9f3e
00000060: 8cfb 013f 0e27 d13c e049 76bd 3d0e b8bc
00000070: e827 a4be c567 953a ba8a 793d 659c a93e

bn3.running_mean f4 [32]
1.0409303 0.46739843 0.70233715 0.5628411 0.6161262 0.67898166 0.69196814 0.68759906
0.69913447 0.21817014 0.89107484 1.1905434 0.8075358 0.6175517 0.89083683 0.64878756
0.86694455 0.5646374 0.5749572 1.1482403 0.95144445 1.0555749 0.66022784 0.50661695
1.1295364 0.28422156 0.529305 0.4756159 0.4150883 0.54163843 1.7529867 0.5208661
00000000: 343d 853f d94e ef3e 5ecc 333f 5b16 103f
00000010: 72ba 1d3f bed1 2d3f d324 313f 7e06 303f
00000020: 7afa 323f fe67 5f3e 7b1d 643f ba63 983f
00000030: abba 4e3f de17 1e3f e20d 643f f116 263f
00000040: 14f0 5d3f 148c 103f 6530 133f 8af9 923f
00000050: dd91 733f 141d 873f b104 293f a6b1 013f
00000060: a694 903f 7d85 913e 8880 073f ed83 f33e
00000070: 7486 d43e d1a8 0a3f de61 e03f 7b57 053f

bn3.running_var f4 [32]
1.9757407 1.1531501 1.1135558 0.78001666 1.7092733 0.928167 1.0296233 1.3666139
1.4072989 0.747977 2.2490458 2.9581895 0.9762359 0.6188343 1.1518284 1.4140266
1.0482568 0.96002847 1.5455928 1.5444709 1.6268661 2.0279305 1.2221712 1.3262817
3.139997 0.91335195 1.3009889 1.2576882 1.2596107 1.4177305 2.5234792 1.2841612
00000000: 12e5 fc3f 6c9a 933f ff88 8e3f 2caf 473f
00000010: 78c9 da3f 5a9c 6d3f b2ca 833f 34ed ae3f
00000020: 5f22 b43f 6c7b 3f3f 5ef0 0f40 fa52 3d40
00000030: 99ea 793f ed6b 1e3f 1d6f 933f d3fe b43f
00000040: 472d 863f 6dc4 753f fcd5 c53f 39b1 c53f
00000050: 263d d03f 9dc9 0140 1b70 9c3f 99c3 a93f
00000060: b6f5 4840 6fd1 693f ce86 a63f edfb a03f
00000070: ec3a a13f 3178 b53f af80 2140 655f a43f

conv4.weight f4 [64, 32, 3, 3]
-0.050950613 -0.15766461 -0.0048458898 -0.028383141 -0.030874887 -0.03013016 0.15910372 0.08311499
0.027639363 0.06884282 0.005688645 -0.01669784 0.1846301 0.13696149 0.031526282 0.14534585
0.060660798 0.10546927 0.14474706 -0.040028762 -0.039541807 -0.044447113 0.050901644 0.07095676
-0.027195644 -0.029964298 -0.07737621 -0.025436148 -0.17494382 -0.09488568 0.0062304046 -0.017831426
0.045287378 -0.07989458 -0.27015328 -0.24182235 0.13392533 0.25314912 0.26584253 0.00036262756
0.21798587 0.16137958 0.1954572 0.09563374 0.10287609 0.0241645 0.10197268 0.17317714
0.07653814 0.112215236 0.060002808 0.07687895 0.13877499 0.100696824 0.05809457 -0.081396826
-0.12026332 -0.083645016 -0.27215618 -0.30027574 -0.0916122 -0.013648845 -0.08126678 -0.03318872
-0.08838089 0.08863811 0.069040455 0.0031697578 -0.011920476 -0.093601145 0.11715836 -0.078356825
-0.104679234 -0.121488705 -0.14504096 0.07021369 -0.036527768 0.0062256213 0.08304698 0.05136527
0.21252832 0.2302523 0.085273385 0.2615504 0.0009985307 0.1350528 0.081342936 0.19191658
0.16884923 0.112361595 -0.06997221 -0.13300078 0.1719164 -0.00074254285 -0.21764188 -0.07529821
-0.16830751 -0.08383893 -0.028308442 0.16271202 -0.17056476 -0.060110737 0.009281421 -0.12062264
-0.18619475 0.20138529 0.03860815 -0.13367069 0.01794056 0.06399173 -0.05310714 0.056294344
0.083533615 -0.0085632205 -0.055423338 -0.023552416 -0.054405607 -0.044293247 -0.13149709 -0.057144254
-0.07495639 -0.13570133 -0.1434692 -0.18922447 -0.11341929 0.001837519 0.05083471 -0.057913974
0.21911998 -0.06005746 -0.11318426 0.028371492 -0.20481299 -0.18678428 -0.09720246 -0.033677965
-0.1220084 0.033187155 0.23663633 0.08978572 0.14243962 0.0108948015 -0.056390733 -0.05957338
0.17448388 0.13832167 0.038732465 -0.01890341 -0.0431856 0.045071054 0.13770176 0.05150934
0.15400322 0.0143614495 0.050970558 -0.05936698 -0.025937522 -0.06473683 0.044795144 0.057900958
-0.0045743342 0.1511506 0.043371215 -0.038495656 -0.0958876 -0.09684965 -0.041229524 -1.774862e-05
0.10339917 -0.020931829 0.13591129 -0.08262271 -0.15290485 -0.13574779 0.06899286 0.07075898
0.009052097 -0.11643594 -0.02110888 0.001652227 0.1266875 0.03965977 0.22954622 0.11681353
0.06525336 -0.030527338 -0.11401587 -0.0021726128 -0.015105138 0.25452927 0.24337621 0.2068708
-0.07362063 -0.032139674 -0.13271461 0.11978333 0.117747545 0.15491845 0.11918162 -0.02128314
0.047385566 -0.2697962 -0.2473654 -0.097139865 -0.05499716 -0.17602672 -0.06349039 -0.09266753
0.011995993 -0.09186149 0.110702656 -0.12044844 -0.011128459 0.14123628 -0.02759025 0.020905707
0.12787431 -0.05033075 0.13252595 0.007889154 -0.09708138 -0.033521578 -0.18990949 -0.2183816
-0.1346768 0.01456126 -0.053808708 -0.040817387 -0.047516376 0.26078016 0.07750033 0.07433001
0.020772086 -0.07108783 0.004100325 -0.16485515 -0.079946175 0.16234104 0.25356108 0.110302925
0.092518404 0.09069431 0.040646743 0.13325381 0.2993129 0.080224924 0.10481426 0.1441364
-0.10447651 0.11540793 0.14522795 0.09407098 0.035969123 -0.030029304 -0.032467477 0.14906022
00000000: 97b1 50bd d572 21be 45ca 9ebb c383 e8bc
00000010: 55ed fcbc 86d3 f6bc 16ec 223e 3138 aa3d
00000020: f26b e23c 77fd 8c3d d067 ba3b e9c9 88bc
00000030: ac0f 3d3e a23f 0c3e b421 013d 8bd5 143e
00000040: 7577 783d 4600 d83d 9338 143e 33f5 23bd
00000050: 97f6 21bd 2d0e 36bd 3e7e 503d c751 913d
00000060: 66c9 debc b077 f5bc 6b77 9ebd 785f d0bc
00000070: 7924 33be 6c53 c2bd 6c28 cc3b 3613 92bc
00000080: 427f 393d c59f a3bd 8851 8abe 47a0 77be
00000090: b923 093e c39c 813e 831c 883e 0c1f be39
000000a0: b037 5f3e b040 253e ef25 483e 9fdb c33d
000000b0: b3b0 d23d a1f4 c53c 0dd7 d03d 5955 313e
000000c0: 07c0 9c3d 1ad1 e53d 81c5 753d b672 9d3d
000000d0: 081b 0e3e 233a ce3d 92f4 6d3d 61b3 a6bd
000000e0: 9e4c f6bd 144e abbd 0e58 8bbe bebd 99be
000000f0: 2d9f bbbd 689f 5fbc 336f a6bd e5f0 07bd
00000100: 0a01 b5bd e687 b53d 1565 8d3d b6bb 4f3b
00000110: 1a4e 43bc f5b1 bfbd b9f0 ef3d 8b79 a0bd
00000120: 1162 d6bd 12cf f8bd 9e85 14be 32cc 8f3d
00000130: 249e 15bd 4c00 cc3b 8914 aa3d 6464 523d
00000140: 06a1 593e 42c7 6b3e d0a3 ae3d efe9 853e
00000150: 21e1 823a 484b 0a3e 2097 a63d c885 443e
00000160: d0e6 2c3e d61d e63d 974d 8fbd 5b31 08be
00000170: da0a 303e 35a7 42ba 83dd 5ebe f335 9abd
00000180: ce58 2cbe bfb3 abbd 1be7 e7bc fb9d 263e
00000190: 87a8 2ebe ad36 76bd 1a11 183c 0109 f7bd
000001a0: d6a9 3ebe f237 4e3e 9423 1e3d f8e0 08be
000001b0: 15f8 923c 190e 833d df86 59bd e694 663d
000001c0: ac13 ab3d c04c 0cbc 9503 63bd fff0 c0bc
000001d0: 6ad8 5ebd d66c 35bd 2ca7 06be 1810 6abd
000001e0: bc82 99bd 4af5 0abe 97e9 12be 0fc4 41be
000001f0: 5f48 e8bd e8d8 f03a 0f38 503d 3437 6dbd
00000200: fd60 603e d0fe 75bd 26cd e7bd 556b e83c
00000210: 7fba 51be 6144 3fbe 1512 c7bd e8f1 09bd
00000220: 8adf f9bd 41ef 073d cb50 723e 93e1 b73d
00000230: b1db 113e 1c80 323c f8f9 66bd 3703 74bd
00000240: e7ab 323e 32a4 0d3e efa5 1e3d 53db 9abc
00000250: 62e3 30bd 6d9c 383d b101 0d3e 75fb 523d
00000260: 05b3 1d3e 494c 6b3c 81c6 503d ca2a 73bd
00000270: ed7a d4bc be94 84bd 1d7b 373d 8e29 6d3d
00000280: 4ce4 95bb 39c7 1a3e 04a6 313d 9fad 1dbd
00000290: b860 c4bd 1c59 c6bd 4ae0 28bd dfe2 94b7
000002a0: f2c2 d33d 3a79 abbc 542c 0b3e 1836 a9bd
000002b0: 1793 1cbe 7801 0bbe 214c 8d3d 16ea 903d
000002c0: 3f4f 143c f775 eebd 88ec acbc 8a8f d83a
000002d0: 5eba 013e 4872 223d 2a0e 6b3e ef3b ef3d
000002e0: 8ea3 853d 7814 fabc 2781 e9bd 6562 0ebb
000002f0: 8a7b 77bc a951 823e 9d37 793e f0d5 533e
00000300: 6ac6 96bd e4a4 03bd 57e6 07be f650 f53d
00000310: a025 f13d f1a2 1e3e 7e15 f43d fb59 aebc
00000320: 5e17 423d ba22 8abe 5b4d 7dbe 44f1 c6bd
00000330: b444 61bd 5940 34be 4007 82bd 79c8 bdbd
00000340: d78a 443c e021 bcbd 13b8 e23d acad f6bd
00000350: 2454 36bc 3ea0 103e f304 e2bc 7242 ab3c
00000360: 7cf1 023e 9e27 4ebd e2b4 073e 8341 013c
00000370: 9ad2 c6bd ec4d 09bd a277 42be 6d9f 5fbe
00000380: b7e8 09be 5a92 6e3c 8566 5cbd 2230 27bd
00000390: 88a0 42bd fa84 853e 7eb8 9e3d 553a 983d
000003a0: 392a aa3c 7f96 91bd 055c 863b cacf 28be
000003b0: d2ba a3bd bb3c 263e c2d2 813e 80e6 e13d
000003c0: 4a7a bd3d f0bd b93d 337d 263d b073 083e
000003d0: 8a3f 993e f74c a43d dca8 d63d 7e98 133e
000003e0: c8f7 d5bd fe5a ec3d a3b6 143e 49a8 c03d
000003f0: 5c54 133d 0400 f6bc 9efc 04bd 3ea3 183e

conv4.bias f4 [64]
-0.06846493 -0.19664736 -0.13771601 -0.29132628 -0.43755284 -0.27896786 -0.10835025 -0.21872397
-0.16746266 -0.4170842 -0.077082165 -0.02797556 -0.38776043 -0.14263964 -0.05792161 -0.10747064
-0.036159296 -0.2207243 -0.34016034 0.06581511 -0.09479749 -0.2249644 -0.091348186 -0.074549705
-0.08138257 -0.060104255 -0.25218135 0.25017798 -0.1794816 0.04812731 -0.08514468 -0.14143334
-0.21322769 -0.03389164 -0.1534789 -0.41006187 -0.07259124 -0.0392895 -0.27889788 -0.33393356
-0.27874866 -0.164704 -0.1488646 -0.42662615 -0.10586267 -0.01730627 0.1848583 -0.2788555
0.08919895 -0.111377396 -0.20157282 -0.10881613 -0.039942306 -0.4235832 -0.3492143 -0.11659848
-0.23411305 -0.14164516 -0.04222757 0.20620851 -0.049526133 -0.5668656 0.12292482 -0.29504725
00000000: 5737 8cbd ed5d 49be 6d05 0dbe b828 95be
00000010: ed06 e0be e0d4 8ebe bce6 ddbd 2df9 5fbe
00000020: 557b 2bbe 0f8c d5be 41dd 9dbd 002d e5bc
00000030: 8988 c6be 2010 12be 363f 6dbd 9119 dcbd
00000040: c51b 14bd 8d05 62be 7f29 aebe 13ca 863d
00000050: 3025 c2bd 115d 66be c214 bbbd 84ad 98bd
00000060: e8ab a6bd e12f 76bd ea1d 81be 5417 803e
00000070: 06ca 37be 2421 453d 5660 aebd e7d3 10be
00000080: 5c58 5abe f6d1 0abd 9329 1dbe a1f3 d1be
00000090: b7aa 94bd 07ee 20bd b4cb 8ebe 57f9 aabe
000000a0: 25b8 8ebe 2aa8 28be f66f 18be be6e dabe
000000b0: 87ce d8bd e1c5 8dbc 7f4b 3d3e 26c6 8ebe
000000c0: f0ad b63d d519 e4bd 1b69 4ebe feda debd
000000d0: 8b9a 23bd e6df d8be 37cc b2be 2fcb eebd
000000e0: 55bb 6fbe 6e0b 11be d1f6 2cbd 5328 533e
000000f0: eadb 4abd 1b1e 11bf 02c0 fb3d 6f10 97be

bn4.weight f4 [64]
2.928914 2.9822645 2.8983817 2.795336 3.217751 3.3077695 3.0685298 3.5326293
3.0513213 3.5056624 3.1079104 2.8251653 3.3147745 3.5114493 2.6491084 2.8858182
2.9591398 2.605504 3.485451 2.4539368 3.1140468 2.3299692 2.3485587 3.156589
3.2605782 3.1969118 3.1524987 2.4176657 3.0857766 2.760155 3.3802574 3.0194669
3.3421881 3.2502642 2.9685304 3.1702852 3.1800878 2.776988 2.8966072 3.522492
4.4276237 3.4348598 3.235107 3.63603 2.7481627 2.9769177 2.9942212 3.4202561
3.1358392 2.7998943 3.3991537 2.968637 3.166007 3.0577164 3.5075788 2.501038
2.5317235 2.5135279 2.2692711 2.7821758 2.731544 4.083357 2.9658453 3.0975428
00000000: 5473 3b40 6cdd 3e40 167f 3940 c9e6 3240
00000010: a2ef 4d40 7fb2 5340 cb62 4440 9916 6240
00000020: d948 4340 c65c 6040 01e8 4640 82cf 3440
00000030: 4425 5440 96bb 6040 fe8a 2940 3fb1 3840
00000040: 8c62 3d40 94c0 2640 a111 5f40 4d0d 1d40
00000050: 8b4c 4740 371e 1540 c94e 1640 8e05 4a40
00000060: 50ad 5040 349a 4c40 8ac2 4940 09bb 1a40
00000070: 5d7d 4540 61a6 3040 2356 5840 f23e 4140
00000080: 69e6 5540 5404 5040 67fc 3d40 f4e5 4a40
00000090: 8f86 4b40 2cba 3140 0362 3940 8270 6140
000000a0: 18af 8d40 bed4 5b40 fe0b 4f40 b7b4 6840
000000b0: e6e1 2f40 d285 3e40 52a1 3f40 7ae5 5a40
000000c0: 97b1 4840 7831 3340 bc8b 5940 26fe 3d40
000000d0: dc9f 4a40 a0b1 4340 2c7c 6040 0211 2040
000000e0: c207 2240 a4dd 2040 bd3b 1140 2b0f 3240
000000f0: 9ed1 2e40 dcaa 8240 69d0 3d40 243e 4640

bn4.bias f4 [64]
-0.15918972 0.3963368 -0.08848419 -0.18825929 -0.028212048 0.25251424 0.1489702 0.029959565
0.119665034 0.36512333 -0.31229752 0.3281066 0.21115938 0.06359189 0.004611504 0.03607033
0.0538898 0.08630615 0.074383944 -0.10060926 0.035094816 -0.006400914 -0.03709503 -0.14830874
0.28421703 -0.3590292 -0.087743215 0.093471505 -0.44314465 0.0037756688 0.047051538 0.12639533
0.097081676 0.04431603 -0.023140928 -0.30854234 -0.019340675 -0.35573953 -0.15853924 0.1386206
0.18983322 0.034385104 0.05072 -0.09913612 -0.2816644 -0.12779725 0.3176875 -0.13566475
0.19480292 0.24319127 0.16449879 0.22029267 0.26783857 0.11672093 -0.044465136 0.15017548
-0.39238614 -0.21615706 -0.29579934 0.11577317 -0.09785022 0.02954965 0.10907097 0.27423877
00000000: a102 23be a8ec ca3e 3337 b5bd 0bc7 40be
00000010: f41c e7bc 8c49 813e a58b 183e c36d f53c
00000020: f112 f53d 72f1 ba3e 76e5 9fbe 97fd a73e
00000030: 2a3a 583e 773c 823d 191c 973b 7bbe 133d
00000040: 8dbb 5c3d 47c1 b03d 9c56 983d 3a0c cebd
00000050: 95bf 0f3d c2be d1bb f5f0 17bd 3fde 17be
00000060: e584 913e add2 b7be b7b2 b3bd fd6d bf3d
00000070: dbe3 e2be 3671 773b 1db9 403d c76d 013e
00000080: c2d2 c63d ba84 353d 0b92 bdbc 43f9 9dbe
00000090: 5670 9ebc 7e23 b6be 1c58 22be 8ff2 0d3e
000000a0: a463 423e 65d7 0c3d c6bf 4f3d e107 cbbd
000000b0: 5136 90be 48dd 02be f0a7 a23e b3eb 0abe
000000c0: 6b7a 473e 2207 793e 5f72 283e 6794 613e
000000d0: 2322 893e 620b ef3d 1321 36bd 9ac7 193e
000000e0: d6e6 c8be 4758 5dbe 0373 97be 7c1a ed3d
000000f0: b265 c8bd 1c12 f23c 9a60 df3d 0669 8c3e

bn4.running_mean f4 [64]
0.90264887 0.37364504 0.5689025 0.3571864 0.42362845 0.2707881 0.23417516 0.3393918
0.304991 0.3310883 0.25155827 0.56028354 0.14880145 0.7196161 0.47030658 0.40154955
0.13847847 0.3738525 0.30319166 0.86054724 0.19458103 1.0162348 1.1664908 0.53287405
0.52555776 0.35699716 0.26419252 0.7460868 0.8750726 1.3336924 0.23512521 0.1730062
0.1290409 0.497686 0.15818124 0.20371424 0.26616117 0.7408362 0.8095834 0.34097314
0.19481087 0.43274128 0.29066452 0.36236915 0.34108686 0.28474912 0.50303286 0.24783354
0.43625924 0.44898355 0.16293351 0.30857334 0.33040395 0.19349355 0.19846053 0.25263909
0.6461464 0.33289582 0.93788797 1.4230267 1.3311336 0.1956822 0.595274 0.4786378
00000000: ff13 673f 674e bf3e 98a3 113f 23e1 b63e
00000010: d4e5 d83e bda4 8a3e 9dcb 6f3e c3c4 ad3e
00000020: c827 9c3e 6884 a93e 3fcc 803e be6e 0f3f
00000030: 685f 183e c338 383f 06cc f03e e797 cd3e
00000040: 4dcd 0d3e 9869 bf3e f03b 9b3e d34c 5c3f
00000050: 4040 473e fb13 823f 924f 953f 6f6a 083f
00000060: f48a 063f 55c8 b63e 3e44 873e 8bff 3e3f
00000070: c204 603f 6fb6 aa3f aac4 703e 8a28 313e
00000080: 4c23 043e b3d0 fe3e 43fa 213e 779a 503e
00000090: 4746 883e 71a7 3d3f dc40 4f3f 0894 ae3e
000000a0: 807c 473e 4490 dd3e fbd1 943e 7388 b93e
000000b0: f0a2 ae3e a3ca 913e c3c6 003f 13c8 7d3e
000000c0: 5f5d df3e 2ce1 e53e 0bd8 263e 53fd 9d3e
000000d0: b52a a93e 2c23 463e 3d39 4b3e e959 813e
000000e0: da69 253f 5271 aa3e 6d19 703f bd25 b63f
000000f0: 9662 aa3f ea60 483e e063 183f 0410 f53e

bn4.running_var f4 [64]
2.1888442 0.7313287 1.2187419 0.7690465 0.812394 0.6392501 0.49061626 0.7312891
0.6560686 0.8841519 0.4034982 0.9296813 0.25096595 1.4481024 0.61949027 0.80691874
0.28697842 0.6725811 0.65250677 1.3313322 0.4172557 1.6785525 1.8886969 1.0271137
1.4884276 0.73225766 0.67338306 1.1497667 1.6136258 2.4419742 0.42394242 0.33745575
0.28190863 1.1979306 0.32679513 0.525029 0.45733774 1.4691662 1.4490116 0.73878664
0.41842315 1.1022279 0.5528592 0.90882146 0.69192225 0.48481843 0.9563939 0.45850042
0.86033803 0.6776329 0.3715615 0.5832125 0.75176215 0.34084952 0.46313557 0.48033863
1.2358923 0.56328726 1.8524212 2.1709998 2.1856875 0.503997 0.992704 0.8955578
00000000: 0616 0c40 5c38 3b3f bcff 9b3f 3be0 443f
00000010: 0ef9 4f3f e5a5 233f 0e32 fb3e c335 3b3f
00000020: 1df4 273f c757 623f 5197 ce3e 98ff 6d3f
00000030: 9c7e 803e 6b5b b93f ea96 1e3f 3a92 4e3f
00000040: d6ee 923e 462e 2c3f af0a 273f 1869 aa3f
00000050: 8aa2 d53e cfda d63f d2c0 f13f 7678 833f
00000060: cc84 be3f 3d75 3b3f d562 2c3f 8e2b 933f
00000070: 4a8b ce3f 4e49 1c40 fb0e d93e 00c7 ac3e
00000080: 5456 903e ca55 993f b151 a73e 4d68 063f
00000090: 2c28 ea3e a30d bc3f 3679 b93f 1f21 3d3f
000000a0: 8f3b d63e ce15 8d3f 2e88 0d3f 86a8 683f
000000b0: d121 313f 1f3a f83e 3bd6 743f 91c0 ea3e
000000c0: 1d3f 5c3f 5a79 2d3f 4f3d be3e 6a4d 153f
000000d0: 7c73 403f d483 ae3e 1b20 ed3e f2ee f53e
000000e0: b831 9e3f 9833 103f 231c ed3f a9f1 0a40
000000f0: 4ee2 0b40 f305 013f d921 7e3f 4743 653f

lin.weight f4 [50, 64]
0.3294207 -0.51304007 -0.19678846 -0.49110556 0.04814547 0.20514125 -0.54583824 -0.4706987
-0.019384146 -0.639167 -0.15309678 0.15541264 -0.36210844 0.61040604 0.06606143 -0.5002364
-0.3271116 -0.16595644 -0.8019152 -0.20478493 -0.41449493 -0.21631877 -0.10084836 0.46646696
-0.48418587 -0.012604266 0.52144486 0.16016032 0.2837201 -0.4710584 0.41332096 0.31082562
-0.018967357 0.15799429 -0.08889412 -0.5598097 -0.014025926 -0.17391007 0.36050737 -0.5848032
0.55588645 0.16042668 -0.15134719 -0.6629272 0.24119076 -0.4257126 -0.20640093 -0.10051509
-0.66089123 0.1354838 -0.32992703 -0.3319367 0.44586268 -0.012974308 0.060248315 -0.3291006
0.06274098 0.0027435229 0.050579228 -0.6108627 0.088913634 0.3520066 -0.18743409 -0.7785985
0.11368906 -0.6962309 -0.12580313 -0.61146426 -0.15807891 -0.57371426 -0.4560288 0.033158388
0.086965196 0.41876322 0.19264898 0.38319665 -0.701768 0.3720074 0.0944115 -0.3971771
-0.4716314 -0.19115673 -0.0510258 0.34217852 -0.18937585 0.422926 0.01869137 0.3276888
0.8106961 -0.3810197 -0.23713459 0.4926299 0.47625855 -0.34525764 0.0029557056 -0.5186921
0.07984207 0.14625017 -0.19177502 -0.0076545905 0.032739874 -0.35859457 -0.31983656 0.19978507
-0.13420238 -0.041240484 -0.15033792 0.6509639 -0.16560555 -0.19393165 -0.51306796 -0.1957145
0.2866731 0.27881882 -0.17432559 -0.569323 0.12517974 0.03225355 0.8252627 -0.04897885
-0.39161727 -0.1294081 -0.38298815 -0.00013445146 0.008582771 0.7083245 0.17155345 -0.27300796
0.2725153 -0.29805228 -0.20558181 0.31842908 -0.31070304 -0.2587435 0.5303406 -0.03880933
0.13147762 0.28812796 -0.26125768 0.24048048 0.020346852 0.10597483 -0.50502753 -0.40345174
0.35243675 0.6323616 -0.61476636 0.0049388935 0.05333526 -0.3077405 -0.46205437 -0.115090504
0.42426866 0.121686086 0.17870341 -0.7233736 -0.32625166 -0.5206383 -0.5846347 0.04793722
0.21830982 -0.17490792 -0.67745936 -0.48817402 0.10692906 0.011312309 -0.048896614 0.40165707
0.40980175 -0.25701916 0.17980239 -0.16908824 -0.26789075 -0.39132765 0.33671337 -0.1537968
-0.7685154 0.096850984 -0.48995548 -0.33407217 0.37836775 -0.23711014 -0.050131228 -0.49625087
-0.34013805 0.27362007 -0.13001621 -0.0029609774 0.12760286 -0.9824898 -0.3869597 0.2452137
0.15949982 -0.3371652 0.097032435 0.050056722 -0.36776796 0.20458485 0.18585841 0.11190383
-0.03318563 0.6146889 -0.025324197 0.30892485 0.5175592 0.5438053 0.07898457 -0.32405397
0.22289085 -0.060808253 -0.34224468 0.12055047 -0.037663996 0.4085579 -0.013484275 0.6324616
0.13072038 -0.35793164 -0.072651505 0.07609497 -0.07438073 0.02503166 -0.45945662 0.0049147015
0.7558822 -0.6110817 -0.39745286 -0.3376 -0.04182541 0.2945037 -0.039388172 -0.1714809
0.22846487 -0.6546318 0.41557926 0.02387469 -0.40944365 0.36516562 -0.33731115 -0.1287755
-0.6441213 0.16219673 -0.07569812 0.17610589 -0.10633324 -0.062116582 -0.34455752 -0.3526218
-0.30724883 0.28234214 -0.05844219 -0.10527328 -0.50084764 0.2634731 0.17758328 -0.10828207
00000000: d4a9 a83e 9856 03bf ea82 49be 3072 fbbe
00000010: 2f34 453d 8c10 523e 0ebc 0bbf 6cff f0be
00000020: 80cb 9ebc 73a0 23bf 67c5 1cbe 7e24 1f3e
00000030: 4766 b9be 9243 1c3f 374b 873d 7e0f 00bf
00000040: 2c7b a7be 7cf0 29be 514a 4dbf 24b3 51be
00000050: ae38 d4be ab82 5dbe 9689 cebd c2d4 ee3e
00000060: 36e7 f7be 2082 4ebc 697d 053f 1101 243e
00000070: c343 913e 912e f1be ce9e d33e 8924 9f3e
00000080: 6e61 9bbc 41c9 213e 1f0e b6bd b04f 0fbf
00000090: ffcc 65bc 7b15 32be 6c94 b83e aab5 15bf
000000a0: 934e 0e3f e446 243e c2fa 1abe 99b5 29bf
000000b0: b6fa 763e 00f7 d9be c45a 53be dbda cdbd
000000c0: 2b30 29bf 44bc 0a3e 32ec a8be 9bf3 a9be
000000d0: 1d48 e43e 3192 54bc f0c6 763d e07f a8be
000000e0: 587e 803d adcc 333b 2a2c 4f3d 7f61 1cbf
000000f0: 5a18 b63d 363a b43e b9ee 3fbe 3b52 47bf
00000100: cfd5 e83d 303c 32bf 89d2 00be ec88 1cbf
00000110: 70df 21be f0de 12bf 9b7c e9be 17d1 073d
00000120: cf1a b23d 2268 d63e c645 453e 5a32 c43e
00000130: 11a7 33bf c177 be3e d15a c13d cc5a cbbe
00000140: ac79 f1be 97be 43be 6e00 51bd 0632 af3e
00000150: beeb 41be c289 d83e a51e 993c d4c6 a73e
00000160: c889 4f3f 0415 c3be 69d3 72be fc39 fc3e
00000170: 29d8 f33e 9cc5 b0be 83b4 413b 01c9 04bf
00000180: 3d84 a33d 9bc2 153e ac60 44be 5cd3 fabb
00000190: 3f1a 063d b599 b7be 9ec1 a3be 7594 4c3e
000001a0: 596c 09be c8eb 28bd 2ff2 19be 92a5 263f
000001b0: 8094 29be 0596 46be 6c58 03bf 6269 48be
000001c0: d1c6 923e 57c1 8e3e 6882 32be 27bf 11bf
000001d0: 1e2f 003e 4c1c 043d 6b44 533f 0c9e 48bd
000001e0: 0f82 c8be 8f83 04be 0617 c4be 8afb 0cb9
000001f0: c09e 0c3c c154 353f b5ab 2f3e b3c7 8bbe
00000200: 2087 8b3e 4f9a 98be 0a84 52be 2309 a33e
00000210: 7814 9fbe 077a 84be 67c4 073f 88f6 1ebd
00000220: 12a2 063e 8285 933e 91c3 85be 8440 763e
00000230: 71ae a63c 5509 d93d 7c49 01bf 3a91 cebe
00000240: 9772 b43e 73e2 213f 5461 1dbf 71d6 a13b
00000250: 1376 5a3d 2a90 9dbe 6492 ecbe 92b4 ebbd
00000260: be39 d93e 8e36 f93d 07fe 363e 032f 39bf
00000270: 750a a7be 8d48 05bf 9faa 15bf d259 443d
00000280: 9c8c 5f3e 101b 33be fa6d 2dbf f2f1 f9be
00000290: 9ffd da3d 4357 393c d147 48bd ffa5 cd3e
000002a0: 89d1 d13e 0498 83be 1e1e 383e 7825 2dbe
000002b0: fa28 89be 195c c8be b265 ac3e e97c 1dbe
000002c0: 6dbd 44bf cf59 c63d 72db fabe 820b abbe
000002d0: 6bb9 c13e 00cd 72be 6756 4dbd 9814 febe
000002e0: 9326 aebe ee17 8c3e f822 05be f50c 42bb
000002f0: 53aa 023e 7484 7bbf 951f c6be 4d19 7b3e
00000300: ec53 233e eba0 acbe f1b8 c63d 4708 4d3d
00000310: 154c bcbe b17e 513e ab51 3e3e d62d e53d
00000320: a8ed 07bd 405c 1d3f b174 cfbc 662b 9e3e
00000330: c27e 043f d336 0b3f aac2 a13d 67ea a5be
00000340: 803d 643e 1312 79bd b23a afbe 2ae3 f63d
00000350: 9045 1abd 802e d13e 26ed 5cbc 01e9 213f
00000360: 90db 053e d142 b7be 50ca 94bd aed7 9b3d
00000370: ed54 98bd 320f cd3c e63d ebbe 810b a13b
00000380: 7f81 413f da6f 1cbf f17e cbbe e8d9 acbe
00000390: 1f51 2bbd 30c9 963e 7e55 21bd b098 2fbe
000003a0: b2f2 693e f395 27bf cec6 d43e db94 c33c
000003b0: 99a2 d1be fdf6 ba3e 0cb4 acbe badd 03be
000003c0: 22e5 24bf e616 263e 9e07 9bbd 1a55 343e
000003d0: 3ec5 d9bd f56d 7ebd d869 b0be d88a b4be
000003e0: b84f 9dbe 268f 903e 1461 6fbd 8499 d7bd
000003f0: 8d37 00bf f2e5 863e 64d8 353e fdc2 ddbd

lin.bias f4 [50]
-0.14208178 -0.0793426 0.18255733 0.11216026 -0.120244 -0.03916164 0.18571939 0.14301397
0.20796964 0.14276628 -0.21552403 -0.0830884 0.06610527 0.020305907 0.21132751 -0.095899865
-0.050080363 -0.21456823 0.13756935 -0.17163911 -0.1359941 -0.138844 -0.01565129 0.05942253
0.052226204 -0.26220047 0.21868205 -0.15138985 -0.008184906 0.34351587 -0.42860198 0.025263522
-0.092980556 0.6556354 -0.04567238 -0.020649847 -0.09895975 -0.16815358 0.07596535 -0.08837048
-0.14594613 0.06007816 -0.22377539 0.32008043 0.18373318 -0.26976195 -0.08500221 0.1208032
-0.14210892 -0.18014523
00000000: e37d 11be 607e a2bd 4ff0 3a3e 47b4 e53d
00000010: 7c42 f6bd f567 20bd 392d 3e3e 4172 123e
00000020: fef5 543e 5331 123e 55b2 5cbe 402a aabd
00000030: 3362 873d 9358 a63c 3d66 583e 2667 c4bd
00000040: 1121 4dbd c6b7 5bbe fbde 0c3e 2ac2 2fbe
00000050: 0a42 0bbe 1f2d 0ebe 2237 80bc 0a65 733d
00000060: 25eb 553d 243f 86be 30ee 5f3e f105 1bbe
00000070: fc19 06bc 50e1 af3e b871 dbbe 72f5 ce3c
00000080: 976c bebd b9d7 273f f612 3bbd de29 a9bc
00000090: 69ab cabd 7430 2cbe b993 9b3d 95fb b4bd
000000a0: e772 15be 8414 763d 6025 65be 95e1 a33e
000000b0: 8d24 3c3e 3d1e 8abe a415 aebd ab67 f73d
000000c0: 0085 11be fe77 38be

conv.0.weight f4 [8, 1, 5, 5]
-0.3673831 0.49734488 0.12364114 0.47869137 0.68293464 -0.37902993 -0.19460209 0.30771756
0.10889996 0.26147646 -0.22914538 0.09466085 -0.2892635 -0.21901514 -0.091090836 -0.34623152
0.10257423 0.15561233 0.3011399 -0.02154032 0.07180022 0.0010211744 0.33933538 0.12334729
-0.18609764 0.11668217 0.46652663 0.46125463 0.6042847 0.25305802 0.14254509 -0.0072731827
0.39319766 0.31880376 0.57155794 -0.5338483 -0.2863922 -0.10098985 -0.2565058 -0.2015741
-0.035713624 0.095508695 -0.6302714 -0.11983538 -0.014480412 0.20645963 -0.16075413 0.0775677
-0.57729805 -0.240969 -0.4591319 -0.36941987 -0.027826967 -0.75942665 -0.108325616 -0.31393084
0.24578816 0.10051087 -0.19299507 0.212528 0.1916758 -0.1479105 0.050379355 0.36686313
0.1629469 0.14170839 0.4284077 -0.14225915 0.1371876 -0.17935477 0.3652391 0.15328385
0.42248204 0.35586786 0.30724087 0.2538076 -0.24719964 0.07770112 -0.26243678 0.03025073
-0.18052709 -0.14934243 -0.10877025 0.3584915 0.2713876 0.28089845 0.071866795 -0.046761613
0.9360432 0.24588495 0.24351129 0.001917315 -0.33457938 0.7730533 -0.013492653 -0.27888167
0.4185342 0.32682014 -0.016390001 0.58225274 0.18433724 0.4880053 -0.13081217 -0.48969457
-0.0980148 -0.020333376 0.33428875 0.041723754 -0.2674614 0.1094235 0.10481055 -0.06526893
0.20898022 -0.11944292 -0.15716891 0.17469442 -0.12589999 -0.27378282 -0.3773454 0.11543926
0.41905016 -0.020251717 -0.2901207 0.1069362 -0.1388194 -0.048699066 -0.27559763 -0.109296724
-0.13381906 0.62030613 -0.017889608 0.16746151 -0.61579174 0.49033704 0.014839459 -0.2695268
-0.2210304 0.10183222 0.37316266 0.5697971 -0.24842353 -0.19091156 -0.341386 -0.012409996
0.6911709 -0.22147378 -0.8932822 0.12806681 0.070925884 0.3489617 -0.17991912 0.23014495
0.12407321 0.19489235 -0.12069154 0.039842423 -0.4436288 -0.06787143 -0.21596108 -0.07213315
-0.29530552 0.09759969 -0.08944911 -0.13302714 -0.7674262 0.23018208 -0.3572284 0.13583583
-0.08644831 0.64485425 0.23107362 0.6261194 0.08724761 0.022875877 0.13950028 0.11724593
0.026538929 -0.6599082 -0.13396235 -0.17176601 -0.16439375 -0.3412449 -0.11170514 -0.20764668
-0.14842455 -0.51503867 -0.33534536 0.08147197 0.015264245 -0.3331183 -0.0655711 -0.16948134
-0.10618331 0.06468898 0.18211192 0.4842774 0.33908558 -0.09466859 0.09851288 0.31883436
00000000: a319 bcbe fda3 fe3e 9137 fd3d 0917 f53e
00000010: ced4 2e3f 3610 c2be c545 47be 288d 9d3e
00000020: f106 df3d 3ee0 853e 16a5 6abe 8cdd c13d
00000030: 581a 94be 8145 60be d58d babd 4245 b1be
00000040: 7012 d23d d758 1f3e 022f 9a3e 5375 b0bc
00000050: fe0b 933d edd8 853a 5ebd ad3e 819d fc3d
00000060: 6190 3ebe 10f7 ee3d 94dc ee3e 9129 ec3e
00000070: 67b2 1a3f d290 813e 57f7 113e e153 eebb
00000080: 3451 c93e 3f3a a33e 9f51 123f 48aa 08bf
00000090: 00a2 92be c4d3 cebd ba54 83be 7169 4ebe
000000a0: 7348 12bd 109a c33d 7759 21bf 406c f5bd
000000b0: 403f 6dbc 276a 533e bb9c 24be d0db 9e3d
000000c0: cec9 13bf 94c0 76be 5613 ebbe 9a24 bdbe
000000d0: 61f5 e3bc c969 42bf d2d9 ddbd 8bbb a0be
000000e0: e4af 7b3e a5d8 cd3d 80a0 45be f1a0 593e
000000f0: a946 443e da75 17be 955a 4e3d 7cd5 bb3e
00000100: 8ddb 263e 011c 113e 4158 db3e 62ac 11be
00000110: e87a 0c3e c7a8 37be 9f00 bb3e 71f6 1c3e
00000120: 914f d83e 5034 b63e ad4e 9d3e 12f3 813e
00000130: e721 7dbe c421 9f3d 1d5e 86be 61d0 f73c
00000140: 18dc 38be 39ed 18be f0c2 debd 338c b73e
00000150: 51f3 8a3e ecd1 8f3e e62e 933d 1b89 3fbd
00000160: 87a0 6f3f 44c9 7b3e 065b 793e 6a4e fb3a
00000170: fd4d abbe d2e6 453f 4a10 5dbc 94c9 8ebe
00000180: 1d4a d63e f854 a73e 5344 86bc 840e 153f
00000190: e7c2 3c3e d5db f93e a0f3 05be 3fb9 fabe
000001a0: fcbb c8bd 2e92 a6bc e527 ab3e 87e6 2a3d
000001b0: b3f0 88be 6e19 e03d eaa6 d63d b7ab 85bd
000001c0: e9fe 553e 7d9e f4bd e3f0 20be 18e3 323e
000001d0: edeb 00be 432d 8cbe 6b33 c1be 6b6b ec3d
000001e0: be8d d63e eee6 a5bc b38a 94be 5e01 db3d
000001f0: ac26 0ebe ac78 47bd 221b 8dbe f6d6 dfbd
00000200: dd07 09be 62cc 1e3f 3a8d 92bc 087b 2b3e
00000210: 87a4 1dbf 750d fb3e 3421 733c 6bff 89be
00000220: cb55 62be 698d d03d 2d0f bf3e 39de 113f
00000230: bd62 7ebe 527e 43be 25ca aebe 4c53 4bbc
00000240: 93f0 303f 06ca 62be 24ae 64bf f223 033e
00000250: 9741 913d 1cab b23e b83c 38be 1eab 6b3e
00000260: 181a fe3d dc91 473e 202d f7bd cf31 233d
00000270: 5023 e3be 2d00 8bbd e724 5dbe 8cba 93bd
00000280: 4932 97be 59e2 c73d 1831 b7bd 4438 08be
00000290: 0b76 44bf dab4 6b3e a4e6 b6be 8c18 0b3e
000002a0: d00b b1bd 2b15 253f 909e 6c3e 5c49 203f
000002b0: e0ae b23d 3166 bb3c 29d9 0e3e a21e f03d
000002c0: 2b68 d93c beef 28bf 6d2d 09be 6ee3 2fbe
000002d0: d656 28be a7b7 aebe aac5 e4bd 55a1 54be
000002e0: 9bfc 17be 93d9 03bf 63b2 abbe c7da a63d
000002f0: e216 7a3c 7b8e aabe 244a 86bd 848c 2dbe
00000300: a376 d9bd a87b 843d 8c7b 3a3e 35f3 f73e
00000310: a09c ad3e 9be1 c1bd 1fc1 c93d 423e a33e

conv.0.bias f4 [8]
0.15357575 -0.06755398 0.08391501 0.31036568 0.048810158 -0.12480906 -0.035916716 0.17080583
00000000: f642 1d3e be59 8abd a2db ab3d 40e8 9e3e
00000010: 29ed 473d e49b ffbd 681d 13bd b9e7 2e3e

conv.2.weight f4 [8]
0.75974494 1.1048546 0.9702142 0.9091893 0.9444767 1.2893343 0.8845982 1.0512826
00000000: a57e 423f e06b 8d3f f55f 783f a1c0 683f
00000010: 3ac9 713f e808 a53f 0775 623f 6e90 863f
