cnn-150.pt (torch, 124107 bytes, 50 tensors)

conv1.weight f4 [8, 1, 5, 5]
0	0x3d9b5a5b	0.07585593
1	0xbcdd5e43	-0.027022487
2	0xbdea8278	-0.11450666
3	0xbe568f36	-0.20953068
4	0xbd02d1ea	-0.03193847
5	0x3d68c55c	0.05682884
6	0xbe327364	-0.1742683
7	0xbd63bbc2	-0.05559898
8	0xbc9645ba	-0.018343795
9	0xbeb970db	-0.36218914
10	0xbeb09a32	-0.34492642
11	0x3e0833e0	0.13301039
12	0x3e8bf91b	0.2733849
13	0x3c9dc3ac	0.019258343
14	0xbed0e7b0	-0.40801764
15	0x3d490ed2	0.0490864
16	0x3f77679f	0.9664249
17	0x3ec5b9fd	0.3861846
18	0xbde21044	-0.11038259
19	0x3f0631d9	0.5241981
20	0xbdb2a887	-0.0872355
21	0xbd6699e3	-0.0562991
22	0x3e08f994	0.13376456
23	0xbe8c8be4	-0.27450478
24	0x3db3f2cf	0.087865464
25	0x3d531363	0.05153216
26	0x3db86579	0.090037294
27	0xbcc6fe3e	-0.024291154
28	0x3ed686d9	0.41899756
29	0x3d077174	0.03306718
30	0xbef49e82	-0.47777182
31	0x3ccdf922	0.02514321
32	0xbe3ac34e	-0.18238565
33	0x3d38633f	0.045016523
34	0x3de52bc5	0.11189989
35	0xbe71fb55	-0.23631032
36	0xbed9e399	-0.42556456
37	0xbf0ea7a4	-0.5572455
38	0xbe2011ab	-0.1563174
39	0x3d822894	0.06355396
40	0xbf1e16d7	-0.617536
41	0x3d6dde98	0.05807361
42	0xbd9be916	-0.07612817
43	0x3e21ecad	0.15812941
44	0x3e0e74c3	0.13911729
45	0xbba93b04	-0.005164506
46	0xbe2becf5	-0.1678961
47	0x3d9075be	0.070537075
48	0xbe55c52b	-0.20875995
49	0x3d3b9828	0.045799404
50	0x3e83ac4d	0.25717393
51	0xbf00ffde	-0.5039042
52	0xbe6ae258	-0.22937906
53	0x3c120f98	0.008914851
54	0xbdc89be6	-0.0979536
55	0xbee855e6	-0.45378035
56	0x3e0b2103	0.13586812
57	0xbd881327	-0.06644278
58	0xbd51c389	-0.051211867
59	0xbe982802	-0.29718024
60	0xbe38ddf0	-0.18053412
61	0xbeced82f	-0.4039931
62	0x3dc8ee89	0.09811122
63	0x3d8560b1	0.06512583
64	0xbe995331	-0.29946283
65	0xbdd4b543	-0.103861354
66	0x3cfe82fd	0.03106832
67	0x3ea3d7b0	0.32000494
68	0x3ea918d0	0.33026743
69	0x3e9b0ca2	0.30283076
70	0x3f2d9b1a	0.6781479
71	0xbce9aa7b	-0.028523674
72	0x3e19b645	0.15010937
73	0x3e91de94	0.28490126
74	0x3e720919	0.23636283
75	0x3ea242f2	0.316917
76	0x3f3ced85	0.73799926
77	0x3eded615	0.43522707
78	0x3ef4a31e	0.477807
79	0x3e287012	0.16449001
80	0xbee1555e	-0.44010442
81	0xbdc60250	-0.0966841
82	0x3d89801e	0.067138895
83	0x3c807c72	0.01568434
84	0x3cfcb6fa	0.030848969
85	0xbd70432d	-0.058657814
86	0xbd4bff2c	-0.049803898
87	0x3df236c1	0.1182685
88	0xbe5b9ee7	-0.21447335
89	0xbdd40be1	-0.10353828
90	0x3e340dec	0.17583436
91	0xbeb53437	-0.353914
92	0xbcbd6af9	-0.023122298
93	0xbe8d12ff	-0.27553555
94	0x3c907e9f	0.017638503
95	0x3e3ea307	0.18616877
96	0x3e8f4002	0.27978522
97	0xbe051c1b	-0.12999003
98	0xbe13dec9	-0.14440455
99	0xbeb44254	-0.35206854
100	0x3cf35feb	0.029708823
101	0xbeb740d0	-0.35791636
102	0xbe8f8b94	-0.28036177
103	0xbe47b40b	-0.19502275
104	0xbde09186	-0.109652564
105	0xbe159ed6	-0.14611372
106	0x3e3f1614	0.18660766
107	0x3f0cad82	0.5495225
108	0x3e40cda5	0.18828447
109	0xbf21b55d	-0.63167363
110	0x3ee6e1a6	0.4509403
111	0x3e629d9d	0.22130437
112	0xbddc082c	-0.10743746
113	0x3d84a8ab	0.06477483
114	0xbe97e8c4	-0.29669774
115	0x3dc188bb	0.094499074
116	0xbe85fdc7	-0.2617018
117	0x3f0dd9cb	0.5541045
118	0xbe5765bf	-0.21034907
119	0xbde59f38	-0.11212009
120	0xbeec9528	-0.46207547
121	0x3deeda02	0.116626754
122	0xbe966d98	-0.29380488
123	0xbf3a355d	-0.72737676
124	0xbf1bdfab	-0.60888165
125	0xbdebd6ca	-0.11515577
126	0x3f06f29e	0.52713954
127	0x3eb921a5	0.3615848
128	0x3eb8cb18	0.36092448
129	0x3ea1c2c1	0.31593898
130	0xbda9ff8c	-0.08300695
131	0xbb346b9f	-0.0027529967
132	0xbdf320a2	-0.118714586
133	0x3f2fcece	0.68674934
134	0x3f3795c9	0.7171293
135	0x3c167029	0.0091820145
136	0xbd4a4b32	-0.049388118
137	0xbe8fd8c9	-0.2809508
138	0xbb9b8e10	-0.00474716
139	0x3c00c03e	0.007858334
140	0xbe330af3	-0.17484646
141	0x3e96918a	0.29407912
142	0xbdf212ae	-0.11819969
143	0x3e21c22f	0.15796731
144	0x3e957762	0.29192644
145	0xbdaaebf1	-0.083457835
146	0x3d3e6615	0.04648407
147	0x3e6cba19	0.23117866
148	0x3e0f06fe	0.13967511
149	0xbe9ff1f5	-0.31239286
150	0xbe713699	-0.23555984
151	0xbf2263f5	-0.6343377
152	0x3dd5a5f1	0.104320414
153	0xbca16c6f	-0.019705025
154	0x3ec251a1	0.37952903
155	0xbdc82c76	-0.09774105
156	0xbd9f53f5	-0.077796854
157	0xbd6d3a87	-0.057917144
158	0x3ef1846b	0.4717134
159	0x3f296449	0.6616865
160	0xbe5b632d	-0.21424551
161	0xbe004a12	-0.12528256
162	0x3e1615c6	0.14656743
163	0xbd85f2e3	-0.065404676
164	0x3e61d45f	0.2205367
165	0xbe0a802b	-0.13525455
166	0xbdcfcd47	-0.101465754
167	0xbe73fa3a	-0.23825923
168	0x3e819a05	0.2531282
169	0x3ecfc326	0.40578574
170	0xbd586f99	-0.052840803
171	0xbec97a12	-0.39350945
172	0xbe59d9e2	-0.21274522
173	0x3e6714f6	0.2256659
174	0x3deef8f4	0.11668578
175	0x3e762127	0.24036084
176	0x3eb93687	0.36174414
177	0x3d2713dd	0.040790427
178	0xbe410c8b	-0.18852441
179	0xbed4deb4	-0.4157616
180	0x3cb70edc	0.022345953
181	0x3c41e289	0.011833795
182	0x3ea75a1d	0.32685938
183	0xbe0b7ac9	-0.13621058
184	0xbe851218	-0.25990367
185	0x3e78e713	0.24306898
186	0x3cab5cf7	0.020918353
187	0x3e01a894	0.12661964
188	0xbe0b48b5	-0.13601954
189	0xbe3490e9	-0.17633404
190	0x3e0743e6	0.13209495
191	0x3ed2a24e	0.41139454
192	0x3e673606	0.22579202
193	0xbe35a6bd	-0.17739387
194	0xbe53120d	-0.20612355
195	0x3ddc322c	0.10751757
196	0xbdd70e02	-0.10500719
197	0x3e12bdce	0.14330217
198	0xbe527bb5	-0.20555003
199	0xbed27e4e	-0.41111988

conv1.bias f4 [8]
0	0x3db68c67	0.08913498
1	0xbd1a1b59	-0.037623737
2	0x3e887f46	0.26659602
3	0xbe1de309	-0.15418638
4	0x3dd1bcbc	0.10241076
5	0xbe16d0a0	-0.14728022
6	0xbe7e2b05	-0.24821098
7	0xbd1749f1	-0.03693575

bn1.weight f4 [8]
0	0x3f878618	1.0587797
1	0x3f69fa0a	0.91397154
2	0x3f8a0040	1.0781326
3	0x3f6ec65d	0.9327143
4	0x3f7731d5	0.9656041
5	0x3f5904e4	0.8477309
6	0x3f823c4b	1.017465
7	0x3fa47eea	1.2851231

bn1.bias f4 [8]
0	0xbdd8cbca	-0.10585745
1	0x3cab2c0b	0.020895025
2	0xbd9351b0	-0.07193315
3	0x3d21009f	0.039307233
4	0xbe508d48	-0.20366395
5	0xbdee1ea3	-0.11626937
6	0xbdb826c0	-0.08991766
7	0xbe13bbcd	-0.14427109

bn1.running_mean f4 [8]
0	0x3e90cde9	0.28282097
1	0x3f3e94c1	0.7444573
2	0x3ebb157f	0.36539838
3	0x3eb63a6c	0.35591447
4	0x3f738383	0.95122546
5	0x3f890cbc	1.0707011
6	0x3e1b6056	0.15173468
7	0x3e04d2b2	0.12970999

bn1.running_var f4 [8]
0	0x3e508fdd	0.2036738
1	0x3f85db6e	1.045759
2	0x3e9deccf	0.30844733
3	0x3e9c2ebc	0.30504405
4	0x3fd7a28e	1.6846483
5	0x400de34b	2.2169979
6	0x3e3df64a	0.18550983
7	0x3dc928c7	0.09822231

conv2.weight f4 [16, 8, 3, 3]
0	0xbe92c354	-0.2866465
1	0xbc4793db	-0.012181248
2	0xbe853244	-0.26014912
3	0xbd86dfc8	-0.06585652
4	0x3e8c0cc4	0.2735349
5	0xbdb076ac	-0.08616385
6	0x3e3f7478	0.18696773
7	0xbdc94e48	-0.09829384
8	0xbdc12121	-0.09430147
9	0xbe01863b	-0.12648861
10	0xbd80abd5	-0.06282774
11	0xbd0ca17e	-0.0343337
12	0x3db14af6	0.08656876
13	0x3e26bfec	0.1628415
14	0xbd907e2e	-0.07055317
15	0xbdcb1d9d	-0.09917758
16	0xbcdb14a1	-0.026743235
17	0x3d9f2cf0	0.07772243
18	0xbda499e6	-0.08037166
19	0x3e9348f4	0.28766596
20	0x3d78fac2	0.060786016
21	0x3cb6597a	0.022259463
22	0x3ea67b51	0.32515958
23	0x3ded5181	0.11587811
24	0x3e7bc708	0.24587643
25	0x3b4a3f46	0.0030860468
26	0xbb0c23b0	-0.0021383576
27	0xbe52dbe7	-0.20591699
28	0xba2116d0	-0.0006145062
29	0xbdfa09c4	-0.12208894
30	0xbe81a4dc	-0.2532109
31	0xbe0cc908	-0.13748562
32	0x3d2657de	0.04061114
33	0xbebfb3a8	-0.37441754
34	0xbddfbe5a	-0.109249786
35	0xbe98c918	-0.29840922
36	0x3d0a4fe6	0.033767603
37	0x3dd3aa24	0.10335186
38	0x3d139004	0.036026016
39	0x3ec7520b	0.3892978
40	0x3e9ba336	0.30397958
41	0x3e4afe54	0.19823581
42	0xbd2d107e	-0.042252056
43	0xbea59e2b	-0.32347235
44	0xbe513088	-0.2042867
45	0x3e16554a	0.14680973
46	0x3d0f02a7	0.03491464
47	0xbd0c1076	-0.034195386
48	0xbda5f30b	-0.081029974
49	0xbd7afa85	-0.06127407
50	0xbef7841d	-0.48342982
51	0x3e99696e	0.2996325
52	0x3d57750a	0.05260185
53	0x3e268afc	0.16263956
54	0xbe28a645	-0.16469677
55	0xbec61bf7	-0.3869321
56	0xbe8db36c	-0.2767595
57	0x3c15bed8	0.009139739
58	0xbea80a01	-0.32820132
59	0xbed13d98	-0.40867305
60	0xbd2b4dfe	-0.041822426
61	0x3dce6978	0.1007871
62	0x3d27d25b	0.040972095
63	0x3b46316e	0.0030241865
64	0x3d94890e	0.072527036
65	0x3dfb26f0	0.12263286
66	0x3db9f963	0.0908077
67	0x3c007d3f	0.007842361
68	0x3e0d4ecb	0.13799588
69	0xbe30ab30	-0.17252803
70	0xbce525f1	-0.027972193
71	0xbe16200a	-0.1466066
72	0x3ec06b2c	0.37581766
73	0x3e81fa7b	0.25386414
74	0x3e8c8d63	0.2745162
75	0xbe1be2dc	-0.15223259
76	0xbea87006	-0.32897967
77	0xbe345e92	-0.176142
78	0xbe041eec	-0.12902421
79	0xbe5a7b48	-0.2133609
80	0xbdf9ee39	-0.122036405
81	0x3e8f69cb	0.280104
82	0x3e24f75f	0.1610999
83	0xbc4edef5	-0.012626399
84	0xbe012ef7	-0.12615572
85	0x3dd79cb7	0.10527938
86	0xbd179cc8	-0.037014753
87	0x3ec16060	0.3776884
88	0xbcc10c87	-0.023565544
89	0xbe8939c2	-0.26801878
90	0xbcf47f94	-0.02984599
91	0xbddf37e8	-0.10899335
92	0x3cc80149	0.024414675
93	0x3d82e35f	0.06391024
94	0xbde90ae3	-0.113790296
95	0xbe51982f	-0.2046821
96	0xbe6b2eea	-0.22967115
97	0xbd8fa485	-0.070138015
98	0xbd1a5bb2	-0.037685104
99	0xb7f299cd	-2.8920267e-05
100	0xbde82571	-0.113352664
101	0xbe2186d0	-0.15774083
102	0xbd2603ef	-0.040531095
103	0x3ec27148	0.37977052
104	0x3e183715	0.14864762
105	0xbdd5e154	-0.104433686
106	0x3e1e69b6	0.15470013
107	0x3e9b265f	0.30302712
108	0xbdcfe0c9	-0.10150296
109	0x3d214917	0.039376345
110	0x3ce59c94	0.028028764
111	0x3db7b51d	0.089700915
112	0x3e001ca9	0.12510933
113	0x3d40a1dd	0.047029365
114	0xbcb2089c	-0.02173262
115	0xbe7dba9a	-0.24778214
116	0xbe810efd	-0.25206748
117	0xbdf96a43	-0.12178471
118	0xbd2e9a63	-0.042627703
119	0x3e4e99ad	0.2017581
120	0x3e92e031	0.2868667
121	0xbe25984f	-0.16171382
122	0x3d8b4a00	0.06801224
123	0xbe9dd860	-0.30829144
124	0xbd3bb05c	-0.045822486
125	0xbd1d4fc1	-0.038406137
126	0xbdb30eed	-0.08743081
127	0x3cb467ba	0.022022117
128	0x3e2ea6b8	0.17055786
129	0x3e74816d	0.23877497
130	0x3ed7d51a	0.4215477
131	0x3dc57151	0.09640754
132	0xbbce99db	-0.006304962
133	0xbed0d1ea	-0.40785152
134	0xbe8cc2a5	-0.27492252
135	0x3dcbc9fb	0.09950634
136	0x3e27e474	0.16395742
137	0xbaeb500e	-0.0017952935
138	0xbce08a74	-0.02740977
139	0xbe011afb	-0.12607948
140	0xbe00f4d9	-0.12593402
141	0x39ca5766	0.0003859356
142	0x3cf042a8	0.02932866
143	0xbdafda00	-0.08586502
144	0xbcbede07	-0.02329923
145	0xbd770b22	-0.06031335
146	0x3e3079e3	0.17233996
147	0x3e821637	0.25407574
148	0xbe988c8c	-0.2979473
149	0x3e066028	0.13122618
150	0x3cd6db2b	0.026227554
151	0xbeeccb39	-0.46248797
152	0x3e68a0de	0.22717616
153	0xbdeafda4	-0.11474159
154	0xbe7f398c	-0.24924296
155	0xbd726421	-0.05917752
156	0x3dcc12a7	0.09964495
157	0x3d48c992	0.049020357
158	0x3de16d18	0.11007136
159	0x3cb6731f	0.02227169
160	0x3ce184bd	0.027529115
161	0xbd116ba3	-0.03550304
162	0xbe11643b	-0.14198391
163	0xbd9313a6	-0.07181482
164	0x3ca1bf45	0.019744525
165	0x3c2a0f96	0.010379693
166	0x3eac3650	0.33635187
167	0xbd9d54fb	-0.07682224
168	0x3da8ce48	0.0824247
169	0x3eb7852e	0.35843796
170	0x3dd92b8c	0.10604009
171	0x3d1bb800	0.038017273
172	0xbd5a4847	-0.053291585
173	0xbd8f643a	-0.070015386
174	0xbdc940f2	-0.098268405
175	0xbdd4a3ff	-0.10382842
176	0xbda23a88	-0.0792132
177	0x3d2a8ffe	0.041641228
178	0xbcd775ca	-0.026301283
179	0x3e82bc49	0.25534275
180	0x3e567996	0.20944819
181	0x3e0a759b	0.13521425
182	0xbe5245c2	-0.20534423
183	0xbdf16f57	-0.117888145
184	0xbe9e257c	-0.30887973
185	0x3e2c3ac2	0.1681929
186	0x3dcb11cd	0.099155046
187	0x3dc5a6c3	0.09650948
188	0x3c586d3e	0.013209639
189	0x3cb904b3	0.022585249
190	0x3e69b037	0.22821127
191	0xbe230d5d	-0.15923066
192	0xbd182fc2	-0.03715492
193	0x3d57597e	0.05257558
194	0xbe9a31a6	-0.30116004
195	0x3d315928	0.043297917
196	0x3e0b15cf	0.13582538
197	0x3d9c957c	0.076456994
198	0xbe3195b1	-0.17342259
199	0x3e4cd197	0.20001827
200	0xbe2f1112	-0.17096356
201	0xbe8ad24d	-0.27113572
202	0x3e97a5a4	0.2961856
203	0xbc6c0a04	-0.014406685
204	0x3d9ee091	0.077576764
205	0x3e120453	0.14259462
206	0xbe6866d8	-0.22695482
207	0x3e2eb96d	0.17062922
208	0x3deab093	0.1145946
209	0xbcfaa949	-0.0305983
210	0x3d841b9a	0.06450577
211	0xbed37047	-0.41296598
212	0x3db6e67c	0.0893068
213	0x3e3620db	0.17785971
214	0x3e1f77c6	0.15573034
215	0x3ddf442b	0.10901674
216	0x3e019710	0.12655282
217	0xbe14ab51	-0.14518477
218	0xbca6d55c	-0.02036541
219	0x3e1ec5d1	0.15505148
220	0x3dd9a3bc	0.10626933
221	0xbd2f4065	-0.04278602
222	0xbd72cef5	-0.0592794
223	0x3d78917a	0.060685612
224	0x3e4ec36c	0.20191735
225	0x3e1d95a8	0.1538912
226	0xbde699d5	-0.1125981
227	0x3d32699a	0.04355774
228	0xbbbbc22e	-0.005729935
229	0x3cf2bdc5	0.029631505
230	0x3c6814c4	0.014165107
231	0xbd2d917b	-0.04237507
232	0xbd7a7a05	-0.061151523
233	0x3db29b47	0.08721023
234	0x3e3e178f	0.18563674
235	0xbca2f2b8	-0.019891128
236	0xbd273be0	-0.040828586
237	0x3e68d908	0.22739041
238	0x3e08d7aa	0.1336352
239	0xbc7e7aab	-0.015532176
240	0xbe0b5f47	-0.13610564
241	0x3be4d55f	0.0069834436
242	0x3d218237	0.039430823
243	0xbe20c68d	-0.15700741
244	0xbdec0b72	-0.115256205
245	0xbd2700a8	-0.04077211
246	0xbe9bec4b	-0.30453715
247	0x3d192c43	0.037395727
248	0x3d73ef39	0.059554312
249	0x3e4a9947	0.19785033
250	0x3df85272	0.121251
251	0x3d983b33	0.07433166
252	0x3dde21df	0.10846304
253	0x3e44bb57	0.1921209
254	0xbdb63b3d	-0.088980176
255	0x3e1eca4c	0.15506858

conv2.bias f4 [16]
0	0x3d9c48ba	0.07631059
1	0xbdd6672d	-0.10468898
2	0xbe688e9d	-0.22710653
3	0x3d49e9da	0.049295284
4	0xbe7d29dc	-0.24723
5	0xbd43f9a3	-0.047845494
6	0x3dc7591b	0.097337924
7	0xbe9a2d1a	-0.30112535
8	0x3d342cb7	0.043987956
9	0x3dac6912	0.08418478
10	0x3e52dcae	0.20591995
11	0xbb9b4f1a	-0.0047396543
12	0xbdd76cac	-0.105187744
13	0xbe09ebd7	-0.13468872
14	0x3d89fd3f	0.06737756
15	0xbd3844f2	-0.044987626

bn2.weight f4 [16]
0	0x3f71394f	0.9422807
1	0x3f873187	1.056199
2	0x3f6a7d1d	0.9159716
3	0x3f7f80d8	0.99805975
4	0x3f8d3689	1.1032268
5	0x3f9ac562	1.2091486
6	0x3f842448	1.0323572
7	0x3f8b00ad	1.0859581
8	0x3f831421	1.0240518
9	0x3f6f3c40	0.9345131
10	0x3f376a9d	0.71647054
11	0x3f7c923d	0.9866064
12	0x3f7818cb	0.9691283
13	0x3f57c0fa	0.84278834
14	0x3f542a92	0.8287746
15	0x3f820fa2	1.0161021

bn2.bias f4 [16]
0	0xbb44cc51	-0.0030029009
1	0x3e867ffc	0.2626952
2	0x3eb180b6	0.3466851
3	0xbdd16989	-0.10225207
4	0x3ccae9fe	0.02476978
5	0x3da82021	0.08209253
6	0x3e32a91f	0.17447327
7	0x3e88fa71	0.26753572
8	0xbdea15f6	-0.1142997
9	0x3d8ab6ed	0.067731716
10	0x3eb82514	0.35965788
11	0xbe9f4291	-0.31105474
12	0xbe4736aa	-0.19454446
13	0x3e72a3b4	0.2369526
14	0xbe0d0ebb	-0.1377515
15	0x398af24f	0.00026501945

bn2.running_mean f4 [16]
0	0x3f660b2f	0.89860815
1	0x3f126738	0.5718875
2	0x3eb63e24	0.35594285
3	0x3fabcbe6	1.34216
4	0x3ee0e507	0.43924734
5	0x3f67c921	0.90541273
6	0x3fc2d398	1.5220823
7	0x3ecab931	0.39594415
8	0x3fb3a62f	1.403509
9	0x3f2200bb	0.63282365
10	0x3f745276	0.95438325
11	0x3f70b535	0.940265
12	0x3f0dcbcc	0.55389094
13	0x3f06b419	0.5261856
14	0x3f4d8bdc	0.80291533
15	0x3ecc84e9	0.39945152

bn2.running_var f4 [16]
0	0x3f912b76	1.1341388
1	0x3f6d03d1	0.9258395
2	0x3f4eb39d	0.8074282
3	0x3fe2f137	1.7729863
4	0x3f7f1217	0.9963698
5	0x3fef2791	1.868395
6	0x3fdd1e56	1.7274883
7	0x3f2d669c	0.67734694
8	0x40442d3e	3.0652614
9	0x3f53ba95	0.82706577
10	0x3f8dcf0a	1.1078808
11	0x3fadfa5a	1.3592026
12	0x3fc188f2	1.5119917
13	0x3f96c178	1.1777792
14	0x3f205479	0.62628895
15	0x3f2f6866	0.68518674

conv3.weight f4 [32, 16, 3, 3]
0	0x3bc666d4	0.0060547385
1	0x3d2f0a7f	0.04273462
2	0x3dbe2394	0.0928413
3	0xbd78d47c	-0.060749516
4	0x3d2e1c62	0.042507537
5	0x3cb37999	0.021908568
6	0xbdb55164	-0.08853415
7	0xbcf2648d	-0.029588962
8	0xbdebaabc	-0.115071744
9	0x3d13b916	0.036065184
10	0x3a836c20	0.0010026731
11	0x3c6acc0b	0.014330874
12	0xbe604298	-0.21900403
13	0xbef94d7e	-0.48691934
14	0xbef8a9f0	-0.48567152
15	0xbc0ad0a6	-0.008472597
16	0x3d604f82	0.054763325
17	0xbd9e9eee	-0.07745157
18	0xbe562947	-0.20914184
19	0xbdd3fa8a	-0.10350521
20	0xbd308f5f	-0.04310548
21	0xbdb8ba60	-0.09019923
22	0xbc9a1aa8	-0.018811539
23	0x3c0cb378	0.008587711
24	0xbd2cfaed	-0.04223149
25	0xbcb56e1d	-0.022147233
26	0xbd2c14db	-0.042012077
27	0xbdcecc89	-0.10097606
28	0xbe3cefbb	-0.18450825
29	0xbe73cf64	-0.23809582
30	0x3ca0615c	0.019577675
31	0x3d18ecf0	0.037335336
32	0xbd81ffb7	-0.06347602
33	0xbdd8ac09	-0.10579688
34	0xbdb92d0a	-0.09041794
35	0xbd998ae4	-0.074971944
36	0xbed120b5	-0.40845266
37	0xbe964cb7	-0.29355404
38	0xbc9a4d87	-0.018835796
39	0xbdc74778	-0.097304285
40	0xbe35b10c	-0.1774332
41	0x3daa53f1	0.08316792
42	0xbec643c4	-0.38723576
43	0xbe8e9eea	-0.27855617
44	0xbe2f02de	-0.17090937
45	0xbd8d4ce3	-0.068994306
46	0xbe3a04ab	-0.18165843
47	0xbde82cc9	-0.11336667
48	0xbe227985	-0.15866669
49	0xbdca105e	-0.09866403
50	0xbe5f6eb2	-0.2181957
51	0x3e09d40e	0.13459799
52	0xbca9e8b1	-0.020740839
53	0xbc15df06	-0.009147411
54	0xbd301e5e	-0.04299771
55	0xbe0fb559	-0.14034022
56	0xbe7c2696	-0.24624094
57	0xbd9c815c	-0.07641861
58	0xbd541c32	-0.0517847
59	0xbdd3cc87	-0.10341745
60	0xbe2e859f	-0.1704316
61	0xbe24ce1e	-0.16094252
62	0xbdec06dd	-0.115247466
63	0xbe229998	-0.15878904
64	0xbe0ea547	-0.13930236
65	0xbe7e7faa	-0.24853387
66	0xbe340006	-0.17578134
67	0xbddb3abd	-0.10704563
68	0xbe1afeea	-0.15136304
69	0x3e17fac9	0.1484176
70	0xbc8b123f	-0.016976474
71	0x3dac6765	0.084181584
72	0x3d96a924	0.0735648
73	0xbba30128	-0.004974503
74	0xbdfaffc8	-0.12255818
75	0xbe3e0d6e	-0.1855981
76	0x3daccc62	0.084374204
77	0xbe55e992	-0.20889881
78	0xbcb1f1cc	-0.021721743
79	0xbe3ac185	-0.18237884
80	0xbe9bfcd6	-0.30466336
81	0xbe381df2	-0.17980173
82	0xbe6d526b	-0.23175971
83	0xbe0c438a	-0.13697639
84	0xbde1d69d	-0.11027262
85	0xbdd03476	-0.10166256
86	0xbc77051e	-0.015076904
87	0xbdcab37a	-0.09897514
88	0xbdac958f	-0.084269635
89	0xbd5deb14	-0.054179266
90	0x3e21b40c	0.15791339
91	0x3de19be1	0.1101606
92	0xbd014db6	-0.03156825
93	0x3b669022	0.0035181125
94	0x3cd661fe	0.026169773
95	0xbd78e2c7	-0.060763147
96	0x3dba3006	0.09091191
97	0x3e37c78f	0.1794722
98	0x3e0ddac7	0.13852988
99	0x3e161097	0.14654766
100	0xbd0b4185	-0.03399803
101	0xbdafb0b5	-0.08578626
102	0x3d2d372f	0.042288955
103	0xbcb0ddf7	-0.021590216
104	0xbd3f3481	-0.04668093
105	0xbd2c992f	-0.042138275
106	0x3b65cec2	0.0035065864
107	0xbd15a33e	-0.036532633
108	0xbe44b303	-0.19208913
109	0xbc9802e8	-0.018556073
110	0xbd05412a	-0.03253285
111	0xbca1856d	-0.019716943
112	0x3caab6e8	0.02083917
113	0x3d89331e	0.06699203
114	0x3d92a417	0.07160204
115	0x3e0d6e55	0.1381162
116	0x3c46e6e1	0.012140007
117	0x3cb4cde9	0.022070842
118	0xbd5e5c4d	-0.054287244
119	0xbe4fecda	-0.20305195
120	0xbc1b1469	-0.009465315
121	0xbe7a8745	-0.24465664
122	0xbece0e3b	-0.40245232
123	0xbda5d76d	-0.0809773
124	0xbe0f7763	-0.14010386
125	0xbda16929	-0.07881386
126	0xbc128ae0	-0.008944243
127	0x3e07c953	0.13260393
128	0x3e439f3f	0.19103716
129	0xbd8f58b1	-0.069993384
130	0x3e1ca9c0	0.1529913
131	0xbd7d0805	-0.061775226
132	0xbd058625	-0.032598633
133	0x3d063bdb	0.032771926
134	0x3d1f246b	0.03885309
135	0xbe22412a	-0.1584517
136	0xbe1e5895	-0.15463479
137	0x3d2551e2	0.040361293
138	0xbdf528ca	-0.119706705
139	0xbe6739e8	-0.22580683
140	0xbddc55c2	-0.107585445
141	0x3d828c31	0.06374396
142	0x3e3d03b4	0.18458444
143	0x3d8211dd	0.063510634
144	0xbe45a834	-0.19302446
145	0xbcb38fe9	-0.021919208
146	0xbe3387fe	-0.17532346
147	0xbe9163b0	-0.28396368
148	0xbea7239e	-0.3264436
149	0xbe799ca4	-0.2437616
150	0xbbc19389	-0.00590748
151	0x3e184417	0.14869724
152	0x3e18ff22	0.14941075
153	0x3d60b2ef	0.054858144
154	0x3d74a4e5	0.05972757
155	0x3d3cf751	0.046134297
156	0xbbdc5263	-0.0067236884
157	0xbdc1d34c	-0.0946413
158	0x3c671d46	0.0141061
159	0x3d9f97bf	0.07792615
160	0x3e36cd40	0.17851734
161	0x3deea451	0.116524346
162	0xbc4523e5	-0.012032484
163	0x3d8495a3	0.064738534
164	0x3cd85d3b	0.026411643
165	0x3e45ac95	0.19304116
166	0xb94c5eb5	-0.00019490237
167	0x3b6d9dd6	0.0036257408
168	0xbc434cf5	-0.011920203
169	0x3dd73c51	0.10509551
170	0xbd1c5cc6	-0.038174413
171	0xbd0432b1	-0.032274906
172	0xbce427c7	-0.027850999
173	0xbdea33f5	-0.11435691
174	0xbe3899e6	-0.18027458
175	0xbe731dd9	-0.23741855
176	0x3d1f1085	0.038834114
177	0xbc53e652	-0.012933331
178	0x3d1ddf48	0.038543016
179	0xbd5c7764	-0.053824797
180	0x3e28c850	0.16482663
181	0x3d59c230	0.053163707
182	0xbd619d16	-0.05508145
183	0x3dbef8b5	0.09324781
184	0x3deb75c1	0.11497069
185	0x3d786786	0.060645603
186	0x3eb9d96d	0.36298695
187	0x3e9aa2d8	0.30202365
188	0x3e967c3a	0.29391652
189	0xbc928975	-0.01788781
190	0x3da9901f	0.08279442
191	0xbdaeb601	-0.08530808
192	0xbdc9f428	-0.09861022
193	0xbe2ea5a5	-0.17055376
194	0xbe2a366e	-0.16622326
195	0xbcb37b87	-0.021909488
196	0x38fe7f3f	0.00012135365
197	0x3ddaab54	0.106772095
198	0xbe02630e	-0.12733099
199	0x3d19f772	0.037589498
200	0xbe0d8b39	-0.1382264
201	0xbe1d2889	-0.15347494
202	0xbe90349f	-0.28165147
203	0xbdfaf04b	-0.122528635
204	0xbd2599ba	-0.04042981
205	0xbdba0438	-0.09082836
206	0x3b0abc43	0.0021169342
207	0x3d40b0fa	0.047043778
208	0xbd625abf	-0.055262323
209	0x3dc098ec	0.094041675
210	0x3dd2ff32	0.10302581
211	0x3df44c3f	0.11928605
212	0x3d997f75	0.074950136
213	0x3e179f56	0.14806876
214	0x3e3d1fca	0.18469158
215	0x3e92df6a	0.28686076
216	0xbd68267f	-0.056677338
217	0x3d17a37c	0.037021145
218	0x3dc1df90	0.09466469
219	0x3d3013a2	0.042987473
220	0xbe0a16d4	-0.1348527
221	0x3d883abc	0.06651828
222	0x3d83f491	0.06443132
223	0x3dde58c7	0.10856777
224	0xbe02bf5a	-0.12768307
225	0xbd0dd69c	-0.034628496
226	0xbd68b739	-0.05681536
227	0x3c331036	0.010929158
228	0xbda3af6a	-0.07992442
229	0x3d8c933e	0.06864022
230	0x3c964d57	0.018347425
231	0x3e7ecd59	0.24883021
232	0x3e85f16b	0.2616075
233	0x3da01cac	0.07817969
234	0x3dc3bd53	0.09557595
235	0x3d38a0f7	0.045075383
236	0x3c954873	0.018223023
237	0xbd959503	-0.07303812
238	0xbdb5b8ea	-0.0887316
239	0x3d3e95b2	0.04652948
240	0x3d2d5e52	0.04232628
241	0x3e77db6a	0.24204794
242	0xbd78a28a	-0.060701884
243	0x3d4a9213	0.049455713
244	0x3e3cef22	0.18450597
245	0x3e67cb0c	0.2263605
246	0x3cfb0f8d	0.030647064
247	0x3e34c779	0.17654218
248	0x3e8e3351	0.27773526
249	0x3e6fcc86	0.23417863
250	0x3e0450ef	0.12921499
251	0x3d3d822b	0.046266716
252	0x3e9375f5	0.28800932
253	0x3e3d4e4d	0.184869
254	0x3db740ef	0.08947932
255	0x3e864e5f	0.26231667

conv3.bias f4 [32]
0	0xbb7b6d91	-0.0038364867
1	0xbe243f68	-0.16039813
2	0x3dca628a	0.09882076
3	0xbea3ccdb	-0.3199223
4	0x3c914af3	0.017735934
5	0x3c96201c	0.018325858
6	0xbc86375e	-0.016383823
7	0xbeb9817f	-0.3623161
8	0xbdbe1e73	-0.092831515
9	0xbecc0054	-0.39844
10	0xbe2f17b8	-0.17098892
11	0xbe8c3ebf	-0.2739162
12	0x3c8f3f55	0.017486254
13	0xbe83479e	-0.25640577
14	0xbe934e8d	-0.28770867
15	0x3ccd41eb	0.025055846
16	0xbd936207	-0.071964316
17	0xbe12c5da	-0.14333287
18	0x398aa043	0.00026440815
19	0xbe81cfb8	-0.2535379
20	0xbe85dc09	-0.26144436
21	0xbe55036d	-0.20802088
22	0xbe8988ac	-0.26862085
23	0xbdbe9e78	-0.09307569
24	0xbe2b388f	-0.16720794
25	0xbd3b7965	-0.045770068
26	0xbdcc0892	-0.09962572
27	0xbe0e3435	-0.13887103
28	0xbe559efc	-0.20861429
29	0xbe2e6f9c	-0.17034763
30	0xbeca7d32	-0.3954864
31	0xbebb90d7	-0.36633942

bn3.weight f4 [32]
0	0x3f764bdc	0.962095
1	0x3f88de7f	1.06929
2	0x3f591dc8	0.8481107
3	0x3f92eabf	1.1477889
4	0x3f6dfd35	0.9296449
5	0x3f63f437	0.8904452
6	0x3f62fa6f	0.8866338
7	0x3f803a74	1.0017838
8	0x3f6e8cd1	0.9318362
9	0x3f8ff18b	1.1245588
10	0x3f94acae	1.1615198
11	0x3f782b5c	0.9694116
12	0x3f4d6b62	0.8024198
13	0x3f8c4ec0	1.0961533
14	0x3f6d8978	0.92787886
15	0x3f68f863	0.9100401
16	0x3f68be19	0.90915066
17	0x3f6206ca	0.8829161
18	0x3f7380be	0.9511832
19	0x3f8b91ef	1.090391
20	0x3f6a56df	0.91538805
21	0x3f8052fc	1.0025325
22	0x3f583943	0.84462374
23	0x3f7ca001	0.98681647
24	0x3f6d6dff	0.92745966
25	0x3f6df080	0.929451
26	0x3f642240	0.8911476
27	0x3f7ae248	0.9800153
28	0x3f8a0a49	1.0784389
29	0x3f655ee3	0.8959791
30	0x3fa84c68	1.3148317
31	0x3f87c9b8	1.0608435

bn3.bias f4 [32]
0	0x3e5d508d	0.21612759
1	0x3e6f1776	0.23348793
2	0x3e871f22	0.2639094
3	0xbcef9ab9	-0.029248582
4	0xbdb0d3e4	-0.08634165
5	0x3e9cfa66	0.3065979
6	0xbc232414	-0.009957332
7	0x3e76c3ad	0.24098082
8	0x3e201e9b	0.15636675
9	0x3e29bb7c	0.16575426
10	0xbde5d36f	-0.112219684
11	0x3e2e53be	0.17024133
12	0x3f1351c0	0.57546616
13	0x3e2789de	0.16361186
14	0xbed2c4cd	-0.41165772
15	0x3ca91c15	0.020643273
16	0x3e8508d8	0.2598331
17	0x3ef15c7e	0.47140878
18	0xbe35a022	-0.17736867
19	0x3d544834	0.05182667
20	0xbe0c7415	-0.13716157
21	0x3de08727	0.10963278
22	0x3eb7590f	0.35810134
23	0xbc978fad	-0.018501127
24	0x3e23179c	0.15926975
25	0x3ed7ee4d	0.42173997
26	0xbc4ec968	-0.012621261
27	0x3e3a97c3	0.18221955
28	0xbe50a421	-0.2037511
29	0x3eb2727b	0.34852967
30	0x3d252654	0.040319756
31	0xbbfb28c5	-0.007664772

bn3.running_mean f4 [32]
0	0x3f52952e	0.8225888
1	0x3f631b73	0.8871376
2	0x3f5905c7	0.8477444
3	0x3e8fc17b	0.280773
4	0x3f194110	0.598649
5	0x3f505edc	0.81394744
6	0x3f6640ce	0.89942634
7	0x3f29ecc3	0.66376895
8	0x3f32f48c	0.699044
9	0x3f0a3bbf	0.53997415
10	0x3f50c6eb	0.81553525
11	0x3f4ab50f	0.79182523
12	0x3f8e6e4c	1.112741
13	0x3ef0f642	0.4706288
14	0x3f2425bf	0.64120096
15	0x3f7b3d2a	0.98140204
16	0x3edf2659	0.43583944
17	0x3f05141a	0.519838
18	0x3eb5ab0d	0.35482064
19	0x3f187332	0.59550774
20	0x3f0bdfec	0.5463855
21	0x3eabaeb6	0.3353173
22	0x3f4720c2	0.7778436
23	0x3fa1e2c9	1.2647334
24	0x3f83a884	1.0285802
25	0x3f3ed5ce	0.7454499
26	0x3f340318	0.7031722
27	0x3f36c02c	0.7138698
28	0x3f55db3c	0.8353765
29	0x3f5f3e87	0.87204784
30	0x3ebda494	0.37039626
31	0x3f0ce669	0.5503908

bn3.running_var f4 [32]
0	0x3faf34d5	1.3687998
1	0x40428db2	3.0398984
2	0x3fd385f0	1.652525
3	0x3f329a5c	0.69766784
4	0x3fa52c9d	1.290424
5	0x3fa8553b	1.315101
6	0x3f9618cc	1.1726317
7	0x400cae58	2.198141
8	0x3fc72e12	1.5560935
9	0x3fbe4304	1.4864202
10	0x3ff096d8	1.8796034
11	0x3feead89	1.8646709
12	0x3ffacd00	1.9593811
13	0x3f9482b2	1.1602385
14	0x4013c5e5	2.3089535
15	0x3fb7d888	1.4362955
16	0x3f2bc2ce	0.67094123
17	0x3f80d761	1.0065728
18	0x3f5942dc	0.84867644
19	0x3fa90eef	1.3207682
20	0x3f3e7c85	0.7440875
21	0x3f031af9	0.5121303
22	0x3fd28065	1.6445433
23	0x3fedaa1e	1.8567541
24	0x40033855	2.0503132
25	0x3f8082fd	1.0039974
26	0x3fbc68aa	1.4719441
27	0x3f8c764f	1.0973605
28	0x4017e58d	2.3733857
29	0x3fb7f36f	1.4371165
30	0x3f9336c9	1.1501094
31	0x3f9a4144	1.2051167

conv4.weight f4 [64, 32, 3, 3]
0	0xbe8d8d46	-0.27646846
1	0xbe96c2f1	-0.29445603
2	0xbeac3e72	-0.33641392
3	0xbe46692a	-0.19376054
4	0xbcc17e59	-0.023619818
5	0xbe0c9b51	-0.13731124
6	0xbe0327d7	-0.12808166
7	0xbe1955a8	-0.14974082
8	0xbe8784da	-0.26468545
9	0x3e17ac2e	0.14811775
10	0x3d7cdf0e	0.06173616
11	0x3e3c4252	0.18384674
12	0x3d4653f8	0.048419923
13	0x3cd170bf	0.025566457
14	0xbd0b310c	-0.03398232
15	0x3da5c337	0.08093875
16	0x3d5a4c0c	0.05329518
17	0x3dca4ef7	0.098783426
18	0x3df20191	0.11816705
19	0x3d6a3b7e	0.057185642
20	0x3e381072	0.17975023
21	0xbe624d32	-0.2209976
22	0xbe3c2412	-0.18373135
23	0xbe521427	-0.205155
24	0x3d906da9	0.07052166
25	0x3cde2d3a	0.027121175
26	0xbdd13129	-0.10214455
27	0xbe088eef	-0.13335775
28	0xbd88a627	-0.06672316
29	0xbe43242f	-0.19056772
30	0xbda95203	-0.082675956
31	0x3ce9581c	0.028484397
32	0x3dc0cbd5	0.09413878
33	0x3d73f3dc	0.059558734
34	0x3cdee0db	0.027206829
35	0x3cd2ecd7	0.0257477
36	0x3e44c7aa	0.19216791
37	0x3d120807	0.035652187
38	0x3e0dd9fd	0.13852687
39	0xb97511a4	-0.00023371592
40	0x3cfbb599	0.030726241
41	0x3cfbf2df	0.030755458
42	0xbd6fcf52	-0.058547325
43	0xbdc96979	-0.098345704
44	0x3d1dc32f	0.03851622
45	0x3d742b6b	0.05961172
46	0x3d929aaa	0.07158406
47	0x3cf16b31	0.029470058
48	0x3d5c5a5f	0.053797122
49	0x3c308bef	0.01077555
50	0xbcfc7f78	-0.0308225
51	0xbb989538	-0.00465646
52	0xbd0083b4	-0.031375602
53	0x3c40b896	0.011762759
54	0x3de284f3	0.11060514
55	0x3dd98a06	0.10622029
56	0x3e3b38b0	0.18283343
57	0x3d3e64d9	0.046482895
58	0xbd8b3f58	-0.06799191
59	0x39c222e2	0.00037028553
60	0x3b213f1f	0.0024604273
61	0x3e53595c	0.20639557
62	0x3d9d903a	0.07693525
63	0x3df5e1f4	0.12005988
64	0xbd6f3e20	-0.058408856
65	0x3dfb2a69	0.122639485
66	0x3dee8178	0.11645788
67	0x3d983bda	0.07433291
68	0x3cdd946e	0.027048316
69	0xbe0b2d41	-0.13591482
70	0xbdb3fe19	-0.087887
71	0xbde0bffd	-0.10974119
72	0x3e172e28	0.14763701
73	0x3c9bc212	0.019013438
74	0x3dfae827	0.12251311
75	0xbe2f65ab	-0.17128627
76	0xbe2ac3a5	-0.16676195
77	0xbe2fe3c5	-0.17176731
78	0x3dcfcf90	0.10147011
79	0xbd4e5524	-0.050374165
80	0x3de2f03a	0.11080976
81	0x3d5a5175	0.05330034
82	0xbd6c5075	-0.057693917
83	0xbc97ae46	-0.018515717
84	0x3cad34e4	0.021143384
85	0xbd110a03	-0.03540994
86	0x3d0898b1	0.033348743
87	0xbdf8bfaf	-0.12145936
88	0xbd71a3e6	-0.058994196
89	0xbe4855e0	-0.19564009
90	0xbc2fc520	-0.010728151
91	0xbdbf28ac	-0.093339294
92	0xbe2089cc	-0.15677565
93	0xbced3831	-0.028957458
94	0xbda74ea7	-0.081692986
95	0xbe00afe7	-0.12567101
96	0x3d129e74	0.035795644
97	0x3dc751fc	0.09732434
98	0x3c171c55	0.0092230635
99	0xbc855da3	-0.016280001
100	0x3e16b972	0.1471918
101	0x3dd1b804	0.10240176
102	0x3c33ccc8	0.010974117
103	0x3b8ddacf	0.0043290625
104	0xbcb8fea5	-0.022582361
105	0x3de4a931	0.11165083
106	0xbdcbc6fd	-0.099500634
107	0x3c88c6e8	0.016696408
108	0x3d549ae1	0.051905517
109	0x3a9cfceb	0.0011977231
110	0x3cb74a62	0.022374336
111	0xbd9987cc	-0.07496604
112	0xbd261e91	-0.040556494
113	0xbc0021db	-0.007820572
114	0xbd563f45	-0.052306432
115	0xbd88d2c4	-0.06680825
116	0xbdc344d5	-0.09534613
117	0x3d8c9090	0.068635106
118	0x3da760e3	0.081727766
119	0x3d911862	0.07084729
120	0xbe11b179	-0.14227857
121	0xbe304185	-0.17212494
122	0xbe399acf	-0.18125461
123	0x3dc5f730	0.09666288
124	0x3cb4b93d	0.022060985
125	0x3df9b4f4	0.12192717
126	0x3d0443ba	0.03229115
127	0x3e10bc8d	0.14134426
128	0xbba30a2f	-0.004975579
129	0x3e714b43	0.23563866
130	0x3cb121b4	0.021622516
131	0x3deefeaa	0.11669667
132	0x3c03fcf3	0.008055913
133	0xbcd9ed91	-0.026602538
134	0x3d2b14fe	0.041768067
135	0x3da53992	0.08067621
136	0x3e088411	0.1333163
137	0x3d5bbb7d	0.0536456
138	0x3cce9a3d	0.02522003
139	0x3dbb4b9c	0.09145281
140	0x3e3fff6f	0.18749784
141	0x3cdae1ca	0.026718993
142	0x3e347e59	0.17626323
143	0x3e04cbed	0.12968417
144	0xbeaaeb13	-0.33382472
145	0xbe12540d	-0.14289875
146	0xbe688d7b	-0.2271022
147	0xbd3ab7f6	-0.045585595
148	0x3c2d2c49	0.01056964
149	0x3d8f4e24	0.06997326
150	0xbe11f796	-0.14254603
151	0xbe6ea1e4	-0.23303944
152	0xbd495a00	-0.049158096
153	0x3b949aaf	0.0045350413
154	0xbdb64629	-0.08900101
155	0x3da893a1	0.08231283
156	0xbddf7db6	-0.10912649
157	0xbd682ee1	-0.056685332
158	0xbd93c016	-0.07214372
159	0x3ddcef9c	0.10787889
160	0x3e093ee3	0.13402896
161	0x3d4b2b18	0.049601644
162	0xbc6993ba	-0.014256412
163	0xbcea7719	-0.028621243
164	0x3d199970	0.037499845
165	0x3dd98bb3	0.10622349
166	0x3de3155c	0.11088058
167	0xbd30e72d	-0.043189216
168	0xbe0c90a9	-0.13727058
169	0xbd8274af	-0.06369912
170	0xbd9e9998	-0.077441394
171	0x3d0200cd	0.031739045
172	0x3d9ffb2f	0.07811581
173	0x3da369dd	0.07979176
174	0x3da043b4	0.07825413
175	0xbcf090a6	-0.029365849
176	0x3a1ce667	0.00059852604
177	0xbd87570d	-0.066084005
178	0x3d3608ee	0.04444211
179	0xbdba3bec	-0.090934604
180	0xbdc08632	-0.09400596
181	0xbe65dc08	-0.22447217
182	0xbd67c11f	-0.05658066
183	0xbdc42eba	-0.09579225
184	0xbd89e90f	-0.067339055
185	0x3d8d0bac	0.06886992
186	0x3bdcc2d3	0.006737092
187	0x3c6099f8	0.013708584
188	0x3be5c9d8	0.007012587
189	0x3e075326	0.13215312
190	0x3dc5fd1a	0.09667416
191	0x3c96d05f	0.018409906
192	0x3de1ea54	0.11031023
193	0x3e0356ec	0.12826127
194	0x3e014a13	0.12625913
195	0x3c685bb0	0.014182016
196	0x3d6802b0	0.056643188
197	0xbd4e8326	-0.05041804
198	0x3e2a6d8a	0.16643348
199	0x3e06db2e	0.13169548
200	0x3df17d41	0.117914684
201	0xbd8ad551	-0.06778968
202	0xbcdf3259	-0.027245687
203	0xbca7b29d	-0.020470912
204	0x3e3f7be5	0.18699606
205	0x3c682484	0.014168862
206	0x3da09629	0.07841141
207	0x3d1eac2a	0.038738407
208	0x3c4261fc	0.011864182
209	0x3e21a338	0.1578492
210	0xbe809a77	-0.25117847
211	0xbe6955d8	-0.22786653
212	0xbe802082	-0.25024801
213	0xbe0d8c2c	-0.13823003
214	0xbde32fcf	-0.11093103
215	0xbe852bac	-0.26009881
216	0x3de220fc	0.110414475
217	0x3cb3e5d8	0.021960184
218	0x3d18e555	0.037328083
219	0x3d1cd2ff	0.03828716
220	0x3e339932	0.17538908
221	0x3cbf5b00	0.023358822
222	0x3e86f8b4	0.2636162
223	0x3e3194b1	0.17341878
224	0x3e2081ab	0.15674464
225	0x3d98a279	0.07452864
226	0x3e324616	0.17409548
227	0x3dab6de1	0.08370567
228	0xbe86d3e6	-0.2633354
229	0xbe84bf20	-0.25927067
230	0xbec7aaa9	-0.3899739
231	0x3e146dce	0.14495012
232	0xbc7d441e	-0.015458135
233	0x3e09578b	0.13412301
234	0xbdb82bc0	-0.0899272
235	0xbe2541f6	-0.16138443
236	0xbe3c4960	-0.18387365
237	0xbd8d44cb	-0.06897887
238	0xbda211c8	-0.07913548
239	0xbd517dc3	-0.051145326
240	0xbdcb71b9	-0.099338
241	0xbdfb84df	-0.122812025
242	0xbe4294da	-0.19002095
243	0xbce9a277	-0.028519852
244	0xbbdc0389	-0.0067142886
245	0x3d2b512d	0.041825462
246	0xbd614fef	-0.05500787
247	0xbc68f6fb	-0.014219041
248	0xbe0d0adc	-0.13773674
249	0xbbe37fa3	-0.0069427057
250	0xbd38d8bd	-0.045128573
251	0xbdd1a866	-0.102371976
252	0xbf009da0	-0.50240517
253	0xbe5e85ad	-0.21730681
254	0xbef2a14e	-0.4738869
255	0x3da59deb	0.08086761

conv4.bias f4 [64]
0	0x3d8d8bd9	0.069114394
1	0x3c839dc1	0.016066434
2	0xbec3d852	-0.38250977
3	0x3dca94fc	0.09891698
4	0xbea1e718	-0.31621623
5	0xbd91329b	-0.0708973
6	0xbdd57fcf	-0.10424768
7	0xbdb02ee8	-0.08602697
8	0xbe88aba4	-0.2669345
9	0xbeee5da5	-0.4655582
10	0xbe99e778	-0.3005941
11	0xbe04f526	-0.12984142
12	0x3d4bed71	0.04978699
13	0xbde770aa	-0.11300786
14	0xbf018c40	-0.5060463
15	0x3d50176f	0.050803598
16	0xbe2cea49	-0.16886248
17	0xbeaaa718	-0.33330607
18	0xbd704db8	-0.05866787
19	0xbeb7ede1	-0.35923675
20	0xbe7d0f4a	-0.24712864
21	0xbe940c46	-0.28915614
22	0x3e2db734	0.16964418
23	0xbc415a46	-0.011801308
24	0x3dcfd075	0.10147182
25	0xbe72ebca	-0.23722759
26	0xbe379b83	-0.17930417
27	0xbe5caba4	-0.2154985
28	0x3d41cf9d	0.047317136
29	0xbef7e91f	-0.48420045
30	0x3e401afc	0.18760294
31	0xbecb4087	-0.39697668
32	0xbdff3792	-0.12461771
33	0xbd8e65d3	-0.06953015
34	0xbe0a0e81	-0.13482095
35	0xbd88d19b	-0.06680604
36	0x3cf7c248	0.030244008
37	0xbe5a6418	-0.21327245
38	0xbe81948c	-0.25308645
39	0xbe6c59a3	-0.23081069
40	0xbe7cf970	-0.24704528
41	0xbec13c56	-0.37741345
42	0xbf068ca3	-0.52558345
43	0xbeb3e09c	-0.351323
44	0xbe6970bc	-0.22796911
45	0xbeaf5279	-0.3424261
46	0xba779210	-0.0009444067
47	0xbf2b6867	-0.6695618
48	0x3b8b1d13	0.0042454093
49	0xba71d632	-0.0009225338
50	0xbef2ff8e	-0.47460598
51	0x3da8225a	0.08209677
52	0x3a864048	0.0010242546
53	0xbe7afd21	-0.24510624
54	0xbdf49a6e	-0.119435176
55	0xbe95bd5a	-0.29246026
56	0xbea76d33	-0.327005
57	0x3e231884	0.1592732
58	0xbf10be03	-0.56539935
59	0xbe86c01c	-0.26318443
60	0xbe02d38b	-0.1277601
61	0xbe40459c	-0.18776554
62	0xbed424d7	-0.41434357
63	0xbe979749	-0.2960761

bn4.weight f4 [64]
0	0x40313e7f	2.7694395
1	0x402b6171	2.6778224
2	0x403b5b1c	2.9274359
3	0x4029bc7a	2.6521287
4	0x404973fe	3.1477046
5	0x403e4792	2.9731183
6	0x40333f27	2.8007295
7	0x40366639	2.8499892
8	0x40275353	2.6144607
9	0x40412ba4	3.0182886
10	0x4011bf33	2.2772949
11	0x401815c4	2.3763285
12	0x401f49bf	2.488876
13	0x404094de	3.0090861
14	0x40408613	3.0081832
15	0x402cbda6	2.6990752
16	0x403313d5	2.7980855
17	0x401d501b	2.4580142
18	0x405b7136	3.4287848
19	0x401a0026	2.406259
20	0x40421396	3.0324454
21	0x403de651	2.9671824
22	0x402e8e8c	2.7274504
23	0x403a99bd	2.9156334
24	0x4008372d	2.1283677
25	0x403c20b2	2.9394956
26	0x40508050	3.2578316
27	0x4038b080	2.8857727
28	0x402c3d04	2.691224
29	0x402a31e9	2.6592963
30	0x401d9fe2	2.4628835
31	0x4035c400	2.840088
32	0x402171a1	2.5225604
33	0x40516712	3.271916
34	0x40435f29	3.052683
35	0x40317f8b	2.7734096
36	0x402c0dc9	2.6883414
37	0x4043275b	3.049277
38	0x404dc8a3	3.215371
39	0x405740cd	3.3633301
40	0x403a627f	2.9122617
41	0x40130343	2.297074
42	0x4053aa5b	3.3072727
43	0x40404f0b	3.0048244
44	0x403f5d4b	2.9900692
45	0x40252cd2	2.5808606
46	0x401be848	2.4360523
47	0x401eb4af	2.479778
48	0x402b8428	2.6799412
49	0x403b0462	2.9221425
50	0x4053b243	3.3077552
51	0x40396b0d	2.8971589
52	0x403cfa8d	2.9527924
53	0x4025f976	2.593351
54	0x4024d8d4	2.5757341
55	0x404dc674	3.2152376
56	0x4034a344	2.822465
57	0x404430a8	3.0654697
58	0x40399f09	2.9003317
59	0x401e7370	2.4757957
60	0x403e6dfa	2.9754624
61	0x40291025	2.6416104
62	0x404d4dd8	3.2078762
63	0x4025cdd0	2.5906868

bn4.bias f4 [64]
0	0x3ed71959	0.42011526
1	0xbe131766	-0.14364395
2	0x3e7ddb24	0.24790627
3	0xbe744349	-0.23853792
4	0xbe265264	-0.16242367
5	0x3e50bfd8	0.20385683
6	0x3eaf68c1	0.34259608
7	0x3e2bb0ea	0.16766706
8	0x3eadcf0e	0.33947033
9	0x3d000d79	0.03126285
10	0xbd2f675b	-0.042823177
11	0xbe537a8c	-0.20652217
12	0x3e5d8493	0.21632604
13	0x3d7d166a	0.061788954
14	0xbec897c9	-0.39178303
15	0xbb87a43a	-0.0041394504
16	0x3ede608c	0.43433034
17	0x3d936a64	0.07198027
18	0x3cc0d479	0.023538815
19	0x3e6cdaed	0.23130389
20	0x3c030d47	0.007998771
21	0xbe274fd8	-0.16339052
22	0x3e35fe4c	0.17772788
23	0xbe43c6be	-0.19118783
24	0xbe2ba80b	-0.16763322
25	0x3c622e96	0.013805052
26	0xbbd87fa2	-0.006607012
27	0x3d5305d4	0.05151923
28	0xbe6b8f9e	-0.23004004
29	0x3e118807	0.14212047
30	0x3e152807	0.1456605
31	0x3e20ff41	0.15722372
32	0xbe4f9b51	-0.20274092
33	0x3cbf005c	0.023315601
34	0x3e917afd	0.28414145
35	0xbe40dae4	-0.188335
36	0xbddfc124	-0.109255105
37	0x3d0c7a95	0.03429659
38	0x3dee264f	0.116284005
39	0x3c9a5679	0.018840062
40	0x3e4cf287	0.20014392
41	0x3d1bc6dd	0.038031448
42	0xbe101fb3	-0.14074592
43	0xbe720946	-0.2363635
44	0x3e1532ab	0.1457011
45	0xbe483736	-0.19552311
46	0x3e25804e	0.16162226
47	0xbd838355	-0.06421534
48	0x3e98199f	0.29707047
49	0x3eab6484	0.33475125
50	0xbd5ceb15	-0.05393513
51	0x3de891af	0.11355912
52	0x3e0cf86b	0.13766639
53	0xbe80458e	-0.25053066
54	0xbdc58acd	-0.09645615
55	0xbdbf3fcb	-0.093383394
56	0x3e3975b6	0.1811131
57	0x3e8a5cc1	0.2702389
58	0xbe3463d1	-0.17616202
59	0xbd60e30f	-0.05490404
60	0x3e5af8cb	0.2138397
61	0x3d851277	0.064976625
62	0x3d0fa5e1	0.035070304
63	0xbe5ee758	-0.21767938

bn4.running_mean f4 [64]
0	0x3f8cbfc8	1.0996027
1	0x3e9cd786	0.3063318
2	0x3e815a11	0.25264028
3	0x3f015f2e	0.5053586
4	0x3eabed80	0.33579636
5	0x3f0a7cd1	0.54096705
6	0x3eb55d82	0.35422903
7	0x3f1d3b8f	0.61419004
8	0x3eec98d8	0.4621036
9	0x3ec690c0	0.3878231
10	0x3ef73c55	0.48288217
11	0x3f5bfe0d	0.85934526
12	0x3f3c85bf	0.7364158
13	0x3ec273d1	0.37978986
14	0x3efca94f	0.49347922
15	0x3ecf0f25	0.40441242
16	0x3fa809f5	1.3128039
17	0x3ef59e2b	0.47972235
18	0x3eb4cf79	0.3531454
19	0x3f7dfa56	0.9921011
20	0x3f0c8134	0.5488465
21	0x3f3a3ba0	0.7274723
22	0x3fa35945	1.2761618
23	0x3eeffb2d	0.4687132
24	0x3efa0bc4	0.488371
25	0x3eb281bb	0.34864601
26	0x3eb6d0ab	0.35706076
27	0x3e9dcc09	0.3081973
28	0x3e889fcc	0.26684415
29	0x3e941b91	0.28927281
30	0x3f0cecd3	0.55048865
31	0x3f20ff3a	0.62889445
32	0x3eb4acb8	0.35288024
33	0x3eec2d26	0.46128196
34	0x3e8fc2ef	0.2807841
35	0x3e7cf56c	0.24702996
36	0x3fb646e8	1.4240389
37	0x3f1dd1ca	0.6164824
38	0x3e4eda1c	0.2020039
39	0x3ee2bac1	0.44283107
40	0x3f013ca8	0.5048318
41	0x3f2ea0b3	0.6821396
42	0x3ea48acb	0.3213714
43	0x3ebd7015	0.36999574
44	0x3f023235	0.5085786
45	0x3f642668	0.89121103
46	0x3f2631f0	0.6491995
47	0x3f07c027	0.53027576
48	0x3ed9d60e	0.42546123
49	0x3f11454c	0.56746364
50	0x3e8e121b	0.27748188
51	0x3f2887f8	0.6583247
52	0x3ea83baf	0.32858035
53	0x3ecf6c53	0.40512332
54	0x3f385b52	0.72014344
55	0x3ec0331f	0.37539002
56	0x3ee0d9ba	0.43916112
57	0x3f60bd57	0.8778891
58	0x3ebae940	0.3650608
59	0x3eda2122	0.42603403
60	0x3e9ec726	0.31011313
61	0x3f2e1254	0.67996716
62	0x3ec4b5eb	0.38420042
63	0x3ee53bf3	0.447723

bn4.running_var f4 [64]
0	0x40378bce	2.867908
1	0x3f125114	0.57154965
2	0x3eff2ad1	0.49837354
3	0x3f55f729	0.8358026
4	0x3f4f1e4f	0.8090562
5	0x3f931ddd	1.1493489
6	0x3f259650	0.64682484
7	0x3f98842e	1.1915338
8	0x3f46f4cc	0.7771728
9	0x3f4f0e22	0.8088094
10	0x3f6dd9ea	0.92910635
11	0x3ff966aa	1.9484456
12	0x3fa452c3	1.2837757
13	0x3f3af684	0.73032403
14	0x3f7d7f5b	0.99022454
15	0x3f37ae70	0.71750546
16	0x401954b4	2.3957949
17	0x3f6f329b	0.9343659
18	0x3f55d82e	0.8353299
19	0x3fbbf307	1.4683541
20	0x3f9152cb	1.1353391
21	0x400169b8	2.0220776
22	0x401151fa	2.2706285
23	0x3f7aa3ee	0.97906387
24	0x3f539e57	0.8266348
25	0x3f63f4a3	0.8904516
26	0x3f467e83	0.7753679
27	0x3f29b7d7	0.6629614
28	0x3f0427dc	0.5162332
29	0x3f210b69	0.62908036
30	0x3f56efea	0.8395983
31	0x3f937f36	1.1523197
32	0x3f1b28e5	0.60609275
33	0x3f5052f2	0.81376565
34	0x3f23a635	0.63925487
35	0x3f06f72b	0.527209
36	0x40014c08	2.0202656
37	0x3fc35c28	1.5262499
38	0x3edec112	0.43506676
39	0x3f8be96f	1.0930613
40	0x3f7affa1	0.9804631
41	0x3fa9be05	1.3261114
42	0x3f1c65b3	0.6109268
43	0x3f262e65	0.6491454
44	0x3fa39b00	1.2781677
45	0x3fe450f0	1.78372
46	0x3f9b4796	1.2131221
47	0x3fad6524	1.3546491
48	0x3f50bc81	0.81537634
49	0x3f97b59f	1.1852301
50	0x3f106417	0.56402725
51	0x3fb2cb1f	1.3968238
52	0x3f043fc7	0.51659817
53	0x3f398412	0.7246715
54	0x3fa56bd6	1.2923534
55	0x3f4b1797	0.7933287
56	0x3f3b7d2a	0.7323786
57	0x400700bd	2.10942
58	0x3f605782	0.87633526
59	0x3f80dd96	1.0067623
60	0x3ef55bb1	0.47921517
61	0x3faa080d	1.3283707
62	0x3f54da74	0.83145833
63	0x3f6caf7d	0.92455274

lin.weight f4 [50, 64]
0	0xbec6e54d	-0.38846818
1	0x3e07972f	0.13241266
2	0x3eb3fb79	0.35152796
3	0x3ea91f11	0.33031514
4	0x3d2d7d75	0.042355973
5	0xbefef3bb	-0.49795327
6	0x3dde0102	0.10840036
7	0x3ea42512	0.32059532
8	0xbe5d05da	-0.21584263
9	0xbe9f9d1a	-0.31174546
10	0xbe9099f5	-0.2824246
11	0xbe6a8682	-0.22902873
12	0xbd1a7876	-0.037712537
13	0xbf054090	-0.5205164
14	0xbed86df3	-0.42271385
15	0x3e85720b	0.2606357
16	0x3e1ff9a1	0.1562257
17	0xbe23f63f	-0.16011904
18	0x3ecfb52c	0.4056791
19	0x3dd213ef	0.10257708
20	0x3e412fda	0.1886591
21	0x3e1b2765	0.15151747
22	0xbd9aea33	-0.07564201
23	0x3e20011d	0.15625425
24	0x3ec1d4f3	0.3785778
25	0x3d88e6dc	0.06684658
26	0x3e5c2b9a	0.21501008
27	0xbedffde9	-0.43748406
28	0x3ed32248	0.41237092
29	0xbe40ce97	-0.18828808
30	0xbdbd4025	-0.0924075
31	0x3db02ef1	0.08602703
32	0x3ec55980	0.38544846
33	0x3f25b296	0.64725626
34	0xbe6d423c	-0.23169798
35	0x3c2ea6d6	0.010659894
36	0xbe8b1c9e	-0.2717027
37	0xbf39a3ef	-0.7251577
38	0x3e8c6607	0.2742159
39	0x3ee9ecf5	0.45688596
40	0x3d22961f	0.039693948
41	0xbedf5db1	-0.43626168
42	0xbe243ea5	-0.16039522
43	0xbebf3f74	-0.37353098
44	0x3f345e32	0.7045623
45	0x3e03314b	0.12811773
46	0xbd997bae	-0.07494293
47	0xbee9a01a	-0.4562996
48	0xbeccaf01	-0.39977267
49	0x3d490c9e	0.0490843
50	0xbe3ec641	-0.18630315
51	0xbe8b9493	-0.2726179
52	0x3d3ef96c	0.046624586
53	0x3ead96c7	0.33904096
54	0xbeff47db	-0.4985951
55	0xbf22da8c	-0.63614726
56	0xbe85c30d	-0.26125374
57	0xbd2da792	-0.042396136
58	0x3ece6479	0.4031103
59	0xbe9d1bc0	-0.30685234
60	0x3e4539f0	0.19260383
61	0xbea8d021	-0.3297129
62	0xbe3d1a47	-0.18467055
63	0x3e0b2b1b	0.13590662
64	0x3eab41de	0.3344869
65	0x3f149315	0.5803693
66	0xbe35dcdb	-0.17760031
67	0x3e192220	0.14954424
68	0xbedb70d6	-0.42859524
69	0xbee7921b	-0.45228657
70	0xbea96121	-0.33081916
71	0xbeda3818	-0.4262092
72	0xbe2a5d08	-0.16637051
73	0xbf2e0733	-0.67979735
74	0x3dbe9498	0.09305686
75	0xbe47e0fd	-0.1951942
76	0x3ec0fe43	0.37693986
77	0xbecf0b5d	-0.40438357
78	0xbd953e48	-0.0728727
79	0xbe557805	-0.20846565
80	0x3e856fd8	0.26061893
81	0xbe03c329	-0.12867416
82	0x3f36aa21	0.71353346
83	0x3db4a57b	0.088206254
84	0xbdfd3891	-0.12364305
85	0x3f057ecd	0.5214661
86	0xbc8285b4	-0.015932895
87	0x3eccdfce	0.400145
88	0x3eb13945	0.34614006
89	0x3ecbb369	0.39785317
90	0x3f2e2e13	0.68039054
91	0xbe442615	-0.19155152
92	0xbea5335a	-0.3226574
93	0xbca93b2b	-0.020658096
94	0x3d1727a2	0.03690303
95	0x3d2517dd	0.04030596
96	0x3e97c289	0.29640606
97	0xbea7b8ba	-0.32758123
98	0x3eeda97a	0.46418363
99	0xbdd1e5d0	-0.102489114
100	0x3e85e374	0.26150095
101	0x3ea3ce4b	0.31993327
102	0xbf518f5d	-0.8185938
103	0x3eaeeac4	0.34163487
104	0xbec37e09	-0.38182095
105	0xbdedfb40	-0.11620188
106	0x3e3a90b3	0.18219261
107	0x3cfdc8c4	0.030979522
108	0x3e48307e	0.19549748
109	0x3ded71e3	0.11593988
110	0x3ec5130d	0.38491097
111	0x3d9015f5	0.07035438
112	0x3e8c1181	0.27357104
113	0x3e392ec3	0.18084244
114	0x3ef3f9ff	0.4765167
115	0xbe90c655	-0.28276315
116	0x3df80982	0.121111885
117	0x3e869f69	0.26293495
118	0xbe407154	-0.18793231
119	0xbf22217c	-0.63332343
120	0xbee104c3	-0.43948945
121	0x3e4e8e3f	0.2017145
122	0xbe4243e2	-0.18971208
123	0x3ead645c	0.3386563
124	0xbee4e0af	-0.4470267
125	0xbe9c8b5e	-0.3057508
126	0xbe824bed	-0.25448552
127	0xbe4a377b	-0.19747727
128	0x3d7c1495	0.061543066
129	0xbe6d7779	-0.23190106
130	0x3cdd75d6	0.027033728
131	0xbf02669b	-0.50937814
132	0xbec856e0	-0.3912878
133	0xbe402c4a	-0.18766895
134	0x3eb80c0c	0.3594669
135	0x3e8fc6de	0.2808141
136	0xbe4baac7	-0.19889365
137	0xbd99fb1e	-0.075186
138	0xbd28d0b4	-0.04121466
139	0xbd9ae910	-0.075639844
140	0x395d108f	0.00021082371
141	0xbdbed8db	-0.09318706
142	0x3eb252c4	0.3482877
143	0x3e2a8a47	0.16654311
144	0x3e2ab474	0.166704
145	0xbee3f3eb	-0.44522032
146	0x3f001a81	0.5004044
147	0x3dacb424	0.084327966
148	0x3ee56794	0.44805586
149	0xbdab704b	-0.083710276
150	0xbe99f356	-0.30068463
151	0xbeb40956	-0.35163373
152	0xbe2dc3a9	-0.1696917
153	0xbe7e8c8b	-0.248583
154	0x3e632307	0.2218133
155	0xbec3dcd8	-0.38254428
156	0xbe2e0413	-0.16993742
157	0xbed5297c	-0.41633213
158	0x3e8a434c	0.27004468
159	0x3d439581	0.04775
160	0xbdfef27c	-0.12448594
161	0x3ea4589b	0.3209885
162	0xbe0f6319	-0.14002647
163	0xbe8ea6aa	-0.2786153
164	0xbf435059	-0.76294476
165	0xbf202b4a	-0.62566054
166	0x3ed1e584	0.4099542
167	0x3e99ca0a	0.30036956
168	0x3bbab6f5	0.0056980797
169	0xbcb90422	-0.022584978
170	0xbf3fb3ed	-0.7488392
171	0xbe798824	-0.2436834
172	0xbe653c87	-0.2238637
173	0xbee6638d	-0.44997826
174	0xbeb3b98a	-0.35102493
175	0x3eb6e2b2	0.3571983
176	0x3d715620	0.058920026
177	0x3da10dfc	0.078639954
178	0xbde7ae19	-0.11312503
179	0xbe748be6	-0.23881492
180	0x3df202d4	0.11816946
181	0xbe1680a2	-0.14697507
182	0x3d70ee8b	0.058821242
183	0xbe6e6e2c	-0.23284215
184	0x3dc33e68	0.095333874
185	0x3e19ebd2	0.15031365
186	0xbeb48740	-0.35259438
187	0xbd43f5c7	-0.047841813
188	0x3e000183	0.12500577
189	0x3eddcf62	0.43322283
190	0xbd9befb8	-0.07614082
191	0x3c86d21c	0.01645761
192	0xbd1647fb	-0.03668974
193	0x3b2256f4	0.0024771066
194	0xbea25ea0	-0.31712818
195	0xbd80a1f4	-0.0628089
196	0xbe99da49	-0.3004935
197	0xbe116495	-0.14198525
198	0x3e56a6a6	0.20962009
199	0x3da29b87	0.07939821
200	0x3e113c87	0.14183246
201	0xbae84911	-0.0017721971
202	0x3f09d63a	0.5384251
203	0xbe78da21	-0.2430196
204	0xbe2f1b5b	-0.17100279
205	0x3e40f23e	0.18842408
206	0xbde7c461	-0.11316753
207	0xbbc25256	-0.0059302254
208	0x3d5552c8	0.0520809
209	0xbe332513	-0.17494611
210	0x3e9a8d3e	0.30185884
211	0x3e286196	0.16443476
212	0xbf2f6288	-0.6850972
213	0xbe5420dd	-0.20715661
214	0x3e874ad1	0.26424268
215	0x3e89350d	0.26798287
216	0xbd64ef0e	-0.055892043
217	0x3e444861	0.19168235
218	0x3ef9a388	0.48757577
219	0xbf14b213	-0.5808422
220	0xbdbb4e77	-0.09145825
221	0xbda84c4b	-0.08217677
222	0x3f0bc9f0	0.5460501
223	0x3e943cee	0.28952736
224	0x3dbaf763	0.091292165
225	0x3b98193b	0.0046416796
226	0xbde29a6d	-0.11064611
227	0xbe81c6ea	-0.25347072
228	0xbee91188	-0.45521188
229	0xbeb68a5b	-0.35652432
230	0x3efa1ddc	0.48850906
231	0xbe51596c	-0.20444268
232	0x3e0469f3	0.12931041
233	0x3ea0984d	0.31366196
234	0xbe23668d	-0.15957089
235	0xbee7910c	-0.4522785
236	0x3cc393ec	0.023874246
237	0xbeb27403	-0.34854135
238	0xbdd9a539	-0.10627217
239	0x3de2f64e	0.11082135
240	0x3c25817d	0.010101673
241	0x3e5565f3	0.20839672
242	0xbec8df13	-0.39232692
243	0xbf0ead38	-0.5573306
244	0xbe01146a	-0.12605444
245	0x3ec684d4	0.38773215
246	0x3e93a927	0.2883999
247	0xbce1a56e	-0.027544703
248	0xbdfadc5b	-0.12249061
249	0x3eadd309	0.3395007
250	0xbe89f172	-0.2694202
251	0x3f0373a0	0.51348305
252	0xbe88dd4c	-0.26731336
253	0x3e35c4c8	0.17750847
254	0xbc7f0159	-0.015564286
255	0x3d960a8c	0.073262304

lin.bias f4 [50]
0	0xbe37e272	-0.17957476
1	0xbde06d0f	-0.10958301
2	0x3eb0f5f3	0.34562644
3	0x3e222ef0	0.15838218
4	0xbd24b8b5	-0.040215213
5	0x3d8506d3	0.06495442
6	0x3d6e34f2	0.05815596
7	0x3e8e88f8	0.27838874
8	0x3eab4074	0.3344761
9	0x3e46da29	0.19419159
10	0xbca2bd05	-0.019865522
11	0xbd7eddb6	-0.06222316
12	0xbddc14d0	-0.10746157
13	0x3da4f629	0.08054764
14	0x3cdf004e	0.027221825
15	0x3d3d4288	0.046206027
16	0xbd9475db	-0.07249042
17	0xbdda1f9b	-0.106505595
18	0x3e40e0f2	0.1883581
19	0xbdd03118	-0.10165614
20	0xbe87f248	-0.26552033
21	0xbe7c07f2	-0.24612406
22	0xbdb41cb2	-0.08794536
23	0xbd9c4335	-0.07630006
24	0x3e2e2d8e	0.17009565
25	0xbe5133a0	-0.2042985
26	0x3eddf86a	0.43353587
27	0xbe2dbf90	-0.16967607
28	0x3d4ecda8	0.050489098
29	0x3eaa22c5	0.33229652
30	0xbe7c3491	-0.24629427
31	0x3d3b113f	0.045670744
32	0xbe6779ae	-0.22605011
33	0x3eecb387	0.46230718
34	0xbe113598	-0.141806
35	0x3c12e4d7	0.0089656925
36	0xbe250469	-0.16114964
37	0xbe818984	-0.2530023
38	0x3c9cab91	0.019124778
39	0x3dc07367	0.09397011
40	0x3cbbc721	0.0229221
41	0x3dd6ce68	0.104885876
42	0xbe144eee	-0.14483234
43	0x3e98e3ea	0.29861385
44	0x3ec148e0	0.37750912
45	0xbdf5692c	-0.119829506
46	0xbe80d06a	-0.25159007
47	0xbd59fef1	-0.053221647
48	0xbdbcb6c4	-0.09214547
49	0xbea627e4	-0.3245231
