cnn-100mono copy.pt (torch, 124491 bytes, 50 tensors)

conv1.weight f4 [8, 1, 5, 5]
-0.840004 0.025577206 0.04761081 -0.08896785 0.008551166 0.019830924 -0.2855771 0.1031847
-0.24896048 0.03442645 0.26361215 -0.28660658 -0.19889645 -0.2271543 -0.034448408 0.009405771
-0.29248846 -0.284744 0.40609327 0.36230278 -0.48755124 -0.29873317 -0.22009967 -0.3277714
0.37619203 -0.1457361 -0.2241092 0.18657555 0.57377267 0.39579877 -0.5088451 0.15729839
0.121724315 0.24868132 -0.13206257 -0.21185264 -0.25305808 -0.1536223 -0.05603862 0.15398872
-0.06764497 -0.30383936 0.48170742 -0.03362917 0.29559493 -0.35956857 -0.0038384825 -0.043835137
0.17837034 0.46107242 -0.1264106 0.19810331 0.021479415 -0.10691632 0.14227332 0.2529786
0.007964964 -0.14522932 -0.139706 0.056062125 0.71373653 -0.0055609783 -0.13375646 -0.3331961
-0.1961318 0.54714 0.19742227 -0.1830149 -0.22321165 0.4352327 0.45701793 0.032571718
-0.25613472 -0.48311028 0.14284372 -0.05433215 0.19876406 -0.021346226 0.16510366 -0.0038801234
0.092597164 -0.05358705 0.45337507 0.14798757 0.12710865 -0.12998036 -0.021387137 0.08378383
0.08427083 -0.16113907 -0.63859916 -0.2573343 -0.4693016 0.20666584 -0.449439 0.444858
0.34974495 -0.29844493 -0.18898624 0.079327635 -0.08132391 0.16629069 0.028214678 -0.40325454
-0.06791453 -0.2655575 -0.02403432 -0.18181336 0.030430194 0.34855878 -0.2898311 -0.27636343
0.37414747 0.40426293 -0.37793344 0.23327659 -0.027211428 0.0012845644 0.3567527 -0.474759
-0.14620598 -0.2518298 0.31883508 0.61960715 0.04407393 0.20211266 0.111495405 -0.09567056
-0.038695488 -0.04867616 0.5360574 0.6969036 0.15894693 0.40054944 0.034826122 0.4157608
0.22448076 -0.20158854 -0.0982528 -0.76578385 -0.0690191 -0.20371045 0.20021613 0.42279223
-0.3987163 -0.3760932 -0.07441243 -0.19907467 -0.19818969 -0.096333176 -0.028311167 -0.23109731
0.14398251 -0.13794263 -0.43774801 0.0058504255 0.32635897 -0.491968 -0.06764064 0.07310018
-0.06684818 -0.2636743 -0.03238975 0.018216975 0.023837496 0.036093444 0.3778712 -0.26889744
-0.06655739 0.27673003 0.51336867 0.22414407 0.43969983 0.18319617 0.011414055 -0.56845707
-0.083443284 -0.19197744 -0.12619974 -0.29028067 -0.06724199 0.35337293 0.12903671 0.034898072
-0.24423285 0.3297832 0.7007657 0.13222212 0.30220425 0.103684425 0.49777836 -0.14072573
0.076505736 -0.012995086 -0.43077782 0.26594314 -0.15795492 0.13198063 0.015038048 -0.104297
00000000: 810a 57bf 4a87 d13c 8d03 433d c734 b6bd
00000010: 311a 0c3c 7674 a23c 2937 92be 8052 d33d
00000020: 7fef 7ebe c002 0d3d 2cf8 863e 19be 92be
00000030: 83ab 4bbe 239b 68be c619 0dbd aa1a 1a3c
00000040: 0cc1 95be f7c9 91be 75eb cf3e c07f b93e
00000050: 51a0 f9be 8ef3 98be cf61 61be a7d1 a7be
00000060: 3e9c c03e d83b 15be e27c 65be a90d 3f3e
00000070: c4e2 123f 23a6 ca3e ac43 02bf d412 213e
00000080: 994a f93d 51a6 7e3e 693b 07be e6ef 58be
00000090: d490 81be 2a4f 1dbe c188 65bd 38af 1d3e
000000a0: 7289 8abd d590 9bbe 5ba2 f63e bebe 09bd
000000b0: 3858 973e 5f19 b8be 0d8f 7bbb 798c 33bd
000000c0: b7a6 363e af11 ec3e c871 01be 98db 4a3e
000000d0: 99f5 af3c f2f6 dabd 19b0 113e 6986 813e
000000e0: 7b7f 023c ffb6 14be 170f 0fbe 66a1 653d
000000f0: 70b7 363f de38 b6bb 74f7 08be ae98 aabe
00000100: c6d6 48be 5e11 0c3f 1029 4a3e 4268 3bbe
00000110: 9891 64be d2d6 de3e 41fe e93e ec69 053d
00000120: 1724 83be 3b5a f7be a045 123e 638b 5ebd
00000130: ce88 4b3e 48de aebc ef10 293e ab49 7ebb
00000140: 95a3 bd3d 187e 5bbd c720 e83e 0e8a 173e
00000150: c528 023e 9219 05be 1434 afbc db96 ab3d
00000160: 2f96 ac3d a401 25be 3c7b 23bf 52c1 83be
00000170: 4d48 f0be 36a0 533e de1c e6be 6ec4 e33e
00000180: c511 b33e c6cd 98be 9c85 41be 8776 a23d
00000190: 268d a6bd 1b48 2a3e 7822 e73c 6177 cebe
000001a0: c616 8bbd 27f7 87be 9fe3 c4bc 482d 3abe
000001b0: be48 f93c 4c76 b23e be64 94be 827f 8dbe
000001c0: 4290 bf3e 8dfb ce3e 7e80 c1be 0fe0 6e3e
000001d0: 80ea debc d45e a83a 4aa8 b63e 9d13 f3be
000001e0: 05b7 15be d6ef 80be 5a3e a33e 939e 1e3f
000001f0: dd86 343d 9ff6 4e3e b457 e43d edee c3bd
00000200: 297f 1ebd a760 47bd 0f3b 093f 4668 323f
00000210: fcc2 223e d114 cd3e d6a5 0e3d 99de d43e
00000220: 49de 653e 3a6d 4ebe c438 c9bd 690a 44bf
00000230: e359 8dbd 7999 50be 7505 4d3e 3978 d83e
00000240: 8b24 ccbe 4a8f c0be 8b65 98bd 3bda 4bbe
00000250: 3df2 4abe 544a c5bd d2ec e7bc c6a4 6cbe
00000260: 2770 133e d540 0dbe 8220 e0be edb4 bf3b
00000270: 8618 a73e 3be3 fbbe 2d87 8abd 8cb5 953d
00000280: b3e7 88bd 5100 87be 1dab 04bd c43b 953c
00000290: da46 c33c b8d6 133d 5578 c13e edac 89be
000002a0: 3e4f 88bd 8faf 8d3e 216c 033f 0686 653e
000002b0: 5620 e13e c797 3b3e 0402 3b3c 6786 11bf
000002c0: 50e4 aabd bc95 44be 813a 01be ab9f 94be
000002d0: 2bb6 89bd 4ced b43e 3322 043e 48f1 0e3d
000002e0: 2d18 7abe 58d9 a83e 6265 333f 3c65 073e
000002f0: 84ba 9a3e 8058 d43d cedc fe3e 681a 10be
00000300: 0aaf 9c3d 57e9 54bc e98e dcbe b329 883e
00000310: efbe 21be ee25 073e 2562 763c aa99 d5bd

conv1.bias f4 [8]
0.0784651 0.002647763 0.08842218 0.07262225 -0.12832068 0.04157466 0.046233837 -0.17873771
00000000: 4fb2 a03d 1786 2d3b b016 b53d f9ba 943d
00000010: 7f66 03be 314a 2a3d b15f 3d3d 0507 37be

bn1.weight f4 [8]
1.01009 1.0200126 0.9467294 0.9671513 1.200367 0.9907853 0.88457835 0.9112039
00000000: a14a 813f c68f 823f dc5c 723f 3a97 773f
00000010: a0a5 993f 1ba4 7d3f ba73 623f a944 693f

bn1.bias f4 [8]
-0.21134709 -0.20122893 -0.12480878 -0.14391741 0.08476848 0.026180355 -0.26013586 -0.012200349
00000000: 5f6b 58be f50e 4ebe bf9b ffbd 165f 13be
00000010: 199b ad3d 2f78 d63c 8730 85be f9e3 47bc

bn1.running_mean f4 [8]
0.971389 0.3708828 0.44283825 0.2902182 0.08606233 0.39658046 0.31671074 0.26253065
00000000: f3ac 783f 5ae4 bd3e b2bb e23e 7b97 943e
00000010: 7241 b03d 980c cb3e e927 a23e 6b6a 863e

bn1.running_var f4 [8]
1.7655425 0.32266548 0.34240016 0.17424859 0.050851133 0.32594308 0.25139186 0.2462156
00000000: 4cfd e13f 6934 a53e 134f af3e 396e 323e
00000010: 4749 503d 03e2 a63e 6fb6 803e f11f 7c3e

conv2.weight f4 [16, 8, 3, 3]
0.011084543 0.16624425 -0.026603963 -0.18022978 -0.13657452 0.008607255 -0.32354942 0.020291282
-0.17015947 -0.16890122 -0.057457764 -0.1710168 -0.029818444 -0.15534231 -0.30369264 0.13167301
0.29149744 0.31986612 0.004486854 0.19318727 0.14527763 0.051909223 0.009569582 -0.15345669
0.0081388485 0.014837431 0.08962632 -0.24692246 -0.012740639 -0.033996817 -0.15630038 -0.2830799
-0.11131456 -0.30908445 -0.05462862 -0.40721905 0.27177513 -0.05709463 0.011673725 0.117916904
0.14457943 -0.13828717 0.20558085 0.139801 0.24809389 0.060633067 0.11652438 -0.16844235
0.06493552 -0.1225161 0.15890875 -0.068563536 -0.20863256 -0.5653088 -0.028732298 -0.1506085
0.28594 -0.06493042 -0.07869408 0.12321268 0.38749972 0.24570024 0.16519101 0.0022489547
0.09295646 0.15045545 -0.07329865 -0.2162164 -0.057236973 0.22629349 0.10028744 0.20745067
-0.0606253 -0.025008988 -0.23848093 0.06899785 -0.08378287 0.13696708 -0.0006832436 0.2581871
-0.109884076 -0.106324516 0.064225025 0.2778888 -0.083362386 0.15804975 0.29734665 0.003988032
-0.16602205 -0.08733247 0.1040382 -0.06180258 -0.07715931 -0.030905547 0.08387134 -0.18392672
-0.061529845 -0.002800033 0.1249474 -0.009112367 -0.17822173 0.213595 0.12572002 -0.14839993
0.083588734 0.20640707 0.20660496 0.117408164 -0.30425742 -0.44660532 -0.3890489 -0.29486614
-0.46203682 -0.37365213 -0.086610794 -0.15667273 -0.0016195481 0.1887012 0.18095298 0.36460245
0.19967374 0.029315598 0.016603388 -0.19191596 0.035838347 0.2581993 -0.18809167 0.032443322
0.014136078 -0.03598381 -0.21458521 -0.037123065 -0.14953884 -0.36976883 -0.27690557 0.11984658
0.30274644 0.08648085 -0.19309664 -0.12293392 -0.014173326 -0.038920097 0.098608196 -0.15877038
0.08199844 0.27903205 0.14763904 -0.077042155 0.19116135 0.23726445 -0.17285205 -0.19892271
-0.31684878 -0.025067002 -0.08438413 -0.009063527 -0.26940724 -0.24059047 0.08215216 -0.01529085
-0.05440321 0.1442768 -0.04084107 -0.12969083 0.29953888 -0.06427137 -0.102905415 -0.03165868
-0.037753917 -0.10845791 -0.2217168 -0.0009617721 0.16633657 -0.09458364 -0.04376341 -0.06583491
-0.17624085 -0.11219879 -0.193203 -0.25640753 -0.24234882 -0.18532795 -0.30368534 0.058394935
-0.08011261 -0.19575016 0.2277032 -0.07664937 0.21773967 0.09499683 -0.052648444 -0.17508624
-0.06377369 -0.37166166 -0.30455104 -0.14571646 -0.004592263 0.19096921 0.02474757 -0.19321428
0.29926592 0.13098502 0.048908524 0.02135924 0.034489192 0.30466604 -0.12524922 -0.1530279
-0.15278281 0.12059523 0.040661175 0.05652159 -0.053988125 0.13056697 -0.18710323 0.30062097
0.2515651 -0.02712811 -0.06332649 0.053332977 0.11996482 -0.08754933 -0.052848913 -0.05259851
-0.29234496 -0.2297007 0.07885541 -0.19085035 0.47721747 0.107591204 -0.011099875 0.11681767
0.2290392 0.33407873 -0.11513685 -0.024995686 -0.12898833 -0.041353848 0.14831042 0.07352876
0.1824673 -0.18556634 -0.16259493 -0.24703962 -0.030834462 0.46326917 0.30177364 0.122099094
0.23139152 0.44481283 0.308746 0.32828566 -0.0061867284 0.04529697 0.07343578 0.070759565
00000000: f19b 353c ef3b 2a3e 8ef0 d9bc 288e 38be
00000010: 31da 0bbe 7205 0d3c 45a8 a5be e739 a63c
00000020: 493e 2ebe 71f4 2cbe d558 6bbd 071f 2fbe
00000030: cf45 f4bc 0e12 1fbe 9a7d 9bbe 4ad5 063e
00000040: 273f 953e 7ec5 a33e 7606 933b e2d2 453e
00000050: a9c3 143e c49e 543d bcc9 1c3c c023 1dbe
00000060: ce58 053c b218 733c 018e b73d 3ed9 7cbe
00000070: 1dbe 50bc 3f40 0bbd 350d 20be d9ef 90be
00000080: e3f8 e3bd 5140 9ebe 43c2 5fbd 047f d0be
00000090: 1c26 8b3e 0fdc 69bd 2743 3f3c 6b7e f13d
000000a0: a10c 143e 279b 0dbe c983 523e fe27 0f3e
000000b0: 530c 7e3e 615a 783d 56a4 ee3d 277c 2cbe
000000c0: eafc 843d b9e9 fabd fab8 223e 0a6b 8cbd
000000d0: c6a3 55be 14b8 10bf ff5f ebbc 1d39 1abe
000000e0: ba66 923e 3dfa 84bd 5d2a a1bd ee56 fc3d
000000f0: 5d66 c63e d898 7b3e d527 293e 3363 133b
00000100: f55f be3d fe10 1a3e 9a1d 96bd d567 5dbe
00000110: 5171 6abd 7bb9 673e 8063 cd3d f36d 543e
00000120: 3c52 78bd a6df ccbc 5834 74be bf4e 8d3d
00000130: 5a96 abbd 1941 0c3e b41b 33ba 1931 843e
00000140: e70a e1bd abc0 d9bd 6988 833d 7147 8e3e
00000150: e6b9 aabd cbd7 213e d23d 983e 0aae 823b
00000160: af01 2abe 5edb b2bd fb11 d53d b424 7dbd
00000170: b305 9ebd a12d fdbc bdc4 ab3d 4957 3cbe
00000180: b806 7cbd c280 37bb 6ce4 ff3d 0a4c 15bc
00000190: c27f 36be a6b8 5a3e c0bc 003e 27f6 17be
000001a0: 9230 ab3d 605c 533e 4090 533e b173 f03d
000001b0: a1c7 9bbe 74a9 e4be 6b31 c7be b2f8 96be
000001c0: 1790 ecbe 554f bfbe 0061 b1bd d16e 20be
000001d0: 0447 d4ba e33a 413e bd4b 393e 2cad ba3e
000001e0: 4677 4c3e 4427 f03c d403 883c 9e85 44be
000001f0: 3bcb 123d b332 843e 1a9b 40be 4ae3 043d
00000200: 029b 673c c263 13bd 3abc 5bbe 5b0e 18bd
00000210: b620 19be 5752 bdbe 91c6 8dbe 2072 f53d
00000220: 9501 9b3e df1c b13d 20bb 45be c7c4 fbbd
00000230: 3d37 68bc ae6a 1fbd 18f3 c93d b494 22be
00000240: ccee a73d 4add 8e3e b02e 173e 47c8 9dbd
00000250: cdbf 433e 74f5 723e 2100 31be 65b2 4bbe
00000260: 013a a2be 5059 cdbc 96d1 acbd 307f 14bc
00000270: bfef 89be 595d 76be 643f a83d 7986 7abc
00000280: e6d5 5ebd 4cbd 133e f748 27bd accd 04be
00000290: 295d 993e b5a0 83bd 13c0 d2bd 88ac 01bd
000002a0: daa3 1abd 2e1f debd bb09 63be 6f1f 7cba
000002b0: 2254 2a3e 11b5 c1bd 4341 33bd 74d4 86bd
000002c0: 7b78 34be 7bc8 e5bd 02d7 45be d947 83be
000002d0: 4a2a 78be 9cc6 3dbe a57c 9bbe 872f 6f3d
000002e0: 1412 a4bd bb72 48be 072b 693e 58fa 9cbd
000002f0: 26f7 5e3e b38d c23d e5a5 57bd cf49 33be
00000300: c89b 82bd 704a bebe 1dee 9bbe b236 15be
00000310: b27a 96bb 6f8d 433e 6abb ca3c f7d9 45be
00000320: 6239 993e f020 063e 4e54 483d 93f9 ae3c
00000330: 8a44 0d3d 30fd 9b3e 5541 00be 59b3 1cbe
00000340: 1973 1cbe a2fa f63d 558c 263d 2f83 673d
00000350: a722 5dbd 59b3 053e fd97 3fbe feea 993e
00000360: 24cd 803e c53b debc 52b1 81bd ae73 5a3d
00000370: 1eb0 f53d 104d b3bd 1a78 58bd 8971 57bd
00000380: 3dae 95be a936 6bbe f27e a13d 466e 43be
00000390: d955 f43e c758 dc3d 40dc 35bc 1a3e ef3d
000003a0: 4189 6a3e 5e0c ab3e decc ebbd c1c3 ccbc
000003b0: 8415 04be a762 29bd b0de 173e 3f96 963d
000003c0: b5d8 3a3e 1a05 3ebe 497f 26be f4f7 7cbe
000003d0: 8e98 fcbc 9e31 ed3e 1382 9a3e 170f fa3d
000003e0: e6f1 6c3e 82be e33e f513 9e3e 0f15 a83e
000003f0: 0aba cabb 5189 393d 8065 963d 64ea 903d

conv2.bias f4 [16]
-0.103711985 0.049605105 0.108752064 -0.297011 -0.16118132 0.08004066 -0.17156717 -0.02860397
-0.07000177 -0.09064104 0.27246696 -0.28674996 -0.14346005 0.04842985 0.022883479 0.14057124
00000000: f366 d4bd b92e 4b3d 67b9 de3d d311 98be
00000010: b70c 25be 5cec a33d 4eaf 2fbe df52 eabc
00000020: 175d 8fbd 02a2 b9bd ca80 8b3e e4d0 92be
00000030: 31e7 12be 615e 463d 2276 bb3c e8f1 0f3e

bn2.weight f4 [16]
0.9516402 1.1584778 0.89626133 0.8625372 1.026605 0.81384325 1.1339278 1.1776617
0.9839295 1.2306135 0.82065976 0.94543785 0.98070455 0.91724163 0.80507565 0.88809294
00000000: b19e 733f 0049 943f 6271 653f 3dcf 5c3f
00000010: cb67 833f 0858 503f 8c24 913f 9ebd 963f
00000020: cee2 7b3f be84 9d3f c216 523f 3708 723f
00000030: 740f 7b3f 59d0 6a3f 7019 4e3f 0f5a 633f

bn2.bias f4 [16]
0.19117682 -0.12573184 0.27940747 -0.03289835 0.04114766 -0.18443662 -0.0051939622 -0.074082874
0.17648846 0.038978755 -0.042418312 -0.14907342 -0.17981623 -0.19949375 -0.40863273 -0.3221023
00000000: dbc3 433e d9bf 00be 7f0e 8f3e 6cc0 06bd
00000010: 738a 283d f4dc 3cbe 1d32 aabb c3b8 97bd
00000020: 64b9 343e 30a8 1f3d d3be 2dbd b4a6 18be
00000030: bf21 38be 1748 4cbe 4f38 d1be 98ea a4be

bn2.running_mean f4 [16]
0.9474001 0.9888818 0.7114196 0.51556945 0.4900894 1.3280648 0.32259873 0.67378765
0.4025889 0.41970038 0.6043405 0.38181904 0.46883413 1.1162038 2.5846603 0.43298024
00000000: d088 723f 5c27 7d3f 981f 363f 5cfc 033f
00000010: ffec fa3e 07fe a93f a92b a53e 597d 2c3f
00000020: 2220 ce3e f8e2 d63e 0fb6 1a3f c97d c33e
00000030: 070b f03e c4df 8e3f 136b 2540 96af dd3e

bn2.running_var f4 [16]
2.3064048 1.2271093 0.6363888 1.6054246 1.423543 1.3608131 0.43027952 1.8412949
0.9668213 1.9691266 1.2472318 0.8294325 0.856922 0.9723651 6.261381 0.6516379
00000000: 239c 1340 eb11 9d3f 60ea 223f 8e7e cd3f
00000010: a836 b63f 202f ae3f 994d dc3e 8daf eb3f
00000020: 9a81 773f 570c fc3f 4ba5 9f3f b055 543f
00000030: 3d5f 5b3f ebec 783f 3c5d c840 bed1 263f

conv3.weight f4 [32, 16, 3, 3]
-0.071582966 -0.1390349 0.18570547 -0.15502587 -0.021848766 -0.14072926 -0.1990931 -0.063118905
0.117513604 -0.0078018135 0.031781368 -0.0618894 -0.022348387 0.1950311 0.09535847 0.1043211
-0.016843002 0.1518472 -0.009167316 -0.08680001 -0.2474797 -0.12828396 -0.22777893 -0.10398906
-0.036773216 -0.05185494 0.0038638648 -0.024124375 0.03902113 -0.14016405 -0.017122779 0.13038662
0.084533945 0.09979488 -0.18495372 -0.13735281 0.039913166 0.022124553 -0.1338112 -0.4280233
-0.29807353 -0.08443099 -0.076500416 -0.055302642 0.00018516812 -0.084652536 0.09403193 -0.005803911
0.25590327 0.14197095 0.3165595 -0.051667232 -0.08364195 0.11034178 -0.102298796 -0.11264538
-0.077072084 -0.03208562 -0.017948247 0.034766074 0.03925639 0.12426185 -0.035408355 0.04949081
-0.16683288 0.08009837 -0.0636362 0.03768445 -0.04975832 -0.4386597 -0.2707158 -0.07384533
-0.026629176 0.1666416 -0.017054442 -0.2684013 0.122058496 -0.10529162 -0.1020946 -0.34049892
0.026834685 0.16714928 0.2874952 0.16404133 0.13399607 0.07225619 0.2034953 0.07466681
0.13936259 0.059329104 -0.107337795 0.12124418 0.060876127 -0.20776707 -0.012672569 -0.04036996
0.069285095 -0.13215297 -0.02170143 -0.07936218 -0.18839766 0.025634216 -0.051861674 -0.12147925
0.023061348 -0.06684125 -0.019787993 0.2186831 0.035523895 0.051337533 0.075048134 -0.15491061
-0.19542193 0.027898587 -0.1256444 -0.0056905164 0.11326512 0.086235516 -0.090047106 0.15265
0.11891295 0.22003415 0.21995428 0.049796265 0.15496768 0.06198547 -0.18997478 -0.01977565
-0.308987 -0.1686964 0.08076841 -0.038034685 0.17898205 -0.031681854 0.32796678 0.03955516
-0.058930375 -0.086314596 -0.073625594 0.06381339 -0.06964118 -0.09527595 -0.049379714 -0.009368827
-0.1461111 -0.108233705 -0.0481778 -0.25723556 -0.085293025 0.19351286 0.08953729 0.16224112
0.030554434 -0.03759802 0.102264665 -0.006156116 -0.030560976 0.041386414 0.114588425 0.06157913
-0.0183394 0.061762333 0.039988104 0.020737275 -0.17727333 -0.0015980682 -0.014410304 -0.124693744
-0.076838456 0.16073528 -0.16291097 -0.07358171 -0.076803364 0.007660269 -0.07664005 0.003722939
0.13613857 -0.19576268 0.10558584 0.12740447 -0.14483923 -0.04532892 -0.08180323 -0.02689664
-0.023017472 -0.14621255 0.1295993 0.055703804 -0.093416095 0.011783132 0.14742443 -0.026360594
0.12963316 0.09366215 0.08107254 -0.09929516 0.09145409 0.11811605 -0.14088704 0.022203747
0.14918585 -0.043370545 0.011662016 0.034389883 0.051202387 0.07677676 0.09511937 -0.29491237
-0.15676728 0.00720087 -0.2436864 -0.20366587 -0.2242336 -0.3768543 -0.22593151 -0.14773056
-0.072888695 -0.086908296 -0.032326307 -0.15290791 -0.044249166 -0.0442322 0.12580849 0.036275182
0.03919888 -0.7632196 -0.728445 -0.942581 -0.39042297 -0.47324476 -0.38620356 -0.36715505
-0.4140173 -0.57327366 0.0873361 0.19278611 0.17186518 -0.08918748 0.25763696 0.11215778
-0.07779956 -0.017817512 0.39152485 -0.18687129 -0.05926908 0.037586294 -0.16738431 0.19269623
-0.18027602 -0.0561987 0.19835669 0.039493475 0.15111507 0.040039912 0.014751116 0.10453124
00000000: 179a 92bd 2a5f 0ebe 9329 3e3e 1abf 1ebe
00000010: 2ffc b2bc 551b 10be 10df 4bbe 7c44 81bd
00000020: f9aa f03d 5ba6 ffbb 2e2d 023d bd7f 7dbd
00000030: f713 b7bc 3cb6 473e 4d4b c33d 4da6 d53d
00000040: 56fa 89bc d57d 1b3e 8332 16bc 34c4 b1bd
00000050: 526b 7dbe df5c 03be e13e 69be 37f8 d4bd
00000060: 839f 16bd d865 54bd e538 7d3b 7ba0 c5bc
00000070: 9fd4 1f3d 2a87 0fbe 1245 8cbc 1284 053e
00000080: 2220 ad3d 4261 cc3d 8264 3dbe 37a6 0cbe
00000090: fd7b 233d 8d3e b53c ce05 09be df25 dbbe
000000a0: 189d 98be 28ea acbd 40ac 9cbd 0685 62bd
000000b0: b029 4239 4f5e adbd d093 c03d bc2e bebb
000000c0: c105 833e d560 113e 1614 a23e 05a1 53bd
000000d0: 784c abbd dffa e13d 0882 d1bd 9fb2 e6bd
000000e0: f8d7 9dbd 366c 03bd 3408 93bc df66 0e3d
000000f0: 4fcb 203d ff7c fe3d 5a08 11bd e0b6 4a3d
00000100: 3dd6 2abe 9d0a a43d b253 82bd 035b 1a3d
00000110: 61cf 4bbd 0198 e0be 439b 8abe 383c 97bd
00000120: 6e25 dabc 18a4 2a3e c2b5 8bbc e56b 89be
00000130: cef9 f93d 22a3 d7bd f916 d1bd e055 aebe
00000140: 6ad4 db3c 2e29 2b3e 9232 933e 73fa 273e
00000150: 4436 093e 0efb 933d 1261 503e eaea 983d
00000160: 11b5 0e3e 1303 733d ebd3 dbbd de4e f83d
00000170: 3f59 793d e4c0 54be 9ba0 4fbc f95a 25bd
00000180: 58e5 8d3d 1c53 07be 33c7 b1bc a388 a2bd
00000190: 51eb 40be d9fe d13c e86c 54bd 1dca f8bd
000001a0: 27eb bc3c 11e4 88bd 6e1a a2bc 76ee 5f3e
000001b0: 8181 113d 4e47 523d d6b2 993d e3a0 1ebe
000001c0: b01c 48be 948b e43c eda8 00be 8377 babb
000001d0: 8bf7 e73d 3f9c b03d 9e6a b8bd 4850 1c3e
000001e0: a288 f33d a250 613e b23b 613e 2bf7 4b3d
000001f0: d9af 1e3e 7ae4 7d3d c088 42be 8b00 a2bc
00000200: 8b33 9ebe c0be 2cbe e869 a53d 42ca 1bbd
00000210: 1247 373e d5c4 01bd 43eb a73e 9704 223d
00000220: fa60 71bd b5c5 b0bd 04c9 96bd 98b0 823d
00000230: 09a0 8ebd 0a20 c3bd 6242 4abd b57f 19bc
00000240: 269e 15be a2a9 ddbd 1656 45bd 61b4 83be
00000250: 1cae aebd 3c28 463e 545f b73d 8922 263e
00000260: 4b4d fa3c 6200 1abd 2370 d13d 3eb9 c9bb
00000270: 035b fabc cd84 293d 56ad ea3d 663a 7c3d
00000280: 823c 96bc 80fa 7c3d 91ca 233d 38e1 a93c
00000290: 2487 35be 4576 d1ba 3219 6cbc 6f5f ffbd
000002a0: 7b5d 9dbd ca97 243e 22d2 26be 02b2 96bd
000002b0: 154b 9dbd fe02 fb3b 75f5 9cbd 8dfc 733b
000002c0: e967 0b3e 0376 48be 643d d83d 5176 023e
000002d0: bc50 14be d1aa 39bd 7488 a7bd 5856 dcbc
000002e0: 238f bcbc beb8 15be aeb5 043e ac29 643d
000002f0: f050 bfbd 0a0e 413c 6ef6 163e 2cf2 d7bc
00000300: 8ebe 043e f1d1 bf3d 5c09 a63d 435b cbbd
00000310: 484c bb3d d4e6 f13d b144 10be a2e4 b53c
00000320: 2dc4 183e 50a5 31bd 0a12 3f3c 68dc 0c3d
00000330: 98b9 513d 223d 9d3d f2cd c23d c1fe 96be
00000340: 9a87 20be 47f5 eb3b ed88 79be c98d 50be
00000350: 7e9d 65be 0cf3 c0be 975a 67be ae46 17be
00000360: ab46 95bd fafc b1bd 9768 04bd e493 1cbe
00000370: 9d3e 35bd d32c 35bd f1d3 003e 4995 143d
00000380: 018f 203d 5c62 43bf 5f7b 3abf fd4c 71bf
00000390: 85e5 c7be 234d f2be 79bc c5be bffb bbbe
000003a0: 13fa d3be 10c2 12bf 45dd b23d b969 453e
000003b0: 6dfd 2f3e eda7 b6bd fee8 833e fab2 e53d
000003c0: 6055 9fbd 08f6 91bc f275 c83e 305b 3fbe
000003d0: 23c4 72bd 16f4 193d cb66 2bbe 2952 453e
000003e0: 479a 38be 9c30 66bd 041e 4b3e e9c3 213d
000003f0: e9bd 1a3e e400 243d aaae 713c 7a14 d63d

conv3.bias f4 [32]
-0.28745908 -0.22305226 -0.116932034 -0.10137515 -0.2283162 -0.17814873 0.052558262 0.034158524
-0.37714684 -0.17853327 -0.21612072 -0.2216481 -0.22389548 -0.5166671 -0.10184195 0.07550352
-0.44596955 -0.17794977 -0.12240454 -0.25368515 -0.28156513 -0.2454555 -0.06769353 -0.26177797
-0.124106444 -0.41325572 -0.21473543 -0.24326964 -0.29886988 -0.09354038 -0.07580877 0.008460644
00000000: d62d 93be d067 64be 107a efbd c69d cfbd
00000010: b9cb 69be 9f6c 36be 5547 573d cfe9 0b3d
00000020: 6419 c1be 6dd1 36be c04e 5dbe b8f7 62be
00000030: db44 65be 4c44 04bf 8392 d0bd 97a1 9a3d
00000040: 1f56 e4be 7738 36be 3baf fabd 05e3 81be
00000050: 4e29 90be b058 7bbe e8a2 8abd c307 86be
00000060: 852b febd 4196 d3be 9be3 5bbe ad1b 79be
00000070: 7905 99be 1992 bfbd a141 9bbd 839e 0a3c

bn3.weight f4 [32]
0.9511038 1.0382662 0.9390612 0.8744698 0.9200523 1.104234 0.9312337 1.0001459
1.080039 0.9923997 0.9575242 0.9357214 1.0276209 1.2502717 0.98752266 0.9199079
1.167644 1.0212536 1.042244 0.9208374 0.98799396 1.1528004 0.9200229 1.0011514
0.9305627 0.9687555 0.883964 0.92936534 0.9467482 1.0120342 0.98889077 0.9851922
00000000: 8a7b 733f e8e5 843f 5166 703f 41dd 5f3f
00000010: 8c88 6b3f 8a57 8d3f 5565 6e3f c804 803f
00000020: b83e 8a3f e80d 7e3f 4e20 753f 708b 6f3f
00000030: 1589 833f e708 a03f 49ce 7c3f 167f 6b3f
00000040: 5c75 953f 70b8 823f 4068 853f 00bc 6b3f
00000050: 2ced 7c3f f78e 933f 9f86 6b3f bb25 803f
00000060: 5b39 6e3f 5c00 783f 774b 623f e3ea 6d3f
00000070: 175e 723f 568a 813f f227 7d3f 8e35 7c3f

bn3.bias f4 [32]
0.14746748 0.09875621 0.21341245 0.10150043 0.09090135 -0.032947745 0.12000565 -0.25441003
0.27816048 0.013002919 0.20977397 0.048179254 0.14079703 -0.23626496 0.18475045 0.313982
-0.13807702 0.27569485 0.43614924 0.3927906 -0.15222274 0.14853473 -0.25240824 0.27405465
-0.041759994 0.13175738 0.029572047 -0.10404421 0.13294226 -0.071132146 -0.17933828 -0.116408974
00000000: b701 173e b240 ca3d cb88 5a3e 75df cf3d
00000010: 7d2a ba3d 37f4 06bd 86c5 f53d 0842 82be
00000020: 0d6b 8e3e 320a 553c fdce 563e 9c57 453d
00000030: 192d 103e 71ef 71be 392f 3d3e 40c2 a03e
00000040: 1064 0dbe e027 8d3e f44e df3e d91b c93e
00000050: 47e0 1bbe 7d19 183e a73b 81be e450 8c3e
00000060: 870c 2bbd 68eb 063e 1441 f23c 2115 d5bd
00000070: 0422 083e bbad 91bd 74a4 37be d467 eebd

bn3.running_mean f4 [32]
0.6747162 0.8889988 1.0131645 0.7177515 0.6096699 0.95425534 1.0989579 1.1065497
0.40219828 0.6405712 1.1562557 0.78946817 0.538726 0.4659512 0.44635943 0.8447556
0.38967872 0.56178886 0.60331327 0.5574258 0.4710859 0.41508943 0.63112044 0.76279926
0.6191065 0.6355583 1.3609605 0.91937083 0.7530429 0.65333146 1.0323498 0.55575097
00000000: 33ba 2c3f 6d95 633f 60af 813f 90be 373f
00000010: 5413 1c3f 144a 743f a7aa 8c3f 6ca3 8d3f
00000020: efec cd3e 79fc 233f 3000 943f 961a 4a3f
00000030: f2e9 093f 2891 ee3e 3989 e43e e741 583f
00000040: f883 c73e 65d1 0f3f bd72 1a3f 75b3 0e3f
00000050: 2c32 f13e 9a86 d43e 1c91 213f d046 433f
00000060: c37d 1e3f f3b3 223f f433 ae3f e35b 6b3f
00000070: 6bc7 403f bb40 273f 0a24 843f b245 0e3f

bn3.running_var f4 [32]
1.0940095 0.86145705 1.1404552 1.420605 0.70462173 1.8859228 1.0616219 1.5096511
1.2471052 1.9110112 2.5934336 2.346787 1.2542423 1.559019 0.7366341 1.4616154
1.0113977 1.7478005 1.7279488 0.85579515 1.2493396 1.0973357 0.91957206 1.2526112
1.138419 2.7264922 1.804853 1.3309249 1.1899421 1.3521898 1.1545255 1.2590042
00000000: 8108 8c3f 7388 5c3f 70fa 913f 62d6 b53f
00000010: 1762 343f eb65 f13f 3ae3 873f 3f3c c13f
00000020: 25a1 9f3f 049c f43f d1fa 2540 c231 1640
00000030: 038b a03f ef8d c73f 0d94 3c3f 3716 bb3f
00000040: 7b75 813f edb7 df3f 6d2d dd3f 6415 5b3f
00000050: 5cea 9f3f 7f75 8c3f 1369 6b3f 9055 a03f
00000060: b7b7 913f d97e 2e40 6c05 e73f bf5b aa3f
00000070: 0650 983f 8e14 ad3f 7ec7 933f 0d27 a13f

conv4.weight f4 [64, 32, 3, 3]
0.053495027 -0.09319346 -0.12770262 0.27259612 0.17344776 0.09989942 0.13378716 0.07488101
0.0907752 -0.045511123 -0.07461893 -0.09706903 0.067529544 0.09653207 0.14269541 -0.0054711923
-0.10965493 0.13278194 -0.13579935 -0.036502056 -0.019615991 0.09656644 -0.0041443226 0.055923622
0.0067092255 -0.023494456 -0.02429014 0.09887982 0.066640034 -0.017941698 0.053988636 -0.05771706
-0.0374093 0.14314884 0.08469715 0.034004334 -0.0011614442 0.05118219 0.06841159 0.038002364
-0.07762109 -0.061873768 -0.022520626 0.12149062 -0.032072984 0.11942304 -0.05079307 0.04788003
0.17070027 0.15247767 0.20742801 0.26189682 0.10831192 0.23042075 0.012289517 -0.0364373
-0.07385007 0.0700686 0.030452956 0.028454531 -0.10296984 0.03370534 -0.12728043 -0.015611358
-0.00468159 -0.06413852 0.055387516 -0.01172452 -0.11265152 0.17421417 0.099010475 0.05877671
0.14482912 0.1569158 0.19746128 -0.06143504 0.050323166 0.082993925 0.26306587 0.18511769
0.10946063 0.034802645 0.035260342 -0.033566315 0.07552044 0.24916756 0.06339782 0.13532567
0.07000123 -0.022546597 0.22036892 0.062767655 0.037906095 -0.1347325 -0.0070949276 0.017876955
0.095796265 0.037681166 0.049057048 0.14668964 0.11741919 0.04827678 0.061997324 0.017881578
0.11765428 0.12648265 -0.018073691 -0.1249528 0.013114842 0.036431134 0.15997611 -0.044086047
0.035731144 0.08842437 0.13295607 -0.13542767 0.21157275 0.1478191 0.14313592 0.16358584
0.1921634 0.12311641 0.10945331 -0.039323475 -0.0008508076 -0.05844965 -0.016400665 -0.03895126
-0.10982523 0.08048164 -0.14829996 0.0063563916 -0.030841492 -0.119589664 0.041247733 -0.071524784
0.03617831 -0.011739623 -0.15608001 -0.111222535 -0.07262355 -0.054881506 0.047403287 -0.06380654
-0.011653686 -0.09717438 -0.047110017 0.21682937 0.05118169 0.08748845 -0.0176061 -0.0014784518
-0.07200487 0.0033774993 -0.026289897 0.021753613 0.011502418 -0.008435978 -0.092201635 0.009270784
0.0047183516 0.040423285 -0.0859814 0.1371292 -0.025450652 -0.06274518 -0.030415827 -0.058785927
-0.09492187 -0.0731349 0.05779096 0.053073402 0.03349315 0.007525196 -0.16241282 -0.14021276
-0.11174584 -0.19222602 -0.19403276 -0.2798307 0.06574979 0.008054701 0.11817139 0.12423334
0.011262698 0.07288361 0.035060138 0.018781142 -0.038467977 -0.06837738 -0.036815666 -0.08719043
-0.17420453 -0.051825937 -0.07537029 -0.21981965 -0.20091897 -0.17154592 -0.03901787 0.16290864
0.1112432 0.12433142 0.0153399985 0.041010942 0.06620881 0.029760616 0.03050551 0.037423085
0.039970234 0.16725649 -0.06622735 0.030621411 0.0012054022 -0.18071255 -0.056493025 -0.15608115
-0.011519022 0.042889554 0.08338894 0.06918302 0.044717826 -0.027121495 -0.16218957 -0.10214161
0.0018229974 0.011394601 -0.010818437 0.067921646 0.06453398 -0.036510754 0.06201579 0.15409648
0.17179926 -0.044198677 0.014331601 0.1795596 0.12732357 0.027785197 0.094878525 -0.015304023
0.09602108 0.11673518 0.064392984 -0.10223687 0.0010617018 -0.033994544 0.015470593 0.12524244
0.094144754 0.21148089 0.056712877 0.24673589 0.012303796 0.11395502 -0.07784046 -0.15077199
00000000: 9a1d 5b3d 36dc bebd 7ac4 02be b891 8b3e
00000010: 4a9c 313e 1198 cc3d 80ff 083e 375b 993d
00000020: 59e8 b93d df69 3abd cfd1 98bd 21cc c6bd
00000030: ee4c 8a3d 9bb2 c53d bf1e 123e b047 b3bb
00000040: c492 e0bd fdf7 073e fc0e 0bbe 2e83 15bd
00000050: b7b1 a0bc a0c4 c53d 19cd 87bb 2b10 653d
00000060: 10d9 db3b 7277 c0bc 1efc c6bc 8181 ca3d
00000070: 927a 883d 78fa 92bc 3023 5d3d b968 6cbd
00000080: 7f3a 19bd 9c95 123e b375 ad3d 2148 0b3d
00000090: 9a3b 98ba 6ba4 513d 601b 8c3d 5ea8 1b3d
000000a0: cef7 9ebd 596f 7dbd 2d7d b8bc 13d0 f83d
000000b0: f65e 03bd 1194 f43d 650c 50bd da1d 443d
000000c0: 0dcc 2e3e 1b23 1c3e 0268 543e 5717 863e
000000d0: a4d2 dd3d 6bf3 6b3e f859 493c 473f 15bd
000000e0: b53e 97bd 2080 8f3d 7a78 f93c 7a19 e93c
000000f0: dae1 d2bd 9c0e 0a3d cd55 02be c8c6 7fbc
00000100: 0668 99bb 0e5b 83bd 05de 623d 3318 40bc
00000110: d7b5 e6bd 3365 323e 01c6 ca3d d9bf 703d
00000120: 164e 143e 89ae 203e 4a33 4a3e 4fa3 7bbd
00000130: aa1f 4e3d b8f8 a93d 92b0 863e 7e8f 3d3e
00000140: e52c e03d 388d 0e3d 266d 103d d57c 09bd
00000150: 76aa 9a3d c825 7f3e b7d6 813d d092 0a3e
00000160: ce5c 8f3d a4b3 b8bc 64a8 613e 548c 803d
00000170: 6c43 1b3d 51f7 09be 917c e8bb b172 923c
00000180: d530 c43d 9157 1a3d 0bf0 483d cf35 163e
00000190: 7979 f03d dfbd 453d e8f0 7d3d 637c 923c
000001a0: baf4 f03d ab84 013e 470f 94bc 41e7 ffbd
000001b0: a2df 563c d038 153d c7d0 233e 9293 34bd
000001c0: d25a 123d d617 b53d a325 083e 8dad 0abe
000001d0: 87a6 583e e45d 173e 3992 123e 0c83 273e
000001e0: 7bc6 443e 7524 fc3d 0f29 e03d a711 21bd
000001f0: bb08 5fba e668 6fbd b05a 86bc 5b8b 1fbd
00000200: 0dec e0bd 8fd3 a43d f2db 17be 4749 d03b
00000210: 4ca7 fcbc 6deb f4bd 62f3 283d 967b 92bd
00000220: b52f 143d 8c57 40bc 70d3 1fbe a4c8 e3bd
00000230: a8bb 94bd 6ecb 60bd f329 423d 01ad 82bd
00000240: 1aef 3ebc 5d03 c7bd 6ff6 40bd 8508 5e3e
00000250: e4a3 513d 252d b33d ab3a 90bc 9cc8 c1ba
00000260: 4a77 93bd 0959 5d3b e95d d7bc a234 b23c
00000270: a374 3c3c 0e37 0abc 36d4 bcbd 7de4 173c
00000280: 679c 9a3b e392 253d 0417 b0bd 996b 0c3e
00000290: e37d d0bc 8c80 80bd 9d2a f9bc 83c9 70bd
000002a0: 6666 c2bd c0c7 95bd 37b6 6c3d 7f63 593d
000002b0: 1d30 093d eb95 f63b 8c4f 26be ef93 0fbe
000002c0: 01db e4bd e6d6 44be 86b0 46be f845 8fbe
000002d0: d3a7 863d ddf7 033c d703 f23d 0d6e fe3d
000002e0: 2e87 383c 0144 953d 389b 0f3d e9da 993c
000002f0: 9990 1dbd 7109 8cbd 06cc 16bd e590 b2bd
00000300: ac62 32be 6f47 54bd bd5b 9abd 6718 61be
00000310: b4bd 4dbe bca9 2fbe 34d1 1fbd 86d1 263e
00000320: 7ad3 e33d 79a1 fe3d 9e54 7b3c 17fb 273d
00000330: 7c98 873d 89cc f33c b1e6 f93c f348 193d
00000340: d4b7 233d 4945 2b3e 34a2 87bd c1d9 fa3c
00000350: 96fe 9d3a b60c 39be 3b65 67bd bdd3 1fbe
00000360: 48ba 3cbc f5ac 2f3d d2c7 aa3d d4af 8d3d
00000370: 0a2a 373d e62d debc 0615 26be 9f2f d1bd
00000380: a4f1 ee3a 6cb0 3a3c d03f 31bc 811a 8b3d
00000390: 642a 843d 4d8c 15bd 4504 7e3d 78cb 1d3e
000003a0: 25ec 2f3e ac09 35bd 17cf 6a3c 79de 373e
000003b0: 1c61 023e c89d e33c ac4f c23d babd 7abc
000003c0: b3a6 c43d db12 ef3d 78e0 833d 9061 d1bd
000003d0: cd28 8b3a dd3d 0bbd 5f78 7d3c 8e3f 003e
000003e0: f7ce c03d 728e 583e c34b 683d 55a8 7c3e
000003f0: dc95 493c 4061 e93d d26a 9fbd f963 1abe

conv4.bias f4 [64]
-0.37609848 0.09968437 0.02704982 -0.100000635 -0.0113750035 0.13336192 -0.24942805 -0.10017207
-0.088086806 -0.2014085 -0.13167447 -0.1483021 -0.21397536 -0.10335319 0.08987892 -0.35166612
0.3470742 -0.17440899 0.1980933 -0.079931214 -0.028906621 -0.14192264 0.08849006 -0.3166222
-0.089844555 -0.1874616 -0.09824322 -0.017366987 0.012150923 -0.17903543 -0.022319881 0.105236545
-0.20425709 -0.28690585 -0.18125653 -0.24205244 0.06308546 -0.07915654 0.08291484 -0.11705852
-0.25038677 0.21133682 -0.15851654 -0.18591431 -0.20119582 0.013875976 -0.06897144 0.015811699
0.070232615 -0.2266805 -0.015678858 -0.06016544 -0.0631569 -0.13359167 -0.4501256 -0.008054616
0.06355829 -0.10628051 -0.3299089 -0.16963539 0.1906956 -0.053069945 0.06475156 0.11880171
00000000: fb8f c0be 5227 cc3d 9697 dd3c 22cd ccbd
00000010: 395e 3abc 0790 083e 116a 7fbe 0427 cdbd
00000020: db66 b4bd 083e 4ebe acd5 06be 81dc 17be
00000030: 5b1c 5bbe d6aa d3bd 7012 b83d 950d b4be
00000040: b6b3 b13e 4598 32be f8d8 4a3e fab2 a3bd
00000050: 94cd ecbc 2b54 11be 473a b53d 4e1c a2be
00000060: 6c00 b8bd eff5 3fbe be33 c9bd 3645 8ebc
00000070: aa14 473c 1055 37be 2fd8 b6bc 4286 d73d
00000080: c528 51be 53e5 92be 509b 39be 98dc 77be
00000090: f332 813d d31c a2bd 41cf a93d 61bc efbd
000000a0: b232 80be ae68 583e 2952 22be 5260 3ebe
000000b0: 4706 4ebe 1058 633c e640 8dbd 8987 813c
000000c0: 1ed6 8f3d ef1e 68be f370 80bc 0970 76bd
000000d0: 6858 81bd 41cc 08be dd76 e6be 82f7 03bc
000000e0: d92a 823d 99a9 d9bd d2e9 a8be e6b4 2dbe
000000f0: b545 433e df5f 59bd 779c 843d 504e f33d

bn4.weight f4 [64]
2.3702958 2.6317146 2.7152262 2.6862645 2.447513 2.462636 2.6324444 2.6491642
2.4500465 2.3528254 2.410863 2.862566 2.7012622 2.4835224 2.1652012 2.4079025
2.4274025 2.471596 2.3942056 2.5171006 2.4533775 2.436677 2.7881896 2.8132257
2.5278573 2.4803202 2.672712 2.187431 2.2619605 2.2062616 2.388338 2.585166
2.8252988 2.3141944 2.3115115 2.1692803 2.8007731 2.292741 2.5435019 2.0051348
2.77775 1.9757639 2.4555001 2.455278 2.6161005 2.2599366 2.3420515 2.4454854
2.8602548 2.492618 2.149676 2.4807024 2.6395466 2.8375144 2.7201786 2.972738
2.396369 1.9779727 2.5611775 2.5320485 2.3114653 2.5033715 2.2042446 2.2079728
00000000: edb2 1740 036e 2840 44c6 2d40 c2eb 2b40
00000010: 0ea4 1c40 d49b 1d40 f879 2840 e88b 2940
00000020: 90cd 1c40 b194 1640 944b 1a40 4834 3740
00000030: 7be1 2c40 08f2 1e40 a892 0a40 131b 1a40
00000040: 905a 1b40 a12e 1e40 aa3a 1940 2d18 2140
00000050: 2304 1d40 84f2 1b40 b371 3240 e40b 3440
00000060: 6ac8 2140 91bd 1e40 b70d 2b40 dffe 0b40
00000070: f6c3 1040 6433 0d40 88da 1840 5c73 2540
00000080: b2d1 3440 c31b 1440 ceef 1340 7dd5 0a40
00000090: de3f 3340 45bc 1240 bcc8 2240 2154 0040
000000a0: a8c6 3140 d5e5 fc3f ea26 1d40 4623 1d40
000000b0: 316e 2740 cda2 1040 2ce4 1540 d582 1c40
000000c0: 6a0e 3740 0e87 1f40 4b94 0940 d4c3 1e40
000000d0: 55ee 2840 d699 3540 6817 2e40 5741 3e40
000000e0: 1c5e 1940 362e fd3f 55ea 2340 150d 2240
000000f0: 0cef 1340 3d37 2040 5812 0d40 6d4f 0d40

bn4.bias f4 [64]
0.022032466 0.16670193 0.025835084 -0.0012541712 -0.07361996 -0.35961482 0.055689294 0.015378814
-0.16797481 0.08471699 0.28771263 0.052048303 -0.057194132 -0.398483 -0.1803126 -0.313761
-0.0515648 -0.42645183 0.010850278 0.15425786 -0.16435738 0.31637388 0.09313834 -0.20018071
-0.075044796 -0.21658102 -0.020236878 -0.049348127 0.054193445 0.14567928 0.07955845 0.13644467
-0.36626023 0.15520972 -0.28525123 -0.26896274 -0.06740528 0.098706976 -0.024729798 0.15750681
0.04382296 0.12496925 0.2939453 -0.052965414 0.24592341 -0.13488123 0.038348876 -0.10158442
0.11942819 0.053148165 0.34316564 0.23958996 0.0046959766 0.08728925 -0.2068082 0.099780716
-0.12980638 0.109697744 0.05498912 0.0768324 -0.14942852 0.09222252 -0.03383931 -0.0018791073
00000000: 6e7d b43c e9b3 2a3e 19a4 d33c 0163 a4ba
00000010: 10c6 96bd 6f1f b8be 751a 643d 6cf7 7b3c
00000020: 9701 2cbe 1a80 ad3d 124f 933e 9a30 553d
00000030: 6544 6abd f705 ccbe dea3 38be 48a5 a0be
00000040: 9d35 53bd e557 dabe 5dc5 313c c6f5 1d3e
00000050: 4d4d 28be c2fb a13e 50bf be3d 2cfc 4cbe
00000060: 16b1 99bd 6ac7 5dbe cfc7 a5bc 4321 4abd
00000070: f2f9 5d3d f32c 153e 8aef a23d 27b8 0b3e
00000080: 7686 bbbe 4cef 1e3e 730c 92be 7cb5 89be
00000090: c80b 8abd e226 ca3d 2596 cabc 7749 213e
000000a0: b47f 333d e1ef ff3d 0080 963e 43f2 58bd
000000b0: 59d3 7b3e 4e1e 0abe b613 1d3d 7e0b d0bd
000000c0: c496 f43d e4b1 593d 68b3 af3e 1257 753e
000000d0: b5e0 993b b5c4 b23d 87c5 53be d559 cc3d
000000e0: f7eb 04be 36a9 e03d 463c 613d 4e5a 9d3d
000000f0: ca03 19be 29df bc3d 179b 0abd 614c f6ba

bn4.running_mean f4 [64]
0.2777244 0.85512865 0.71980286 0.4392933 0.7361332 0.52114594 0.42099035 0.46184587
1.1459575 0.3612231 0.47399077 0.3314656 0.42660806 0.6260025 0.96186286 0.42055422
0.9713987 0.5829426 0.67346466 0.5396677 0.39403152 0.47444203 0.61616284 0.4652567
0.36261272 0.3205504 0.6877291 0.5433791 1.0024673 0.6480598 0.8118638 0.87356156
0.3743606 0.28858542 0.37867665 0.6029956 0.58300376 0.4944619 0.7298718 0.5908105
0.49034694 0.9513546 0.3380791 0.6341512 0.33792934 0.59399676 0.76334125 0.91710824
0.4770819 0.44051525 0.5876854 0.49235368 0.35388327 0.74537885 0.42566174 1.0749409
1.4088011 0.9051586 0.67626345 0.6707029 1.0630016 0.77237475 0.9445492 0.87932223
00000000: e431 8e3e b6e9 5a3f 0045 383f 0deb e03e
00000010: 3a73 3c3f d269 053f 0c8c d73e 1077 ec3e
00000020: bcae 923f 3cf2 b83e ebae f23e dcb5 a93e
00000030: 5f6c da3e b341 203f a53c 763f e252 d73e
00000040: 96ad 783f ba3b 153f 2e68 2c3f aa27 0a3f
00000050: 80be c93e 11ea f23e d9bc 1d3f 2036 ee3e
00000060: 60a8 b93e 2f1f a43e 040f 303f e51a 0b3f
00000070: d950 803f 3fe7 253f 4ed6 4f3f bba1 5f3f
00000080: 31ac bf3e 78c1 933e e8e1 c13e eb5d 1a3f
00000090: bc3f 153f 1c2a fd3e e1d8 3a3f 5b3f 173f
000000a0: c10e fb3e fa8b 733f b418 ad3e bc57 223f
000000b0: 1305 ad3e 2c10 183f 556a 433f 9bc7 6a3f
000000c0: 1444 f43e 378b e13e 8d72 163f c815 fc3e
000000d0: 3030 b53e 26d1 3e3f 56f0 d93e aa97 893f
000000e0: 9853 b43f 79b8 673f 9a1f 2d3f 2fb3 2b3f
000000f0: 7010 883f 5aba 453f facd 713f 431b 613f

bn4.running_var f4 [64]
0.68425584 1.841867 1.416687 1.0522913 1.2075311 0.70802045 1.1307944 0.99253523
2.5361145 0.6209114 0.76818377 0.7514778 0.95123595 1.0133444 1.7438153 0.99324334
1.5521567 0.8491913 1.0159206 0.8319097 0.65581214 1.3881127 1.087331 0.7834484
0.8006277 0.5108875 1.8525751 0.8463877 1.764762 1.0232161 1.4712663 2.1981971
0.763192 0.50981975 0.77747035 1.2369604 1.2411175 1.2035033 1.0717566 1.0391244
1.2000599 1.8728149 0.8076326 1.3002768 0.5913544 1.0490032 1.502731 1.5639552
0.96257615 0.7885768 1.2318962 0.9395632 0.7984187 2.2780282 0.88100857 1.8425609
1.8900027 1.2611458 1.2314879 1.3597498 1.3652737 1.327335 1.5229868 1.68058
00000000: 642b 2f3f 4cc2 eb3f 0056 b53f 7bb1 863f
00000010: 6190 9a3f d440 353f dfbd 903f ca16 7e3f
00000020: b34f 2240 0df4 1e3f b1a7 443f d960 403f
00000030: 3384 733f 45b5 813f 5735 df3f 3245 7e3f
00000040: 12ad c63f 9a64 593f b009 823f 09f8 543f
00000050: 4ee3 273f adad b13f aa2d 8b3f 1390 483f
00000060: f0f5 4c3f 86c9 023f 2e21 ed3f ddac 583f
00000070: b9e3 e13f bff8 823f 7452 bc3f 43af 0c40
00000080: 8d60 433f 8c83 023f 4c08 473f b854 9e3f
00000090: f0dc 9e3f 650c 9a3f 522f 893f 0702 853f
000000a0: 909b 993f 66b8 ef3f 03c1 4e3f 786f a63f
000000b0: 0163 173f bd45 863f 7d59 c03f af2f c83f
000000c0: 646b 763f 2be0 493f c6ae 9d3f 3787 703f
000000d0: 2b65 4c3f 37cb 1140 c789 613f 09d9 eb3f
000000e0: 9ceb f13f 3a6d a13f 65a1 9d3f 480c ae3f
000000f0: 4ac1 ae3f 1de6 a93f 3bf1 c23f 3f1d d73f

lin.weight f4 [50, 64]
-0.07342689 -0.30321074 -0.46045223 -0.113251895 0.15165472 0.46363696 -0.42714772 -0.12843376
0.6262288 -0.32143223 -0.0013715953 -0.41230518 0.118348494 0.1411923 0.40244442 -0.14379261
-0.06070593 -0.05038434 -0.24883553 -0.24197097 0.37938735 -0.29290172 0.18149878 0.11890452
-0.2025184 -0.11426685 -0.60560834 0.08686621 0.12406368 -0.41279504 0.32879794 0.20716175
-0.28628328 -0.31631052 0.3967972 0.14172672 -0.27911922 -0.39044186 -0.1443519 -0.26969117
-0.363141 0.18281612 0.21381028 0.03694528 -0.41263303 -0.082917765 0.3629036 -0.058340035
-0.13952558 -0.2862579 -0.23189731 -0.402195 -0.07767583 -0.57726437 0.63981545 0.043670356
0.18107545 0.16520737 0.19229123 0.41219014 -0.061667934 0.20116054 -0.08933819 0.0534248
0.23392588 -0.007135609 0.19042307 0.5205899 0.025184624 -0.055222966 0.6055419 0.16892835
0.20845322 -0.3437165 0.124942094 -0.31936485 0.06921491 0.46649572 0.24461389 -0.22602502
-0.286548 -0.026501063 -0.26161408 0.33567014 0.039992 0.14774932 0.4188172 0.103351414
-0.39585677 -0.22727177 -0.41353586 0.14807996 0.2542316 -0.021018812 0.06277008 0.49441066
0.3430643 -0.11077904 0.5160769 -0.25160444 -0.27826643 -0.08902172 -0.08341072 0.43142974
0.61160845 0.16984947 -0.036760475 -0.23517217 -0.40471652 0.43951514 0.07866747 -0.16777134
-0.53108096 0.23309477 -0.4179827 -0.109342605 -0.4283684 0.21952148 -0.046351425 0.29458854
0.25860474 0.25805014 -0.36732912 0.028460054 0.32853836 0.07919566 -0.12089199 -0.104080305
0.29277658 -0.10505033 -0.4080473 0.1266008 -0.35136068 -0.49733022 0.19281138 -0.5785628
0.09384997 0.44104376 0.18194304 -0.6289889 -0.21350692 -0.36589596 0.086842164 -0.36581418
-0.17313594 -0.21179818 -0.3858826 -0.19455698 0.08775984 -0.13129985 -0.03847285 -0.46964002
-0.18525639 -0.19956122 -0.14139593 -0.3126706 -0.23548783 0.21236624 -0.051385857 0.26346305
-0.25517407 -0.17427957 -0.245837 0.2263013 -0.19519326 -0.21471176 0.08319609 0.04203315
0.25918573 -0.36580607 0.19370982 0.4575895 -0.26652506 0.088598944 0.18515138 0.0021647739
-0.28291503 -0.10944184 0.07054791 0.22960448 -0.35473096 -0.34933975 0.040341232 -0.11339235
-0.12776645 -0.2545801 -0.01808178 0.07396965 0.2582178 0.15533592 0.42796686 -0.06423163
0.4744833 -0.13690612 0.023310585 -0.28154865 -0.010643342 -0.2547611 0.05976833 -0.39241305
0.27670673 0.3048376 -0.0015131149 -0.610427 -0.12348952 0.24654667 0.08963787 -0.32290736
-0.0444718 -0.1788781 0.13274816 -0.17110297 -0.22586806 0.41723213 -0.042026266 0.21375503
-0.17753185 -0.40870503 -0.32496363 -0.17525223 0.25075498 0.32540774 0.084757954 0.2133955
0.036520667 -0.64263445 -0.35337996 0.05837257 0.016217602 0.39665085 0.017613506 0.15552105
0.34041774 -0.25728077 0.28827125 0.08355296 -0.039946813 0.08539505 -0.11953339 -0.046196643
0.09183902 0.04466177 0.25970036 -0.28147927 -0.26337785 0.3517701 0.21202925 0.26894563
-0.38044068 -0.0073711355 0.3133199 -0.13166882 -0.05048561 0.092824385 -0.22580037 -0.14105074
00000000: d660 96bd 703e 9bbe 65c0 ebbe 9cf0 e7bd
00000010: 604b 1b3e d361 ed3e 1bb3 dabe 2484 03be
00000020: 8850 203f c492 a4be 1ac7 b3ba aa19 d3be
00000030: b260 f23d b794 103e 320d ce3e 5f3e 13be
00000040: c8a6 78bd cf5f 4ebd bece 7ebe 3dc7 77be
00000050: 0f3f c23e 37f7 95be d1da 393e 3784 f33d
00000060: fc60 4fbe bd04 eabd 2609 1bbf e9e6 b13d
00000070: 1915 fe3d df59 d3be 3458 a83e 3622 543e
00000080: b993 92be 74f3 a1be 0129 cb3e cf20 113e
00000090: b7e8 8ebe ffe7 c7be fcd0 13be f614 8abe
000000a0: 9eed b9be 2634 3b3e 15f1 5a3e ef53 173d
000000b0: a344 d3be cad0 a9bd 80ce b93e f6f5 6ebd
000000c0: cbdf 0ebe 6590 92be 7d76 6dbe 81ec cdbe
000000d0: 8114 9fbd 99c7 13bf f2ca 233f b0df 323d
000000e0: d86b 393e 1f2c 293e fee7 443e 960a d33e
000000f0: 8497 7cbd 07fd 4d3e f1f6 b6bd f7d3 5a3d
00000100: 448a 6f3e d4d1 e9bb 44fe 423e 6145 053f
00000110: fc4f ce3c 7a31 62bd cb04 1b3f 8efb 2c3e
00000120: c374 553e 9cfb afbe a4e1 ff3d ca83 a3be
00000130: 8cc0 8d3d 87d8 ee3e 107c 7a3e 1a73 67be
00000140: 6bb6 92be c218 d9bc 48f2 85be f5dc ab3e
00000150: a7ce 233d 994b 173e 356f d63e e8a9 d33d
00000160: bdad cabe eeb9 68be f9ba d3be 46a2 173e
00000170: a52a 823e a52f acbc 9a8d 803d 6523 fd3e
00000180: 20a6 af3e 1fe0 e2bd 9e1d 043f 4cd2 80be
00000190: f078 8ebe 0551 b6bd 3dd3 aabd 5ce4 dc3e
000001a0: 5f92 1c3f 05ed 2d3e 2792 16bd f9d0 70be
000001b0: 0137 cfbe 2108 e13e 691c a13d 40cc 2bbe
000001c0: ecf4 07bf 65b0 6e3e d401 d6be 04ef dfbd
000001d0: 1a53 dbbe 3dca 603e feda 3dbd 4fd4 963e
000001e0: d767 843e 261f 843e 9012 bcbe 0f25 e93c
000001f0: 2e36 a83e 5631 a23d 3896 f7bd 0e28 d5bd
00000200: d0e6 953e a124 d7bd 93eb d0be a4a3 013e
00000210: 8ce5 b3be 11a2 febe 5970 453e b11c 14bf
00000220: 6a34 c03d 7dd0 e13e 474f 3a3e 6b05 21bf
00000230: 8fa1 5abe b756 bbbe 4eda b13d ff4b bbbe
00000240: 8c4a 31be 9fe1 58be 6792 c5be f239 47be
00000250: 6ebb b33d 7873 06be b595 1dbd a874 f0be
00000260: dab3 3dbe c759 4cbe 18ca 10be 5c16 a0be
00000270: b923 71be 8976 593e fa79 52bd a1e4 863e
00000280: 2da6 82be 5876 32be b2bc 7bbe 87bb 673e
00000290: bee0 47be 66dd 5bbe b662 aa3d f42a 2c3d
000002a0: feb3 843e ef4a bbbe de5b 463e 2c49 ea3e
000002b0: f975 88be 5d73 b53d 5398 3d3e e1de 0d3b
000002c0: 3dda 90be 0b23 e0bd 6c7b 903d 701d 6b3e
000002d0: 4c9f b5be a9dc b2be d93c 253d 403a e8bd
000002e0: 35d5 02be 5358 82be 3e20 94bc 667d 973d
000002f0: 2035 843e 6110 1f3e 791e db3e df8b 83bd
00000300: 7aef f23e 1e31 0cbe d7f5 be3c 2527 90be
00000310: 6961 2ebc 0c70 82be a3cf 743d 5dea c8be
00000320: 81ac 8d3e ad13 9c3e b653 c6ba f244 1cbf
00000330: 13e8 fcbd bb76 7c3e 0f94 b73d 1d54 a5be
00000340: 1028 36bd d22b 37be 22ef 073e 9e35 2fbe
00000350: f549 67be 739f d53e bc23 2cbd 99e2 5a3e
00000360: e9ca 35be c941 d1be a261 a6be 5275 33be
00000370: f562 803e d89b a63e 9495 ad3d 5a84 5a3e
00000380: b296 153d b183 24bf 38ee b4be 1318 6f3d
00000390: c7da 843c d215 cb3e 334a 903c e940 1f3e
000003a0: 3c4b ae3e 4eba 83be 4a98 933e d01d ab3d
000003b0: 459f 23bd 9ae3 ae3d eccd f4bd b138 3dbd
000003c0: 1916 bc3d 43ef 363d 72f7 843e 0d1e 90be
000003d0: 76d9 86be 361b b43e 321e 593e 3eb3 893e
000003e0: 1fc9 c2be 9189 f1bb 776b a03e 31d4 06be
000003f0: 00ca 4ebd b61a be3d 3638 67be 9b6f 10be

lin.bias f4 [50]
-0.19144602 -0.15194474 0.15587534 0.020750396 0.033827733 0.005629276 0.14339304 0.24381775
0.082404174 0.049703915 -0.1764877 -0.09231043 0.017192153 -0.07443978 0.018303305 -0.048594244
-0.20291586 -0.13531794 -0.016228823 0.02535031 -0.18936594 -0.112415895 0.087182224 0.19357634
0.054610927 -0.20593548 0.17348818 -0.14391209 0.104941174 0.2323442 -0.2524352 -0.17095602
-0.24068183 0.4189584 -0.15031235 0.04353369 -0.036909748 -0.22519016 -0.09433282 -0.041409377
0.047312405 -0.050494518 -0.22619058 0.2869506 0.111684546 -0.16342595 -0.042646576 -0.030551234
0.069629185 -0.2614641
00000000: 6d0a 44be 6797 1bbe c99d 1f3e bcfc a93c
00000010: f38e 0a3d ca75 b83b a0d5 123e 5cab 793e
00000020: 85c3 a83d 5596 4b3d 31b9 34be 400d bdbd
00000030: 8fd6 8c3c e273 98bd d0f0 953c c20a 47bd
00000040: 2dc9 4fbe c990 0abe 4ff2 84bc 74ab cf3c
00000050: 25e9 41be 4e3a e6bd 988c b23d e038 463e
00000060: b5af 5f3d c0e0 52be e3a6 313e b15d 13be
00000070: 66eb d63d a3eb 6d3e 303f 81be 180f 2fbe
00000080: 4c75 76be b781 d63e 7beb 19be 6250 323d
00000090: ad2e 17bd 4098 66be 9131 c1bd e19c 29bd
000000a0: a7ca 413d 57d3 4ebd 819e 67be 30eb 923e
000000b0: deba e43d 2259 27be 2dae 2ebd 9546 fabc
000000c0: bf99 8e3d 9fde 85be

conv.0.weight f4 [8, 1, 5, 5]
-0.840004 0.025577206 0.04761081 -0.08896785 0.008551166 0.019830924 -0.2855771 0.1031847
-0.24896048 0.03442645 0.26361215 -0.28660658 -0.19889645 -0.2271543 -0.034448408 0.009405771
-0.29248846 -0.284744 0.40609327 0.36230278 -0.48755124 -0.29873317 -0.22009967 -0.3277714
0.37619203 -0.1457361 -0.2241092 0.18657555 0.57377267 0.39579877 -0.5088451 0.15729839
0.121724315 0.24868132 -0.13206257 -0.21185264 -0.25305808 -0.1536223 -0.05603862 0.15398872
-0.06764497 -0.30383936 0.48170742 -0.03362917 0.29559493 -0.35956857 -0.0038384825 -0.043835137
0.17837034 0.46107242 -0.1264106 0.19810331 0.021479415 -0.10691632 0.14227332 0.2529786
0.007964964 -0.14522932 -0.139706 0.056062125 0.71373653 -0.0055609783 -0.13375646 -0.3331961
-0.1961318 0.54714 0.19742227 -0.1830149 -0.22321165 0.4352327 0.45701793 0.032571718
-0.25613472 -0.48311028 0.14284372 -0.05433215 0.19876406 -0.021346226 0.16510366 -0.0038801234
0.092597164 -0.05358705 0.45337507 0.14798757 0.12710865 -0.12998036 -0.021387137 0.08378383
0.08427083 -0.16113907 -0.63859916 -0.2573343 -0.4693016 0.20666584 -0.449439 0.444858
0.34974495 -0.29844493 -0.18898624 0.079327635 -0.08132391 0.16629069 0.028214678 -0.40325454
-0.06791453 -0.2655575 -0.02403432 -0.18181336 0.030430194 0.34855878 -0.2898311 -0.27636343
0.37414747 0.40426293 -0.37793344 0.23327659 -0.027211428 0.0012845644 0.3567527 -0.474759
-0.14620598 -0.2518298 0.31883508 0.61960715 0.04407393 0.20211266 0.111495405 -0.09567056
-0.038695488 -0.04867616 0.5360574 0.6969036 0.15894693 0.40054944 0.034826122 0.4157608
0.22448076 -0.20158854 -0.0982528 -0.76578385 -0.0690191 -0.20371045 0.20021613 0.42279223
-0.3987163 -0.3760932 -0.07441243 -0.19907467 -0.19818969 -0.096333176 -0.028311167 -0.23109731
0.14398251 -0.13794263 -0.43774801 0.0058504255 0.32635897 -0.491968 -0.06764064 0.07310018
-0.06684818 -0.2636743 -0.03238975 0.018216975 0.023837496 0.036093444 0.3778712 -0.26889744
-0.06655739 0.27673003 0.51336867 0.22414407 0.43969983 0.18319617 0.011414055 -0.56845707
-0.083443284 -0.19197744 -0.12619974 -0.29028067 -0.06724199 0.35337293 0.12903671 0.034898072
-0.24423285 0.3297832 0.7007657 0.13222212 0.30220425 0.103684425 0.49777836 -0.14072573
0.076505736 -0.012995086 -0.43077782 0.26594314 -0.15795492 0.13198063 0.015038048 -0.104297
00000000: 810a 57bf 4a87 d13c 8d03 433d c734 b6bd
00000010: 311a 0c3c 7674 a23c 2937 92be 8052 d33d
00000020: 7fef 7ebe c002 0d3d 2cf8 863e 19be 92be
00000030: 83ab 4bbe 239b 68be c619 0dbd aa1a 1a3c
00000040: 0cc1 95be f7c9 91be 75eb cf3e c07f b93e
00000050: 51a0 f9be 8ef3 98be cf61 61be a7d1 a7be
00000060: 3e9c c03e d83b 15be e27c 65be a90d 3f3e
00000070: c4e2 123f 23a6 ca3e ac43 02bf d412 213e
00000080: 994a f93d 51a6 7e3e 693b 07be e6ef 58be
00000090: d490 81be 2a4f 1dbe c188 65bd 38af 1d3e
000000a0: 7289 8abd d590 9bbe 5ba2 f63e bebe 09bd
000000b0: 3858 973e 5f19 b8be 0d8f 7bbb 798c 33bd
000000c0: b7a6 363e af11 ec3e c871 01be 98db 4a3e
000000d0: 99f5 af3c f2f6 dabd 19b0 113e 6986 813e
000000e0: 7b7f 023c ffb6 14be 170f 0fbe 66a1 653d
000000f0: 70b7 363f de38 b6bb 74f7 08be ae98 aabe
00000100: c6d6 48be 5e11 0c3f 1029 4a3e 4268 3bbe
00000110: 9891 64be d2d6 de3e 41fe e93e ec69 053d
00000120: 1724 83be 3b5a f7be a045 123e 638b 5ebd
00000130: ce88 4b3e 48de aebc ef10 293e ab49 7ebb
00000140: 95a3 bd3d 187e 5bbd c720 e83e 0e8a 173e
00000150: c528 023e 9219 05be 1434 afbc db96 ab3d
00000160: 2f96 ac3d a401 25be 3c7b 23bf 52c1 83be
00000170: 4d48 f0be 36a0 533e de1c e6be 6ec4 e33e
00000180: c511 b33e c6cd 98be 9c85 41be 8776 a23d
00000190: 268d a6bd 1b48 2a3e 7822 e73c 6177 cebe
000001a0: c616 8bbd 27f7 87be 9fe3 c4bc 482d 3abe
000001b0: be48 f93c 4c76 b23e be64 94be 827f 8dbe
000001c0: 4290 bf3e 8dfb ce3e 7e80 c1be 0fe0 6e3e
000001d0: 80ea debc d45e a83a 4aa8 b63e 9d13 f3be
000001e0: 05b7 15be d6ef 80be 5a3e a33e 939e 1e3f
000001f0: dd86 343d 9ff6 4e3e b457 e43d edee c3bd
00000200: 297f 1ebd a760 47bd 0f3b 093f 4668 323f
00000210: fcc2 223e d114 cd3e d6a5 0e3d 99de d43e
00000220: 49de 653e 3a6d 4ebe c438 c9bd 690a 44bf
00000230: e359 8dbd 7999 50be 7505 4d3e 3978 d83e
00000240: 8b24 ccbe 4a8f c0be 8b65 98bd 3bda 4bbe
00000250: 3df2 4abe 544a c5bd d2ec e7bc c6a4 6cbe
00000260: 2770 133e d540 0dbe 8220 e0be edb4 bf3b
00000270: 8618 a73e 3be3 fbbe 2d87 8abd 8cb5 953d
00000280: b3e7 88bd 5100 87be 1dab 04bd c43b 953c
00000290: da46 c33c b8d6 133d 5578 c13e edac 89be
000002a0: 3e4f 88bd 8faf 8d3e 216c 033f 0686 653e
000002b0: 5620 e13e c797 3b3e 0402 3b3c 6786 11bf
000002c0: 50e4 aabd bc95 44be 813a 01be ab9f 94be
000002d0: 2bb6 89bd 4ced b43e 3322 043e 48f1 0e3d
000002e0: 2d18 7abe 58d9 a83e 6265 333f 3c65 073e
000002f0: 84ba 9a3e 8058 d43d cedc fe3e 681a 10be
00000300: 0aaf 9c3d 57e9 54bc e98e dcbe b329 883e
00000310: efbe 21be ee25 073e 2562 763c aa99 d5bd

conv.0.bias f4 [8]
0.0784651 0.002647763 0.08842218 0.07262225 -0.12832068 0.04157466 0.046233837 -0.17873771
00000000: 4fb2 a03d 1786 2d3b b016 b53d f9ba 943d
00000010: 7f66 03be 314a 2a3d b15f 3d3d 0507 37be

conv.2.weight f4 [8]
1.01009 1.0200126 0.9467294 0.9671513 1.200367 0.9907853 0.88457835 0.9112039
00000000: a14a 813f c68f 823f dc5c 723f 3a97 773f
00000010: a0a5 993f 1ba4 7d3f ba73 623f a944 693f
